script/checkpoint/LeVoice--1.pth (torch, 229391 bytes, 14 tensors)

tf.weight f4 [64, 40]
00000000: c604 3e3b e13c 7f3e 88e6 0a3e d6f9 bf3d
00000010: 19eb 22be 4e47 383e 8ebf 68be 02ad 463a
00000020: 229d 24bc 74ee ffbd 5738 433e 3c6b 78bb
00000030: 12c4 1b3e 4fba 1c3e 6cd0 5bbc 5cb0 23be
00000040: aa91 1a3e a480 ac3d bc27 923d 46ad d13c
00000050: 5912 673e a90f b2bb a616 2a3a af7e 0ebe
00000060: 10b0 783e 7798 523e bbfd 573d 4d30 2b3d
00000070: 17e3 c53c 20b2 d73d edf0 24bc 98d4 ecbd
00000080: cc50 c1bc 99b3 ce3c d20f 903d 42eb 273d
00000090: 012f 4dbd 69ba 243d 520c 873e 662a fc3c
000000a0: 9356 a8bd 5039 2dbe 6cd3 5b3c f5dd debd
000000b0: bb71 07be 3d88 fabd 96ed 0239 2144 1a3e
000000c0: e03e aabc 7886 0dbe a8ee 583c 90a6 9b3e
000000d0: 24db 92bd b6f3 02bd 2cd4 4abd 2db7 c03c
000000e0: 9690 10bc c6c0 933d a627 52bc 2bf3 72bd
000000f0: 4c78 d5bc 0022 8dbd 81c6 ca3b 696b 8bbd
00000100: 9e7e 4abd 4574 10bc a37c f0bc 7aa5 35bc
00000110: 23ef 6fbc e382 60bc c4b0 18bc d734 cebb
00000120: 35d5 70bb 174a 68bb 7093 93bb 65af 2ebc
00000130: 26dc 04bc 19be 09bb 1e62 0ebb cf49 09bb
00000140: eb6c 133e b888 0cbe 8575 ccbd 88c1 e6bd
00000150: 9257 e7bd 8ecd 28bd 337d 093e 524f 19bd
00000160: b66a 44be 68a6 ad3c 9fe2 b1be 065f 90be
00000170: 1445 78be c285 1abe 6de4 d1bd fb30 77bd
00000180: 8374 d2bc 18c1 abbe 4b1e 8ebe 0b5b b73d
00000190: 2751 a8bd 7a48 28be ec3b 8bbe 0d6f dfbd
000001a0: a7b3 78be 8f85 58be 9031 57be dd6f 03be
000001b0: 79f7 a1be a2dd b5bd 864e 23be 3b90 5abe
000001c0: 7935 00be 833e aabe e812 a5be 999a a1bd
000001d0: da83 3dbe 097f 51be fccf 7abe 3224 a5be
000001e0: 4507 b63d 6ef6 f63e 0d6f 933e b6d4 2d3d
000001f0: 436b d13d b9a0 9f3e d717 8f3e db3d 5b3e
00000200: 1c10 013f 702f e33d 0659 3abe 40c4 823e
00000210: 65ef 213e d717 703e 56e2 933e 2252 4f3e
00000220: b190 303e 6120 413e 6c3a 843d bc66 fe3e
00000230: 65de f43e b18c df3e 07d2 733e e5b9 a43e
00000240: 2ae1 803e f89c 883e 2a1c d13d 71ed 953e
00000250: 035f 893e 2cee 953e 532a 333e 39aa 9a3e
00000260: 39bc b53e 7b4b 763e f4da fa3d 54e0 963e
00000270: a55c 6e3e f7da 493e 1865 d73e 4076 283e
00000280: 3328 823e 32c8 ab3e b95e fc3e ae34 913e
00000290: aa0c 69be cbfe c93e 4104 3a3e 4220 c93e
000002a0: 7385 2f3e ef5f 62bd 52a5 6e3e 7970 643e
000002b0: 3f38 103e 467c 693e 1807 323e 10d4 dd3d
000002c0: 26a9 12bd f045 ec3e 349d 463e 6bd8 cb3e
000002d0: 5490 d43e b841 7c3e e426 853e 6eac 873d
000002e0: 4d25 c53e 7283 493e 9736 563e 5b20 6c3d
000002f0: 2c32 a63e d392 de3e d2b4 703e 93ab 163e
00000300: 9abd 783e c2c5 b33e b665 d73e 3e1f ca3e
00000310: 0e33 7a3d e658 6c3e 9740 a83e ddb1 ef3e
00000320: 2b36 653e bdc3 f53d 5826 f6bd f88f 563e
00000330: 6e12 27be 46f6 bcbd 2378 71be 9385 55bd
00000340: 9e6b a23d da68 51be ee2c 093d 8afd 5abd
00000350: 93fc 6b3e 5c04 ac3d 6808 ca3d 68fe 7b3d
00000360: 218a 51bd 15a5 363e aa8f 423d 0914 ff3d
00000370: b443 423e 194d c9bc acca 1d3e 08dc ebbd
00000380: 04d6 0e3e 14e0 853e 67a0 b03c 25d6 433d
00000390: 50c5 983e 3f2b a23e 7d51 f0bc 436b fcbb
000003a0: 5cb6 693e b256 003e 0067 233d 1071 8a3e
000003b0: 65e9 e9bd 8989 3f3b d69a 763e aa26 833e
000003c0: 3eda 87bd 26ed 4a3e 00ee 113e 59e9 6b3e
000003d0: b7ce ffbd faf2 f93d 57da 043e b52c a53e
000003e0: 21cc e33e 9e32 563c 7e8b a73e de7a 643e
000003f0: 8cd6 3f3e b20e 833d 7c56 bc3d db06 dcbd
0.0028994544 0.24925567 0.13564503 0.09373824 -0.15909995 0.1799595 -0.22729322 0.0007578881
-0.010047229 -0.12496653 0.1906446 -0.0037905714 0.15211514 0.15305446 -0.013416391 -0.15985245
0.15094629 0.08422974 0.07136485 0.025595319 0.22565593 -0.0054339957 0.000648836 -0.13915513
0.24285913 0.20565973 0.05273221 0.04179411 0.024156136 0.105320215 -0.010067207 -0.115639865
-0.023598097 0.025232123 0.070342675 0.040995844 -0.050093655 0.040216837 0.26376587 0.030781936
-0.08219638 -0.16916394 0.013417106 -0.10882179 -0.13226978 -0.12233017 0.00012486274 0.15065052
-0.020781934 -0.13820827 0.013240494 0.30400515 -0.07170704 -0.031970702 -0.04951875 0.023524845
-0.0088235345 0.07214503 -0.012826836 -0.059313934 -0.026058339 -0.068912506 0.0061882143 -0.06807596
-0.049437158 -0.008816783 -0.029356306 -0.011086816 -0.014644417 -0.013703081 -0.009319488 -0.00629292
-0.0036748175 -0.0035444552 -0.00450366 -0.0106619345 -0.008109128 -0.0021017848 -0.0021725963 -0.0020948534
0.14397018 -0.13724029 -0.099833526 -0.11267382 -0.112959996 -0.041211657 0.13426666 -0.03742916
-0.19181332 0.021197513 -0.3474321 -0.28197497 -0.24245101 -0.15090087 -0.10248647 -0.060349446
-0.025690323 -0.33545756 -0.27757487 0.08952912 -0.082186036 -0.16433898 -0.27194154 -0.10909853
-0.24287282 -0.21144699 -0.21015 -0.12835641 -0.3163412 -0.08880164 -0.15947923 -0.21344082
-0.12520398 -0.33250818 -0.32240987 -0.07890815 -0.18507329 -0.20458616 -0.24493402 -0.32254177
0.08888105 0.48234886 0.28795663 0.042439185 0.10225537 0.3117731 0.27947876 0.21410315
0.50415206 0.11093032 -0.18198022 0.25540352 0.15813978 0.23446594 0.28883618 0.20246175
0.17242695 0.18860008 0.064564556 0.49687755 0.47825924 0.43662027 0.23810588 0.32173076
0.25171787 0.26682258 0.1021045 0.29282716 0.268303 0.29283273 0.17496614 0.30207995
0.35495165 0.24052231 0.12248793 0.29468024 0.23277529 0.19712435 0.42069316 0.16451359
0.25421295 0.33551174 0.49291018 0.28360504 -0.22758737 0.39452204 0.18165685 0.39282423
0.1714075 -0.05526727 0.23305252 0.2230853 0.14083956 0.22801313 0.17385519 0.10831463
-0.035805844 0.46147108 0.19395906 0.3981355 0.41516364 0.24634445 0.26006234 0.06624685
0.3850502 0.19679049 0.20919262 0.057648044 0.32460153 0.43471393 0.23506477 0.14713888
0.24291077 0.35111815 0.42069787 0.3947696 0.061083846 0.23080787 0.32861778 0.46815386
0.22383945 0.12000225 -0.12019032 0.20953357 -0.16315624 -0.092266604 -0.23580985 -0.05212934
0.079306826 -0.20450154 0.033490114 -0.05346445 0.23045568 0.08399269 0.098648846 0.061521918
-0.05115712 0.17836411 0.04750029 0.12454993 0.18971139 -0.024572896 0.15409344 -0.11516577
0.13948828 0.2614752 0.02156086 0.047811646 0.29838037 0.3167362 -0.029335732 -0.0077032163
0.22823471 0.12533072 0.03989315 0.27039385 -0.114214696 0.0029226264 0.24082503 0.25615436
-0.06633423 0.19817027 0.14250946 0.23038234 -0.124905996 0.12204547 0.12973915 0.3226067
0.44491675 0.0130735915 0.32723612 0.22312495 0.18734187 0.06399287 0.09196183 -0.10743495

tf.bias f4 [64]
00000000: a7b4 de3d 4cfc 02bd 6045 62be 18c5 7c3d
00000010: 62a9 a93e 6590 f83d 013a 413e ebe0 77bd
00000020: d7d7 07bb 3d26 1c3e 0703 dcbd 0ad0 24be
00000030: f114 06be afc7 1ebe 7f4e 82be c3d5 b63e
00000040: 4d4a 263e f609 7ebd 6b56 b2bd 920d 35bd
00000050: ae22 15bd 4c5d fabd 28f2 c43e 9bf5 a8bd
00000060: 8bc0 513e 50bb cabc dfe2 4a3d 015e 973e
00000070: 9c4e 933e e7dc 973e 2cb1 b8bd 5cad 87be
00000080: 860e b73e 13d6 a23d 3c48 46bd 24d8 35be
00000090: 901c bb3e 8aac 5bbe 2bc2 09bd 7c73 3cbc
000000a0: 8265 8f3e a58b 6ebd b07b 0fbd 1183 56be
000000b0: 005f d5bd 4826 35be d773 43bc b678 16bd
000000c0: c2b1 b7bc b984 fcbd 6810 933e 2fdf efbd
000000d0: ffad 0ebe 600d c13d 9739 a4be d21f b7bd
000000e0: 63bf 8bbc 8568 04bc 4bf0 bd3e fdc5 91bd
000000f0: a6d1 6bbc 061d 123e a56b aa3e beb4 743d
0.108743005 -0.03197889 -0.22096777 0.0617114 0.3313704 0.12136916 0.18869783 -0.060517233
-0.0020728016 0.15248962 -0.10742765 -0.16094986 -0.13093926 -0.15505861 -0.25450513 0.35709962
0.16239281 -0.06202122 -0.08707889 -0.044202395 -0.036410026 -0.12224826 0.38466 -0.082499705
0.20483606 -0.02474752 0.049532767 0.29563907 0.28770912 0.29660723 -0.09018168 -0.2649945
0.35753268 0.07950988 -0.04840873 -0.17758232 0.3654523 -0.21452537 -0.03363244 -0.011502143
0.28007132 -0.058238644 -0.035030067 -0.20948435 -0.104185104 -0.17690384 -0.011929474 -0.036736213
-0.022423629 -0.12330002 0.28723454 -0.11712491 -0.13933562 0.09426379 -0.32075188 -0.08941616
-0.017059034 -0.00808156 0.3709739 -0.071178414 -0.014393246 0.14268884 0.3328525 0.05974268

gru1.weight_ih_l0 f4 [192, 64]
00000000: 1498 28bd 8967 edb7 462c 8b3d 6cbe debd
00000010: 15c7 91be b7e4 e6bd 8c6d a3be 0ae8 afbd
00000020: d06e 11b1 57a9 08bc 7837 503b a77d 15b4
00000030: 4907 2cb9 7e1d 52bc 9b9a 7fb9 6fa0 37be
00000040: 503b cabd 0857 ddb5 99e1 c7bd d7e0 00be
00000050: 08ae 3bb8 912d 09bd f202 68be b936 29ba
00000060: 70ff 2ebe 2d02 38b3 e795 e6bd 3121 cfbe
00000070: 13d1 7fbe a90c 78be d571 85bc d62d 8833
00000080: ecb9 8ebe 320f eb3b bb4a a2a2 c294 15bb
00000090: 6fc3 2bbe 437a 07b7 1ab2 2ab0 c85f e9af
000000a0: 7fdd 5cbe 7bd1 9daf 7ea3 eb34 43f9 ca3d
000000b0: f0aa 8db1 eb47 22b5 d1ca 632f b6c1 7ab9
000000c0: 187c 7baf 28a6 a8b1 8f91 c9be 70ee 98b5
000000d0: 060d 3830 8c00 f2bd d6bc 56b7 d348 15b2
000000e0: afea 21b7 bf7f 0bbe e37f 72be 8ec3 9d8a
000000f0: 8fed e9ba 41bf c5bd 2d10 47be 547e b5bc
00000100: ba2e 893e 3c3b b43b a2e6 1d3e 93d0 cabd
00000110: ea3e 9d3e e94b 4c3e 4a32 ad3e dd8e 583e
00000120: 2cb5 f2b1 583f 2e3e e041 5639 1933 bf34
00000130: 88a0 a03b dd19 333e 7383 8935 8555 a93e
00000140: 6609 3b3e fe3f f625 ba05 733d 9051 0e3d
00000150: 7ab3 6fb5 8fdb 4739 ab6c 573e 1dd2 93b4
00000160: dfdc 403e cdc0 2d1c 1325 743e db7d 3e3e
00000170: 2986 e4bc e154 ac3e 549b 823d 9d75 1a2f
00000180: 4c71 4e3e dc09 823e 1be8 ec33 fe92 db31
00000190: 46f2 4b3e 1a0e bb35 e9c1 9834 f808 0bb6
000001a0: 94bd 753e 0133 c72c 712b fe35 dc4f f53d
000001b0: 2564 5c35 9ca6 9233 d79d 6d3a 382c 53b3
000001c0: 134c 18b4 9d4b 0630 ca34 cb3d a21e 2535
000001d0: e369 9935 4d4a 193e f19c ea39 3a19 b034
000001e0: 8787 b5b3 5f13 ce3d 70c6 a83e f69f 7c28
000001f0: 2a5a 86b1 6f2e 6d3e 3e43 4e3e c509 973e
00000200: 681b cbbe 2ed4 2437 777c 21bd 687f f4bd
00000210: 6b58 a5be 1e69 bebe c13b 3abe 49ba 04be
00000220: c2a4 20b4 fde1 81be 6376 90bd 16f7 97b3
00000230: 36f8 27ba 1120 1cbe 35e2 34b6 c601 abbe
00000240: 3d56 6abe 5f57 83bd 8e09 4bbe 8ea5 2abe
00000250: 7258 49b7 4dbf b0bd 3a3f a3be e494 46b6
00000260: e4c5 46be 5ae0 35b2 9d3d 36be 7867 92be
00000270: 2f66 aebe f68e adbe c359 e4bd dd16 7dba
00000280: 76dd 8ebe 8be1 93be 6a93 98b7 92b3 d9af
00000290: 794a abbd 9d24 d7bc 1d86 7f32 436c c035
000002a0: 891a 14be 78b9 9934 14d5 30b7 6571 323c
000002b0: 51a9 f6b2 7ca4 b2bc c158 b8b3 ce9d 89b4
000002c0: bcdf fdb5 50a5 6d2d 2603 2ebe 4047 fdb6
000002d0: abe1 29b4 320b 80be e765 c6bb 6a59 072f
000002e0: 63b8 0cb6 6e3d 12be d11c 95be 90a4 f2ae
000002f0: 05ff 81b9 1fbc 4dbe 12bf b7bd 06f6 a1be
00000300: 90c3 943b baf1 0fb8 4390 613c cdc2 afbd
00000310: c3b2 383e d6d2 4e3e 6bf1 d03d 9a10 683d
00000320: 8f44 0eb7 b8eb 5bbd e01a 7a36 729a aeb6
00000330: 9725 0cbc 08eb 333e 35af 64bb 37ee 253e
00000340: 57d5 543e c5b1 73ba 90ba 173c 9058 1abb
00000350: 6ac5 98bb 5f46 dd3a 5f0f e83d 03db 84bb
00000360: 5adf 113e 264c e0bb cb26 513e f5a4 e03d
00000370: b0d9 26be a818 cf3d c5f1 093b ddb7 0b2f
00000380: 56fa 433e 5bb9 863d 36b7 6cae 994b 58bb
00000390: 9958 5c3d ef77 ddba b503 66b6 ac3c 2638
000003a0: 8f7f 443c 7fac 84ba a89d beb9 15ee db3d
000003b0: 1604 15b6 7334 89b5 1c79 88b9 b7d1 d6bb
000003c0: 1cbb 91bb a55e a0b1 553d e6bd 5038 3aba
000003d0: 0a26 ceb5 84b7 063c ae6a 123a 2317 3137
000003e0: f7eb 64ba 642a a93c 5a64 1b3e 6407 afb1
000003f0: 7663 1dbd b233 f13d 6cb1 223e 476e 983c
-0.041160658 -2.8300814e-05 0.06795554 -0.10876164 -0.284722 -0.11274093 -0.31919515 -0.0858918
-2.1163267e-09 -0.008341155 0.0031771343 -1.3922418e-07 -0.00016405912 -0.012824414 -0.0002437629 -0.17932294
-0.09874594 -1.6491113e-06 -0.09759826 -0.1258577 -4.4746354e-05 -0.03349072 -0.22657374 -0.00064549927
-0.17089629 -4.2842817e-08 -0.1125906 -0.4045501 -0.24982099 -0.2422358 -0.01628963 6.341331e-08
-0.27876222 0.0071734423 -4.398931e-18 -0.0022824262 -0.16773771 -8.075093e-06 -6.209874e-10 -4.245051e-10
-0.21568869 -2.8706978e-10 4.3891117e-07 0.09910824 -4.1230734e-09 -6.045436e-07 2.0717585e-10 -0.00023914021
-2.2872404e-10 -4.9083333e-09 -0.39368865 -1.1394277e-06 6.695732e-10 -0.118165106 -1.2799361e-05 -8.6895e-09
-9.650989e-06 -0.1362295 -0.23681597 -1.519211e-32 -0.0017847287 -0.096556194 -0.19439764 -0.022154965
0.26793462 0.0055002254 0.1542001 -0.099030636 0.30712062 0.19950832 0.3382743 0.21148248
-7.063724e-09 0.17016351 0.0002043317 3.56137e-07 0.0049019493 0.17490335 1.0245552e-06 0.3307306
0.18265304 4.271756e-16 0.059331633 0.034745753 -8.929561e-07 0.00019059911 0.21037547 -2.753376e-07
0.18834256 5.749009e-22 0.23842268 0.18602698 -0.027896004 0.33658507 0.06377283 1.4048003e-10
0.20160407 0.25398147 1.1031826e-07 6.39045e-09 0.19916639 1.393669e-06 2.8453294e-07 -2.0717835e-06
0.239981 5.6615827e-12 1.8937118e-06 0.119781226 8.2102116e-07 6.828961e-08 0.00090643525 -4.9167483e-08
-1.4183779e-07 4.885637e-10 0.09922178 6.1511867e-07 1.1430205e-06 0.1496975 0.00044748888 3.280091e-07
-8.4531216e-08 0.100622885 0.32963896 1.4023496e-14 -3.9101637e-09 0.23162244 0.20142838 0.2949964
-0.39669347 9.824564e-06 -0.03942534 -0.11938363 -0.3229402 -0.37189573 -0.18186857 -0.12961687
-1.49611e-07 -0.25367728 -0.070538305 -7.07643e-08 -0.0006407531 -0.15246607 -2.695376e-06 -0.3339979
-0.2288446 -0.06413149 -0.19827864 -0.16664717 -1.2001126e-05 -0.08630238 -0.31884176 -2.9590965e-06
-0.19411427 -1.0586598e-08 -0.17796941 -0.28594565 -0.34062335 -0.33898133 -0.11149933 -0.0009654591
-0.27903336 -0.28883013 -1.8188457e-05 -3.9599662e-10 -0.08363814 -0.026262576 1.4873447e-08 1.4336623e-06
-0.14463247 2.8633417e-07 -1.0540029e-05 0.010891293 -2.8715165e-08 -0.021806948 -8.584312e-08 -2.5633057e-07
-1.8915084e-06 1.3508597e-11 -0.16993389 -7.548282e-06 -1.5821449e-07 -0.2500854 -0.006054628 1.2309945e-10
-2.0968953e-06 -0.14281246 -0.29123548 -1.1034118e-10 -0.00024794802 -0.20091294 -0.08971991 -0.31633013
0.0045399144 -3.4318982e-05 0.013767305 -0.08582077 0.18036942 0.20197615 0.10202297 0.056656457
-8.479822e-06 -0.053691596 3.7268546e-06 -5.203584e-06 -0.008553884 0.17570126 -0.003489447 0.16204153
0.20784508 -0.0009296204 0.009260789 -0.0023551323 -0.0046622055 0.0016881934 0.11331057 -0.0040544285
0.14245358 -0.006845015 0.20424955 0.10968963 -0.16293979 0.10112125 0.0021048647 1.2707298e-10
0.19138464 0.065783225 -5.382291e-11 -0.0033004044 0.05379543 -0.0016896705 -3.4274829e-06 3.963399e-05
0.011993303 -0.0010122209 -0.00036357087 0.1073877 -2.2205109e-06 -1.022256e-06 -0.00026030175 -0.0065557617
-0.004447354 -4.6673727e-09 -0.11242167 -0.0007103728 -1.5359267e-06 0.0082224645 0.00055853545 1.0555409e-05
-0.0008732671 0.020650096 0.15175 -5.0940105e-09 -0.03842493 0.11777438 0.15887994 0.018607272

gru1.weight_hh_l0 f4 [192, 64]
00000000: 2e55 213e b08c 46bd 2d65 333c d40c 803d
00000010: 1a46 3cbd 3767 153e 6f26 2e3e ec14 9cbd
00000020: eb34 9e3e 9f15 2ebe 04e5 c2bd 4e80 0fbe
00000030: 3fa7 873e ab17 3cbe 9bd5 58be f261 05be
00000040: 1080 9e3c 0407 ca3c f6c1 9bbb dc32 b53d
00000050: 9155 3f3b c21e 83be 7ed7 803d d5e4 44bd
00000060: 3e6b 83be 45b1 1ebd eb3e 7c3e 77b3 5fbb
00000070: 42f0 21be 1540 a23d 436a 03be b3c0 35bd
00000080: feba b53d b1c9 8d3e 4266 3f3e ca1a 1cbc
00000090: 256d 8bbe 8e4c 3ebe 34a9 e2bd e1c9 07be
000000a0: 33b0 fabb a303 0a3e 0eee 39bc bd11 033d
000000b0: 5680 c0bd c1fb 50be 793c 363e 1372 97be
000000c0: e854 903c 6a20 353d 66c6 5dbe 2995 803d
000000d0: 0115 313e 3299 573d eda4 19be 6c15 3c3e
000000e0: f7d5 933d 680f 9e3c 86a9 bdbe 50c8 91bc
000000f0: 4746 15bd 4583 193e 39c6 bcbc b655 95bc
00000100: 5462 80be 9b69 b5bd cd1c 5bbe f65b 213d
00000110: 3e8a f83c ba0d f5bd 77e0 8bbd 986e 803e
00000120: e67f 5bbe c7ea 363c c164 873e 02e9 0c3d
00000130: 1bb5 95be 70aa 903c 1b84 403e 831d c43d
00000140: 2730 e63c c6ea 95bd e436 f5bd 3f86 3f3d
00000150: f6d1 643e f8e7 c53d 9f3b 673c d1e9 43bc
00000160: c56e 7f3e 9b44 6ebe d0db 83bd 754a c73c
00000170: 8a7a 483e 1a30 583e b212 a43d 700e 82be
00000180: 2363 843d c47e ec3b ffa9 1dbd 1f80 9bbe
00000190: 21a5 8e3e 8de5 2ebe 150b 36bc 8582 4cbc
000001a0: 2638 873e f2d5 1dbd 27e4 b13c 41b0 e1bc
000001b0: dfbf 433e 69ed 5b3e 4ef9 7ebe 2755 093c
000001c0: 76eb 42be 15cd f8bd c45a 083e 76f8 8dbd
000001d0: 871b 5bbe 545b 36be 672a 903c 42b9 bbbc
000001e0: a323 a5bc 5da2 cebd e38d 803e 835c f5bc
000001f0: 22db 563e ad24 55be 795e b53b 714c 9d3c
00000200: 94e0 9b3e c0e7 0f3d dd4d cd3c a7e1 603e
00000210: 8e30 193d 5ed2 f7bb da64 33be 62d7 2bbe
00000220: d23a 013c f411 b5bd 0336 f6bd da2d 03be
00000230: cd66 443e a45d 7abe 0b64 9fbd 5e7d fbbd
00000240: 2d51 083d b92d 483e 428e 08bd a9eb 1dbc
00000250: a717 7a3d 235e 8d3b 85d3 e93c 81d3 813d
00000260: e36d 93be 0426 06bd 702c 243d d261 6e3d
00000270: 5957 543c 4234 bcba 5674 a5be 803b 2f3e
00000280: 25be 4e3e 9000 2f3e 465e 203e b3ae 293c
00000290: c2fd f3bd 7f0d b33d 22d6 96bd 47aa 793c
000002a0: 0732 33be 33d9 ecbd 5376 13be 7c3f 6bbd
000002b0: 3576 1bbe e440 aebe f217 4f3e 877f a9be
000002c0: 592c fd3d bb16 aebd 40a8 16bd 6d84 94bd
000002d0: 1b66 b83e 8257 173e 9e24 73bd 7313 633e
000002e0: cd69 013e ad90 463e d17d 66be 19fb 29be
000002f0: ed1a 11be a564 f53d 0a81 c4bd c3b3 2fbe
00000300: 356e 90bd 7390 4d3e b7c0 52be 8de7 623e
00000310: 8469 ad3d 188e 0f3e f478 b8bb 287b ca3b
00000320: ee24 aabd c1af 64be 00c1 123e 083f cc3d
00000330: 20a1 46be bd0f 7bbe c203 123e 1b1e 40be
00000340: 748f dfbb cd4c bebd d7a4 9cbe 0d51 0ebe
00000350: 8143 653e 86db 893d d2d3 523b ba06 9bbc
00000360: 580f 0bbe 83a5 8bbe 2d7d 25be ea63 2abd
00000370: 4a77 843e e626 b03e 25b8 183d 5dd5 53bd
00000380: 1a52 7a3e f907 30be 6edf 7c3d 020b 20be
00000390: 4917 2abd afa7 edbd bbaa 3ebe ad35 5b3c
000003a0: c5b1 573c b353 44be 25cb 073e 3652 1d3e
000003b0: e996 783e b016 28be 1d3f 3bbc 925b 853d
000003c0: d995 00bd 9656 efbd b0e5 523e 2adb 623e
000003d0: 5116 823d dc15 58be 4ab9 1f3d 46dd f03c
000003e0: f201 babd 1f3d d3bd dbd3 353d f3b0 05bd
000003f0: 5992 483e 7935 cfbd 8b74 323e 0920 463d
0.1575515 -0.048474014 0.010949415 0.06252447 -0.04596529 0.14590155 0.17006849 -0.07621178
0.30899748 -0.17000435 -0.095163375 -0.14013788 0.26494786 -0.18368404 -0.21175234 -0.13025644
0.019348174 0.024661548 -0.0047533466 0.08847591 0.0029195289 -0.25609404 0.06291102 -0.048069794
-0.25667757 -0.038743276 0.24633376 -0.003413407 -0.15814307 0.07922379 -0.12833504 -0.044373225
0.088735566 0.2769294 0.18691352 -0.009527871 -0.27231708 -0.18583891 -0.11067429 -0.13260604
-0.007650399 0.1347795 -0.011348261 0.03199934 -0.09399478 -0.20408536 0.17796506 -0.2957922
0.017618611 0.044220366 -0.21657714 0.0627845 0.17293169 0.052636333 -0.1500432 0.18367547
0.07218545 0.019294456 -0.370434 -0.017795712 -0.036443975 0.14991482 -0.023043739 -0.018229347
-0.25075018 -0.08858033 -0.21397705 0.03939434 0.030339357 -0.11965509 -0.06829923 0.25084376
-0.21435508 0.011164374 0.26444057 0.0344019 -0.29239735 0.017659396 0.18800394 0.095759414
0.028099133 -0.0732017 -0.1197336 0.046758886 0.22345719 0.09663385 0.014113336 -0.011957602
0.24944599 -0.23268358 -0.0643841 0.024327496 0.19577995 0.211121 0.08011378 -0.2540164
0.06464221 0.00721726 -0.0384922 -0.30371186 0.27860358 -0.17079754 -0.011111041 -0.01248229
0.26410025 -0.038534112 0.021715237 -0.027549865 0.19116162 0.21477284 -0.2489979 0.008382118
-0.19035134 -0.12148491 0.13315874 -0.06932156 -0.2139722 -0.17808276 0.017598344 -0.022915486
-0.020158594 -0.10089562 0.2510825 -0.02995134 0.2098203 -0.20814772 0.0055349437 0.01920149
0.30444777 0.035133123 0.025061542 0.2196108 0.03739982 -0.0075629195 -0.1751894 -0.16781381
0.007887559 -0.08841315 -0.12022021 -0.1281046 0.1917984 -0.24449784 -0.077827536 -0.12279771
0.03328054 0.19548692 -0.033338793 -0.009638705 0.061057713 0.0043142005 0.028543243 0.06339169
-0.28794774 -0.0327511 0.04008144 0.058198757 0.012960278 -0.0014358836 -0.3231532 0.17112541
0.20189722 0.17090058 0.15660962 0.010356593 -0.11913635 0.087428086 -0.07365061 0.015238351
-0.17499553 -0.11564865 -0.14400606 -0.05743359 -0.15181811 -0.34033883 0.20223978 -0.33105108
0.12361974 -0.08500429 -0.03678155 -0.07251821 0.360154 0.14779475 -0.059361093 0.22175388
0.12638016 0.19391127 -0.22508933 -0.16599692 -0.14170428 0.11982087 -0.09594925 -0.17158417
-0.0705227 0.20074634 -0.20581327 0.22158642 0.08467391 0.14019048 -0.005629653 0.006179232
-0.08307825 -0.2233267 0.14331436 0.0997296 -0.19397402 -0.24517722 0.14259246 -0.18761484
-0.006822521 -0.09291992 -0.30594513 -0.13898106 0.22389032 0.06731324 0.0032169712 -0.018924106
-0.13580072 -0.27274713 -0.16161032 -0.04159919 0.2587226 0.34404677 0.03728499 -0.05171715
0.24445382 -0.17190541 0.061736517 -0.15629199 -0.041526113 -0.11604249 -0.18619816 0.0133794965
0.013164942 -0.19172554 0.13261087 0.15363392 0.24276318 -0.16414905 -0.011428622 0.06511606
-0.031392906 -0.11686437 0.20595431 0.22153917 0.06351913 -0.21102089 0.038995065 0.029402386
-0.09082402 -0.10314392 0.044391494 -0.032639455 0.19587077 -0.10117621 0.1742727 0.048370395

gru1.bias_ih_l0 f4 [192]
00000000: f603 babe b766 cd3e 1dcb 24be 9ee9 8b3d
00000010: 6484 5d3d 5be4 a2bb 3b83 763e 3b69 283d
00000020: 15a8 213e 6a61 34be cd37 7fbd 19fb 6fbe
00000030: 96c2 6b3c aecc 933e de3f 75bc 17aa cb3d
00000040: c0b6 033e c112 12be 0422 2fbe 0659 803d
00000050: dbbd dabd 6507 5cbd 9a7c 353c b27e acbe
00000060: ff1f 55be 6d51 4b3e d657 89be 62cd 1b3e
00000070: 2ef6 64be deb6 26bd e7aa db3d 7d7a 2c3d
00000080: 6875 49be 4597 75be 50b5 423e b20d a9be
00000090: 7f18 61be 63a0 c9be 91cc d0bc 2cfe 09bd
000000a0: 0225 9bbb d646 88bd b5bc 94bc 8147 933e
000000b0: 3124 77be fd91 b93d ccf5 acbd 9337 b8bd
000000c0: b2a3 dbbd 75c6 adbd 0bdd 97bd 9520 8e3c
000000d0: 4812 423d 9832 75be da5b 57ba a48f cbbe
000000e0: 627d 2a3e 5fdf b3be 5181 5a3d e06d 953d
000000f0: c199 3a3e a6dd 92bd b5e8 30be 9e24 80be
00000100: f6ae 023f a68e 943d f8ba 793d ffc3 6a3e
00000110: d6c3 183e bae4 af3e cf62 673e 266b 5b3e
00000120: 7965 8f3e efb6 2abe 395d b93e 3b30 643e
00000130: 8e0d d03d 681b 543e 8347 6a3e 76a0 c03d
00000140: 3372 1c3e 884b 743e 7d44 0dbe be33 aa3e
00000150: 2f22 5ebe 23ab 803e 1fa7 893d 7990 833e
00000160: e946 1f3e f3f9 6cbc a00a f73d 5256 cc3d
00000170: 6509 a43d 47b0 713e 5233 5f3e c825 9a3e
00000180: 1c3f b8bd 3700 9c3d 559b babd 1e68 de3e
00000190: 9d7a 033e e405 37ba a542 6d3e 23ea b93d
000001a0: 4196 8f3e 8959 c43c e91e dc3d b434 6c3e
000001b0: 9687 303e 83b7 403c b6de d1bd 967e a33d
000001c0: 4199 1e3e ae4e 9c3d 506a fc3d 1a68 803e
000001d0: 5650 98bd 0f49 aebd fcb6 a83e 7cb6 153e
000001e0: 5036 5a3e 9e63 0e3e e0ed 793d 1aa4 3c3e
000001f0: aed0 d63d 7d0f a03e 53d9 093e 84b1 8e3e
00000200: ccc7 57be cdc5 20bc 0eba b03c c033 233d
00000210: 5ed6 113e b28f 4abe 1d9d 063e 4275 253e
00000220: 45cf 6fbe 783b 783e 4d92 2b3e 7136 a63d
00000230: 324b 37be 12a1 2d3d 6a7b 893e 76f0 473e
00000240: 3e82 f33d b484 d3bd 204e 903e e14b 683e
00000250: 1ad8 4f3c 3d36 713e 295d 9bbe 52b8 a1bc
00000260: d731 c03e 9e93 373e 3d2e 81be 614b 573d
00000270: 7ddd 7e3e 8ae6 fbbc 4f2c a23e 67b6 d8bd
00000280: 32ad 1cbe a4fd 7bbe 195f 4ebe 119a 07be
00000290: 5142 9e3e 28f5 9d3d 8932 f0bd e21c 28bc
000002a0: 1d70 0a3e c102 523e 3e42 743e 7971 013c
000002b0: a715 b93e 4597 8a3e b553 c4be 6768 753e
000002c0: 92fb d03d e134 f13d e853 6a3e e8fe a13e
000002d0: 0f56 b7be e530 f7bd ea36 fe3d ba5d e23d
000002e0: cf65 bd3d e833 acbd 7017 563e ec35 1d3b
000002f0: 7492 54be f6c4 f4bd 40b2 8abd 378b edbd
-0.36331147 0.40117428 -0.16093107 0.06831668 0.054081336 -0.0049710697 0.24073498 0.04111598
0.15786774 -0.17615286 -0.062309075 -0.2343563 0.014389655 0.28867096 -0.01496884 0.099445514
0.12862682 -0.14264967 -0.1710282 0.0626698 -0.10680743 -0.05371799 0.011077071 -0.3369041
-0.20812987 0.1985528 -0.26824826 0.15215066 -0.22359535 -0.04070174 0.107259564 0.042109
-0.19673693 -0.23983486 0.19014478 -0.3301826 -0.21982001 -0.39380178 -0.02548817 -0.033689663
-0.0047346363 -0.06654136 -0.018156389 0.2876549 -0.241349 0.09061048 -0.084453195 -0.08994975
-0.10724582 -0.08485118 -0.074152075 0.01734952 0.047380716 -0.23945081 -0.0008215286 -0.39758027
0.16649392 -0.35131356 0.053345982 0.072963476 0.18222715 -0.07171182 -0.1727627 -0.25027937
0.5104822 0.072537705 0.060969323 0.22926329 0.14918455 0.34354192 0.22596286 0.21427593
0.28007105 -0.16671346 0.36203936 0.22284023 0.10158835 0.2071358 0.22878842 0.094056055
0.15277939 0.23856938 -0.13795657 0.332426 -0.21692728 0.25130567 0.06721329 0.2569616
0.15554394 -0.014463889 0.120625734 0.09977402 0.08009604 0.236024 0.21796921 0.3010695
-0.08996412 0.076172285 -0.091116585 0.4343881 0.12839742 -0.0006981774 0.23169954 0.09077861
0.28044322 0.023968475 0.10748083 0.2306698 0.17239222 0.011762503 -0.10247557 0.07983129
0.15488149 0.076321945 0.12324965 0.25079423 -0.07437198 -0.085100286 0.32952106 0.14620394
0.21309781 0.13905188 0.06101787 0.18421975 0.10489021 0.31261817 0.13461809 0.2786981
-0.2107231 -0.009812784 0.021573093 0.039844275 0.14241931 -0.19781378 0.13145871 0.16158012
-0.23418911 0.24241436 0.16755028 0.081158526 -0.17899778 0.042389937 0.2685197 0.19525322
0.11890076 -0.103280455 0.28184605 0.22685196 0.0126858 0.23555847 -0.30344513 -0.019741211
0.37538025 0.17927405 -0.2523059 0.05256212 0.24889179 -0.030749578 0.3167443 -0.105816655
-0.15300444 -0.24608475 -0.20153464 -0.13242365 0.3090997 0.077127755 -0.11728389 -0.010260792
0.1351933 0.20508863 0.23853394 0.007900589 0.36149332 0.27068534 -0.38345113 0.23965608
0.10204233 0.11777664 0.2288357 0.3163979 -0.35807845 -0.12069873 0.12412818 0.11053033
0.09247934 -0.08408338 0.20907378 0.0023988439 -0.20758992 -0.1195163 -0.0677228 -0.11598819

gru1.bias_hh_l0 f4 [192]
00000000: 1f72 8dbe 69e8 923e 528b 21be 6250 783e
00000010: 0255 433d 6d19 debc 7bb8 a73e 8dd7 95bd
00000020: 622c ff3d bd99 11be 2ac7 ebbd ed55 81be
00000030: 0978 5a3e 597d b43d 4e3f 43be 4def 743e
00000040: 98c1 5f3d d36b fabd 895b 993c ac23 593d
00000050: a62d bdbb 6665 a3bd 2adb fabd 4246 b6be
00000060: 8114 8bbc 09ac 373d 2f90 4dbe be56 623e
00000070: 8199 04be 382f aebd eaa9 fc3c 1a86 31bd
00000080: bc81 213c 9d99 b5be c6f5 8a39 3612 aabe
00000090: c765 3ebe 0f75 6ebe 660e 4b3e 6a16 1ebe
000000a0: 39be 253d 9002 0abe 5cc3 bdbb 6727 443e
000000b0: 7782 98be a154 483e fb04 c1bd c8a3 ddbd
000000c0: 4ff3 b5bc 2915 973c 1d9c 1cbe 8adc a0bc
000000d0: a3f1 893b 145d 40be ed1b ea3c 07b1 a2be
000000e0: 1447 833e 052c 8fbe 3451 483e b840 713d
000000f0: e80f fb3d c04c 01be d7b0 58bd 13c4 06be
00000100: 32e2 fe3e 0f5c b33d 0201 343d 3656 c23e
00000110: f3a6 5d3d 82e2 ab3e a7cb 4e3e 7a88 e93d
00000120: 8603 363e 9948 aabd 3c77 8b3e 3a32 533e
00000130: dc15 893e 5178 8a3d 6747 643e f917 0a3e
00000140: 5deb 833e 0125 cd3e f44a fcbc cbd7 7e3e
00000150: 9bbf 4dbe 93a9 853e bccb e73d 7763 943e
00000160: bdba 063d e6f3 87bd 56d6 e53d f682 613d
00000170: 4a98 ca3d 578b a63d 69aa d33d 3daf 8a3e
00000180: f106 44be b1ff b33d e085 37bd 0317 c83e
00000190: ab32 193e fb17 c33d 59bf 453e d56c 9c3d
000001a0: 6cb5 133e 994f 8a3a 7134 ac3d 12d7 263d
000001b0: 87e2 603e 1658 79bd b007 04be f848 5e3d
000001c0: f12f 893e 5505 d33d c372 be3d a245 993d
000001d0: 90c3 3cbd 048b bf3b 0eda 9a3e 609a 033e
000001e0: 8b83 133e 92b6 923e 8ad3 953d 3092 2c3e
000001f0: af50 733e b45f 533e 1141 323e 7bd6 cb3e
00000200: 8533 16bd 3673 ab3d ee5c 563e 8658 5cbd
00000210: cff0 f33d c983 79be 8bc3 e73d c26d 7d3e
00000220: 86a1 babe d14a 8b3c a954 143e 2795 0e3e
00000230: 0b84 c1be 084b 26bc 378b 9b3e c32d 93bc
00000240: 608a 19bc fb81 32be b661 183d 6b66 1e3e
00000250: b006 933d d2c1 393e f5e1 60be f4dc 48bd
00000260: 4ec8 573e 6cf5 97bc 320e 3abe bd7b 2b3d
00000270: 92e5 2d3e 1070 5cbe fc14 853e 5391 a7bd
00000280: 41c7 eabd 7a59 a0be 38fa adbe 10ef a7bd
00000290: 5658 823e 3f7f 873c 84d3 323d cd98 dd3c
000002a0: 2b33 1fbd 57cb 5a3e feef b63e 2394 d83d
000002b0: 3c23 113e a8ad ab3e 7e08 50be b7d5 293e
000002c0: 4b2e ab3d 23ee 253e 46db 8e3e 3965 293e
000002d0: 4f6f bdbe c4b4 11be 9513 6c3e 077a 7e3d
000002e0: ada5 253e 8b46 c4bd eb51 cd3e 9d6a dc3d
000002f0: 3570 00be 64ad babd 9447 e4bd c814 95bd
-0.2762613 0.2869294 -0.15775803 0.24249414 0.04768849 -0.027111733 0.32757935 -0.07316504
0.12459637 -0.14218803 -0.11512597 -0.2526087 0.21334852 0.08812971 -0.19067118 0.23919411
0.054627985 -0.12227597 0.018720405 0.053012535 -0.005773264 -0.079783246 -0.122488335 -0.35600477
-0.01697755 0.0448418 -0.20074533 0.22103402 -0.12949182 -0.085051 0.03084274 -0.04334078
0.009857591 -0.3546876 0.00026504527 -0.3321702 -0.18593512 -0.23286842 0.19829711 -0.15438238
0.040464614 -0.1347754 -0.005791111 0.19155656 -0.29787037 0.19563533 -0.09424778 -0.108222544
-0.022210745 0.018442707 -0.15293927 -0.019636411 0.0042097135 -0.18785506 0.02857777 -0.31775686
0.25640166 -0.27963272 0.19562227 0.05889961 0.12258893 -0.12626934 -0.052903023 -0.13160734
0.49781948 0.08757793 0.043946274 0.379564 0.054114293 0.3357125 0.20194875 0.11402984
0.17774782 -0.08314628 0.27239406 0.20624629 0.2677449 0.0676123 0.22292863 0.13485707
0.25765505 0.40067294 -0.03079746 0.24887006 -0.20092623 0.26105937 0.11318156 0.28982136
0.03289293 -0.06638317 0.11222522 0.055056535 0.09892328 0.08132046 0.103352375 0.2708682
-0.19143273 0.08789004 -0.044805408 0.39080057 0.14960735 0.09526058 0.19311275 0.076379456
0.14424676 0.0010552286 0.0840844 0.04073245 0.21961413 -0.06087502 -0.12893558 0.054268807
0.2679439 0.103037514 0.09299233 0.074839845 -0.04608494 0.0058454294 0.30244488 0.12851858
0.14405648 0.28654915 0.073157385 0.16852641 0.23761247 0.20641977 0.17407633 0.39812073
-0.036670227 0.08371584 0.20933887 -0.05379536 0.11911165 -0.24366678 0.11316594 0.247489
-0.36451358 0.017003449 0.1448542 0.13924085 -0.37796053 -0.010149725 0.3037965 -0.017966157
-0.00937137 -0.17432396 0.03720256 0.15468757 0.0717901 0.18140343 -0.21961196 -0.049038842
0.21072504 -0.018549643 -0.18169478 0.041866053 0.16982105 -0.21527123 0.25992572 -0.08182015
-0.11463786 -0.31318265 -0.33979964 -0.081998944 0.2545802 0.016540168 0.04365875 0.0270504
-0.038867157 0.2136663 0.35729975 0.1057513 0.14173597 0.33530927 -0.2031574 0.16585432
0.08358439 0.16204123 0.27901667 0.1654252 -0.36998984 -0.14229113 0.23054345 0.062128093
0.16176482 -0.095837675 0.4010156 0.10762522 -0.12542804 -0.09115103 -0.11146465 -0.07279354

gru2.weight_ih_l0 f4 [192, 64]
00000000: 4acd ccbd 655c 1f3e a477 1f3d 566a 553b
00000010: e036 813b 4228 02be 0994 5e3e ab38 3b3c
00000020: d493 96bd 5c9d 3a3e 0b3f 053d ce14 033e
00000030: 179f 16bd 3cba d93d d077 c63d bdf4 e03c
00000040: 6af4 193e 7dc9 c5bd ea46 203e 2816 39be
00000050: d50f 42be f6da 033b f078 adbd fd10 0cbe
00000060: 71fd 1e3e 13b0 a93d 3e65 cdbd 2001 b13c
00000070: c736 bbbc 4068 0a3e d20e 963e d0fd 34bc
00000080: ad74 61bc 80bd d0bd 627c 94be aa06 18bd
00000090: d715 323e 4077 41be 32c8 84bc 15e9 a03d
000000a0: 789c 10bd 730b a63c b9e5 49bc 8924 983d
000000b0: e6cc 703b e335 683e b2cd 5ebe 72f5 633e
000000c0: c2de 62bd 57ca f0bc c4e8 f43b 100b ad3c
000000d0: 0d77 8dbe 3209 d6bc 7956 283e fe37 c0bc
000000e0: e08d 0dbe 98f4 8fbd bd69 a53e 6009 b53d
000000f0: 422a 493d 7f01 fabd 8bfc 423e 1933 ad3c
00000100: 4c15 3b3e 7d73 943e 2690 24be 889b 703e
00000110: badd 313e 80cb c8bd e980 c53e 12a9 6d3d
00000120: 3650 7d3d 34f7 86be 2e4e da3c ca55 143e
00000130: cdfb 7b3c b7c0 6abe cadb 993d 914c 8abe
00000140: fdaa 363e 1f9e e23b a64d acbe a94e 87bd
00000150: fa75 3a3e 4e28 b83d c84b 38bd 45de 4fbe
00000160: b3fe 58be b36c 49be 707f 653c c4d3 d1be
00000170: bb83 dd3d d861 413e c955 03be b143 693c
00000180: 0936 a93e b5af 5a3c 5645 b33d 1b92 9ebd
00000190: 10bb f7bd 87e3 64be 430b bfbe 5189 94bc
000001a0: a2f3 f33c 12a8 0abd 95b8 5a3d 6014 863d
000001b0: 4087 4a3e 8522 8fbd 12be 203e 0d3d eabd
000001c0: 33a8 85bd f51d bebd a804 eb3d c49c 633e
000001d0: 4f3f c93c f622 dabd 89ab 063e 93ce 88bd
000001e0: e632 f7bc 8487 64bd 3719 30be 8191 113e
000001f0: b8ea 663c 9067 81bd 13c2 9a3e 85da d33d
00000200: 9772 23be 6b6b 9f3e 3310 893c b7e8 7a3e
00000210: ac71 3f3e c132 80be 2cfa 643e 7ca4 073e
00000220: 1174 2cbe 7e5f 91be b579 ff3d 29ae 893e
00000230: c587 fabd f53d a9be af12 443e 6e11 8abe
00000240: 5d16 6d3e 4e0b 15be 8004 91be 72ed 11be
00000250: 4a29 793e db6c 833e 31ae bfbd 5604 74be
00000260: f871 dabb 56a7 4dbe d999 0abe ee08 68be
00000270: 432f 1b3e 2e04 763e dcb8 0c3e 1d73 4fbe
00000280: 2152 293e f8a4 17be 09f6 1dbe be57 8fbe
00000290: 7ddd 9e3d aa63 6ebe 2adf acbe d315 623e
000002a0: a153 893e e220 b5bd 5566 1a3e 4e10 a83e
000002b0: b61f 053e 5d02 dc3d f55f e0bd dc7b cf3d
000002c0: 1162 32be ad0b cfbd 75b5 4d3e 9be4 873e
000002d0: 593a 88bc ebda 84be 173c 603e 3e06 72be
000002e0: 885f 4bbe 984c a0be f586 45bd 4ed3 2c3e
000002f0: c8fc a03d 1c66 f8bd 7956 923e f022 eb3d
00000300: e385 473e 2782 5abd 9725 213e 6945 d8bd
00000310: 81bf 81bd e278 0b3e 9869 c5bd 296b 53be
00000320: 079b ae3d 9c86 7d3d 8212 98bd 0e11 b4bd
00000330: 9f0c 79bc 9760 003e 0e6c d9bd 183b 613d
00000340: 1351 65bd 5aed 953d aad8 c9bc 03ff f43d
00000350: 52f1 ffbd a11d 1cbe abcb dc3d 2429 1c3e
00000360: b544 2fbd 012e 663d 17b8 0a3d 2a3f 803c
00000370: 510e f4bd 22d7 3bbe 8e63 7abd 0046 f63d
00000380: 07eb 5dbd eda8 f23d 8ded 1a3e 7a46 1cbc
00000390: d4bf f9bd 38a2 e83d f8f9 3b3e 8b53 c1bd
000003a0: 30a1 22be 7334 a13a ba05 e0bd e220 0bbe
000003b0: 1b87 01be bd4c bbbc 0b6e d53d cae5 9abd
000003c0: a880 dd3d f613 d63c bdf6 f6bc 71ae 1fbe
000003d0: d720 1a3e 4e10 123e 674f f0bd 253f 913d
000003e0: 6051 573e 9456 143e ae89 91bc 8534 12be
000003f0: 96c4 33bd c33f 803d 1c7f 0bbe 5671 b6bd
-0.10000093 0.1556259 0.038932458 0.0032564602 0.003943309 -0.1271067 0.21736158 0.011427085
-0.07352415 0.1822409 0.032530826 0.12800905 -0.036772814 0.106312245 0.09690821 0.02746045
0.15034643 -0.096575715 0.15652052 -0.18074858 -0.18951352 0.0020119525 -0.084703326 -0.13678356
0.15526368 0.082855366 -0.10029076 0.021606982 -0.022853268 0.1351633 0.29308182 -0.011046842
-0.013760728 -0.10192394 -0.29001147 -0.03711573 0.17391144 -0.18893147 -0.016208742 0.07856957
-0.03530547 0.020269131 -0.012322837 0.074288435 0.0036743223 0.22676806 -0.21758154 0.22261599
-0.05538822 -0.029393358 0.007474037 0.02112344 -0.2762989 -0.026127432 0.16439237 -0.0234642
-0.13823652 -0.070290744 0.32307234 0.08839679 0.049112566 -0.122073166 0.1904165 0.02114253
0.18269843 0.2899436 -0.16070613 0.2349683 0.17369738 -0.098044395 0.38574913 0.058022566
0.061844073 -0.26360476 0.026648607 0.14485851 0.015379858 -0.22925077 0.075126246 -0.2701154
0.17838664 0.006915822 -0.3365299 -0.066068 0.18209067 0.089920625 -0.044994146 -0.20299633
-0.2119091 -0.19670372 0.014007434 -0.40981877 0.10816141 0.1888498 -0.12825693 0.01423733
0.33049038 0.013347556 0.08753459 -0.07742711 -0.12096226 -0.2235242 -0.3731328 -0.018131884
0.02977926 -0.03385169 0.053398687 0.06546855 0.19778156 -0.06989006 0.15697506 -0.11437426
-0.06526222 -0.092830576 0.114754975 0.2222777 0.02456632 -0.106511995 0.13151373 -0.06680026
-0.030175637 -0.0557933 -0.17197119 0.14215662 0.014094047 -0.06318581 0.30226192 0.10344414
-0.15961681 0.3113664 0.016731357 0.24502836 0.18695706 -0.25038722 0.22361058 0.1324634
-0.16841151 -0.28393167 0.12474386 0.26890686 -0.12232927 -0.33055082 0.19147752 -0.26966423
0.23153062 -0.14555094 -0.28323746 -0.14250734 0.24332157 0.25668988 -0.09359396 -0.23829779
-0.006666418 -0.20083365 -0.1353525 -0.22659656 0.15154748 0.24025032 0.13742393 -0.20258756
0.16535236 -0.14809024 -0.15425886 -0.2799663 0.07757089 -0.23280206 -0.3376401 0.22078638
0.26821616 -0.088441625 0.15078099 0.3282494 0.13000378 0.10742638 -0.10955802 0.10131046
-0.17420222 -0.10109649 0.20088752 0.265416 -0.016629385 -0.2594827 0.21897922 -0.23635194
-0.19860661 -0.31308436 -0.04822441 0.16877481 0.07860714 -0.12128851 0.28581598 0.11481273
0.19484667 -0.05334678 0.15736996 -0.10560114 -0.063353546 0.13620332 -0.09639281 -0.20646347
0.08525663 0.06189595 -0.07425405 -0.087923154 -0.015200763 0.12536846 -0.10616313 0.054987997
-0.05598552 0.07320662 -0.024639446 0.11962702 -0.124972 -0.15245678 0.10781034 0.15250069
-0.042790134 0.056196216 0.033866968 0.015655119 -0.11916793 -0.18343785 -0.0611301 0.1202507
-0.054179218 0.11848626 0.15129681 -0.009538287 -0.121947914 0.11359066 0.18357074 -0.09439763
-0.158818 0.0012298956 -0.10938592 -0.13586763 -0.12649195 -0.02286374 0.1042138 -0.0756336
0.10815555 0.026132565 -0.03014695 -0.15593888 0.1505159 0.14264032 -0.11733895 0.07092122
0.21027136 0.14486152 -0.017765846 -0.14277847 -0.04388865 0.062621616 -0.13622707 -0.08908336

gru2.weight_hh_l0 f4 [192, 64]
00000000: e1ea a43d 1eb1 38be e79b 82bc 00a0 e73d
00000010: 313e dabc 672d 5cbe cae5 c8bc b6c1 5bbe
00000020: 326b 893d 680a 49bd 2f3a 2a3d 1cd0 9e3d
00000030: d762 0b3c f979 15bd fe04 d83d 1ee6 2dbe
00000040: 4d16 c4bc 0bc5 03bd d1e4 f63d 600d 573d
00000050: 6304 1bbe 4910 f93d af92 673d d83e 3f3e
00000060: 5df9 94bd d3db 323d 85f4 2fbc 251c 7a3d
00000070: 1b73 cf3a 1f04 40be 9049 b5bd a583 d13d
00000080: 702c 083d 69b6 dbbd 87a7 01bc cc7a 273c
00000090: 84a0 ee3d 9890 a6bd 3d1a 373e fe5c 873d
000000a0: 8dbc e83a b6c9 88bb c46c 533d d742 973d
000000b0: e179 2d3e 4c94 803c 106e 78bd 4b71 6c3e
000000c0: 1fb0 173e f84d 883a d4da 0ebe 0af4 973d
000000d0: df04 873d ef62 58bd b5d8 23bd c294 5b3e
000000e0: 62ba f8bd 6f2b c8bd dd96 b63d 1e4b e1ba
000000f0: 29f6 b13d b223 b3bd 3886 f3bd bfec 56bd
00000100: 8479 873d 0978 c43e 72ed 0bbe dc06 5a3c
00000110: f122 dbbd 80ae e43d 0e09 fbbd d0c1 00bd
00000120: 4f72 7cbe 361e 8dbe 853c 5f3d 4182 65bd
00000130: 0b7c bebe 4dec 42be 8e05 1d3b 4a96 c33e
00000140: 9d88 873d cc9e 8b3e a2b4 75be 4c27 68be
00000150: 8ddd 193e 459a 123e 2f66 8abe e462 223e
00000160: fb47 10be 3af6 3e3d 9087 50be 0d00 84be
00000170: 392b 313d fa13 923e f8e2 91be 120c f33d
00000180: 6db3 443e a0ec ea3a 081c 79bd cc7c ae3d
00000190: 1354 2f3e 9840 a8bd 9a05 58be 806b c93e
000001a0: 9051 843e 3b0e e63b 262a 81be 140e 303e
000001b0: 037e b83e 9b02 08bb 4c07 c33e 6ed3 b13d
000001c0: c992 633e ce5f 3dbe b57f 413e b8c9 333b
000001d0: f54b eb3d 54cc 24be 9b27 723e d593 4f3e
000001e0: 0067 b33e 083e 233c 7956 7dbc 2fd2 dbbd
000001f0: 9700 e93d a2b0 943e 2957 913e ac9a 523e
00000200: 98db 6d3e 5e5e 553e d930 8ebe b3d1 423e
00000210: 7f3c 94be c7d8 debd 57cb 9bbe 31fb 59be
00000220: ecc1 8f3d df9d 19bd 24f8 ddbc c9a0 74bd
00000230: b6ab 16be 57f3 94be c556 5a3e 1308 533e
00000240: 2412 e23d adcc 893d 3572 5ebe 6e53 983d
00000250: 9656 74bc 3bf2 9f3e 5e81 99bd 82d1 663e
00000260: b9c5 36be 07c0 753e aa28 ef3b 61a0 b3be
00000270: e8a3 8e3e d20f f53d e592 b7bc 9bcd 373e
00000280: 9200 ba3e 8357 5cbd d75d c33d 131a 953e
00000290: d0f1 673e 2c7e 8d3e cc6d 5bbe 6e91 d73d
000002a0: a5cf 863e 632d 223e 52b9 333c 3834 753e
000002b0: ed86 22bd 0b17 22be 594c 1f3d 0caf 853e
000002c0: c66c 16bd 7f54 48be 2e4d 1dbe b8cf 903e
000002d0: b158 4a3e d2a8 95be 7246 b33d 76c8 2b3e
000002e0: 2e2b 893e 212f 113e 1a32 423d f0db 6cbe
000002f0: 8a47 693e 4403 f13d e426 ac3d 0e88 fe3d
00000300: ae2e 73be 908c 9dbc 7e3a d33d 5b74 62be
00000310: 148e 493e 4527 42bc 5475 623e 6f43 373e
00000320: 4a4a 7f3e 94a1 273e f43b 36be bebb 103c
00000330: 50c3 8d3d a2b2 a43e 9a6f c6bd ba47 5cbb
00000340: 7202 1abe 4a25 afbd 356e b23d df0a 0c3e
00000350: 447a 663c 28b4 0abe 0545 ac3d c0f2 4dbe
00000360: ce7a e83d 2f70 98be 4b73 9d3d fdf7 8e3d
00000370: f94d 75be 2157 bdbc 688b 173e e185 6dbe
00000380: 5eef d3bd 2a1f 34be 2282 133e a873 64be
00000390: d664 1ebe 9656 a7bd c9f8 983d 08ef 643c
000003a0: 08c1 7ebe 07aa 05be 82da de3d 71a4 22be
000003b0: 71ea acbd ca41 843c b31c d4bd c240 2dbe
000003c0: 7196 52be 7869 653e 4854 ce3d 8bff 8abe
000003d0: 5d8f 85be e93b 153e daf6 a9bd a684 65be
000003e0: ae0d 9bbd 4388 07be 62ff a53d c682 3e3e
000003f0: 6385 00be 0835 07be 6727 24bd d0bf 85bb
0.08052612 -0.18036315 -0.01594348 0.113098145 -0.026640983 -0.21501695 -0.024523634 -0.21460614
0.06709899 -0.04908219 0.041559394 0.077545375 0.008507452 -0.036493275 0.10547827 -0.16982314
-0.023936415 -0.032170337 0.12055362 0.05250299 -0.15138392 0.12161309 0.056536373 0.18676317
-0.07274125 0.043666672 -0.01073945 0.061061997 0.0015827151 -0.18751572 -0.088519216 0.10230187
0.033245504 -0.10728151 -0.007913477 0.010222148 0.1165171 -0.08133048 0.17881103 0.06609534
0.0017756388 -0.0041744364 0.0516174 0.073857956 0.16941024 0.015695713 -0.06065184 0.23090093
0.14813279 0.0010399213 -0.13950664 0.07419594 0.06592726 -0.052828725 -0.04000159 0.21443465
-0.12144925 -0.09773909 0.08915494 -0.0017188524 0.086895294 -0.08747043 -0.118908346 -0.052471872
0.06614974 0.3837283 -0.13664797 0.013307299 -0.10700024 0.11166096 -0.122575864 -0.031434834
-0.2465298 -0.27562112 0.054501075 -0.056032423 -0.37204012 -0.19035454 0.002395961 0.382006
0.06617854 0.2726959 -0.23994687 -0.2267124 0.15025921 0.14316662 -0.27031085 0.15858036
-0.14089958 0.04662154 -0.20364213 -0.2578129 0.04325411 0.28530866 -0.28493476 0.118675366
0.1920907 0.0017923303 -0.06081775 0.08519897 0.17121916 -0.08215445 -0.21095887 0.39339828
0.25843477 0.0070207394 -0.2522747 0.1719287 0.3603364 -0.0020753506 0.38091505 0.08682905
0.22223963 -0.18493578 0.18896373 0.0027433466 0.11489097 -0.1609357 0.23647921 0.20271237
0.3503952 0.00996352 -0.015462511 -0.10733449 0.11377066 0.2904101 0.2838681 0.20566815
0.232283 0.2083678 -0.27771643 0.19025306 -0.28952405 -0.10881191 -0.30428573 -0.21287228
0.070194095 -0.037504073 -0.027095862 -0.05972365 -0.1471394 -0.29091904 0.21322162 0.20608549
0.11038616 0.06728492 -0.21723254 0.07437788 -0.014913222 0.31239495 -0.07495378 0.22540858
-0.17848863 0.23999034 0.0072985487 -0.35083297 0.27859426 0.11965908 -0.022408912 0.17949526
0.3632856 -0.053794395 0.09539383 0.29121456 0.22650838 0.27635324 -0.21428603 0.105257854
0.26330295 0.15837626 0.010969477 0.23945701 -0.039679457 -0.15829103 0.03889117 0.26110113
-0.03672483 -0.19563483 -0.15361473 0.28283477 0.19760396 -0.29230362 0.08753671 0.16775689
0.26790756 0.14178135 0.04741106 -0.23130774 0.22781196 0.11768201 0.08405855 0.12428294
-0.23748276 -0.019232064 0.10313891 -0.22114699 0.19683105 -0.011850183 0.2211507 0.17896818
0.24930683 0.16370231 -0.17796308 0.008833824 0.069220185 0.32167536 -0.09689255 -0.0033612088
-0.15039995 -0.08552034 0.087124266 0.13676022 0.014067236 -0.13545287 0.08411602 -0.20112133
0.11351548 -0.2977309 0.07688006 0.06980894 -0.23955525 -0.023112835 0.14799273 -0.23195602
-0.1034839 -0.17590013 0.1440511 -0.22309744 -0.15468153 -0.08170812 0.07469327 0.013973005
-0.24878323 -0.13053142 0.10881521 -0.15883042 -0.08443154 0.016144652 -0.103570364 -0.16919234
-0.20565201 0.22403514 0.10074669 -0.2714809 -0.2608594 0.14573635 -0.08299036 -0.22413883
-0.075709686 -0.13235573 0.08105351 0.18604574 -0.12550883 -0.13203824 -0.04007664 -0.0040817037

gru2.bias_ih_l0 f4 [192]
00000000: 145a d23d 6572 a3bd b56b 7e3b e832 75be
00000010: 44ab 9c3e af65 5cbe c5bc a4be 9219 3bbc
00000020: 9fd6 c0bd 9c92 b4be 839a 51bd 5327 2ebe
00000030: 02ca 9abe 026c 0cbd 6135 1a3e 6c81 8bbe
00000040: 86ef 223d e256 be3d 2610 653e 657a 0c3e
00000050: 4038 29be eeff 7b3d 3e09 5ebe c96e 243e
00000060: 3c11 48bc 087d 163e cb13 3ebe bdbb b73d
00000070: 71ec 44bd ad6d 6bbe 962b 583b aa74 75bd
00000080: d858 ccbd 2913 29be 9a65 223e b7a7 4ebe
00000090: 1f1a af3e 1727 78be 31a9 823e 430c 22be
000000a0: d7fa e23d fee7 3bbe e6da 89be 3242 e93d
000000b0: 91fa 2cbd 85fd 71be ae64 c8be dfde 2e3e
000000c0: af4e 1dba 71f3 cb3d e5dc 91bc 9837 2f3e
000000d0: 5300 52be 2e5f 223d 4fd7 d83d b34f 3f3e
000000e0: 8786 61bd 5437 d83c 9870 9ebd 52e0 ed3d
000000f0: a099 d5bd 0193 a6be d3b9 1dbe a3d4 a7be
00000100: dae8 b6bd 59bf e2bd 474a ca3d 910f d03d
00000110: aea2 8bbe 1889 6ebe b9c1 c23d 3f60 223d
00000120: 0c4f ca3d e51d d4bc 28a1 16bd 85c8 313d
00000130: 7997 293e 7905 45bd 0d2b 33be dbd5 f3bc
00000140: f658 b3bc e585 903e bf1f 603d 1843 14be
00000150: 59fc 8bbd fa1b 0bbe 024a d5bd f1ad e93d
00000160: 5022 b43d ebff 63be ed84 803d 43b1 7f3e
00000170: fcc9 44be 6e0f 2b3e a491 8b3e 7e98 0b3d
00000180: 8511 2e3e efb6 e23d 98e7 753e a625 693d
00000190: 4e25 593e ec87 f03d 2362 133e 6db1 783d
000001a0: 835f 5abe 2697 eabd 2f96 063d bae4 40be
000001b0: 868a 2c3e 26e7 11be d94d 813e 7a77 ee3d
000001c0: bda2 ffbd fb6c d53b 7bb6 80be 9e48 b3be
000001d0: 6368 adbc b0e4 73bd 851e 8e3e c5fc 22be
000001e0: 13ea eabd 94b6 0f3e 11a9 283e 9a3b 203e
000001f0: 72d9 143c b4be 443e d6fb e73d 5094 983e
00000200: 0e22 913d f761 35be 7486 673e 262c 483e
00000210: 29a2 4d3d 69a9 d23d e5dd 61be adf8 aabe
00000220: b16e 0dbe c3c3 18be aff7 d23d 3502 b33d
00000230: bcf1 2e3d 7392 5bbe 74da 8f3e 08a8 14be
00000240: 4149 16be 1320 d83c 0c58 043e 23e5 88bd
00000250: e3cd 20be b2cd c73e 7522 3e3e d4ce 443e
00000260: 3251 81be 064b 8c3d eb81 cd3d d22b 713e
00000270: cfd2 523e 42a7 ddbd 15c9 1b3e 5e13 343e
00000280: d2c4 353e 8d43 f23d 8037 a1b9 e507 813e
00000290: 6ec7 98bd f3b5 803d e596 473e 73ff cdbd
000002a0: 41df 823d 7a9d 013e b7c9 45bb c037 613e
000002b0: d03c 963d 1011 11bd 67de 3dbe 10a6 9d3e
000002c0: d914 62bb 648d 4b3d 4e79 df3c 79af 1b3e
000002d0: 05ec 8e3d b574 4ebe c37d 54be 152c f03d
000002e0: 73bb 0fbe 10ce 303e a8e6 10ba a32c 66be
000002f0: 274f 263e 7ef5 8abd 4170 e5bd fafe 94bd
0.10271087 -0.079808034 0.0038821523 -0.239452 0.30599415 -0.21523164 -0.3217527 -0.011419671
-0.09415936 -0.35268104 -0.051172744 -0.17007188 -0.30232245 -0.03428269 0.15059425 -0.2724718
0.03977921 0.09293915 0.22369441 0.13718565 -0.16525364 0.06152337 -0.21683213 0.16057886
-0.01221114 0.14696133 -0.18562238 0.08971355 -0.04807705 -0.22991057 0.0032984964 -0.059925713
-0.09977883 -0.16511215 0.1585907 -0.20181166 0.34199616 -0.24233662 0.25519708 -0.1582499
0.11083 -0.18350217 -0.2692482 0.11389579 -0.042231146 -0.23631866 -0.39139313 0.17077206
-0.00060007995 0.09958542 -0.017805526 0.17111051 -0.20507936 0.03964155 0.10587942 0.18682747
-0.055059936 0.02639357 -0.07736319 0.11615051 -0.10429692 -0.3253403 -0.15402918 -0.32779416
-0.08931132 -0.11071653 0.098774485 0.10159219 -0.27272552 -0.23294485 0.09509606 0.03964257
0.09878358 -0.025893161 -0.036774784 0.04340412 0.16561688 -0.048100922 -0.17496891 -0.02976506
-0.021893006 0.28227153 0.054717775 -0.14478719 -0.06835241 -0.13584891 -0.104145065 0.1141013
0.08795607 -0.22265594 0.062753536 0.24969964 -0.19217676 0.16705105 0.27259552 0.034080975
0.1699887 0.11070048 0.24014127 0.05692067 0.21205637 0.11744675 0.14392905 0.06071608
-0.21325497 -0.114546105 0.03285807 -0.18837252 0.16849717 -0.14248332 0.25254706 0.11643882
-0.12482212 0.0065132356 -0.25139222 -0.3501634 -0.02116794 -0.059544265 0.2775766 -0.15916736
-0.11470427 0.14034492 0.16470744 0.15647736 0.009085046 0.19213372 0.11327331 0.29800653
0.070865735 -0.17713152 0.22609884 0.19548091 0.050203476 0.10286219 -0.22057302 -0.3339285
-0.13811757 -0.14918427 0.10301148 0.08740655 0.042711005 -0.21442585 0.28096354 -0.14517224
-0.14676382 0.026382482 0.12924212 -0.06684329 -0.1570354 0.3902412 0.18567832 0.19219524
-0.2525726 0.06850247 0.100345455 0.23551872 0.2058823 -0.108229175 0.15213425 0.17585513
0.17750862 0.118292905 -0.00030749664 0.25201336 -0.07459913 0.06284704 0.19491155 -0.10058489
0.063902386 0.12657729 -0.0030180046 0.21993923 0.07335818 -0.035416663 -0.18541871 0.30790758
-0.003449729 0.049695387 0.027279522 0.15203656 0.06978611 -0.20161708 -0.207511 0.11727158
-0.1403635 0.17266107 -0.00055275345 -0.22477965 0.16241132 -0.06785105 -0.11203051 -0.072751954
