script/checkpoint/LeVoice-2001.pth (torch, 229391 bytes, 14 tensors)

tf.weight f4 [64, 40]
-0.061723024 -0.01823204 -0.031121619 0.1715368 -0.07211527 0.31670696 -0.1787012 0.13252532
0.285581 0.16458294 0.004419387 0.086730935 0.14623775 0.38841826 0.09612267 0.27991962
0.4219435 0.30827573 0.5322144 0.28372842 0.21632747 0.45135292 0.43889967 0.22965714
0.34270462 0.21930516 0.13884136 0.20105724 0.15721723 0.26193115 0.1892064 0.0190461
-0.01063266 -0.057420358 -0.09245599 0.027350686 -0.23632444 -0.04788696 -0.11819051 -0.14387889
0.3134571 -0.08084141 0.0535003 -0.08140403 0.050608225 0.32766044 0.03655776 -0.12722275
-0.046149213 0.11000516 0.04151504 -0.010009467 -0.1259537 -0.13505122 -0.021416457 0.034124482
-0.011108926 -0.11572688 -0.07997723 -0.012479638 -0.019577177 -0.10005738 -0.07276277 -0.09755116
-0.12675574 -0.17466892 -0.13814935 -0.16121346 -0.09284945 -0.04864032 0.06811395 -0.012313737
-0.10586544 -0.034019466 0.031687956 -0.033321247 0.024826327 0.115977846 0.008909762 0.0011787971
0.55637497 0.3097132 0.419729 0.59783214 0.3717262 0.39048612 0.22446246 0.30128103
0.39324906 0.3277136 0.43146667 0.2512202 0.2390778 0.17442581 0.36654282 0.14695217
0.32952455 0.046111744 0.27349362 0.19729967 0.18459125 0.43829235 0.26393786 0.28979895
0.24233365 0.3354738 0.25255132 0.22133997 0.08244754 0.17693718 0.021247275 0.061915886
0.11575248 -0.11636884 0.079219714 0.08608846 0.11489618 0.04617959 0.026017517 0.16506335
-0.167249 -0.09562542 0.09271385 -0.033572517 0.01684126 0.34442386 -0.10628173 -0.12486433
-0.22147214 -0.023714641 0.05431608 0.016617453 -0.06962454 -0.1744065 -0.03687888 -0.116871424
-0.07657945 0.0024006336 -0.03485384 -0.019205458 -0.11389052 -0.035820812 0.11320687 0.092739336
0.05979455 -0.053779695 -0.008702838 -0.1343608 -0.041975692 0.028036011 0.08115477 0.0025785647
-0.01856686 0.0013363718 -0.02523539 -0.030996507 -0.022786956 -0.024557104 -0.048259653 -0.010508982
-0.42639244 0.05852447 0.21876647 -0.008523555 -0.24236111 -1.4943254 -1.0426949 0.025918446
0.21415769 0.83814126 0.9714092 0.6595032 0.42554584 1.0721529 0.95918673 1.0116005
0.87486523 0.42004296 0.44591025 0.3570812 0.5183812 -0.13286588 -0.4108294 -0.5708809
-0.3568214 -0.17277758 0.04179992 0.079776295 0.06203692 -0.0724474 -0.16370866 -0.19515526
-0.3699555 -0.2594493 -0.24009301 -0.18416259 -0.39123714 -0.42064127 -0.32770404 -0.27559257
-0.194344 0.29020104 0.26307702 0.0020007086 -0.09281668 -0.073206395 0.018211845 0.22855735
1.0080448 0.8464923 0.827168 0.60682887 0.31606063 0.50212973 0.27298522 0.12848036
0.016710645 -0.058243748 -0.13751543 -0.0849759 -0.089720786 -0.40382534 -0.72536576 -0.69578785
-0.57918465 -0.43472257 -0.3262368 -0.33052862 -0.22583951 -0.2125562 -0.18723857 -0.16058908
-0.2013626 -0.22411317 -0.28407872 -0.2509521 -0.33388355 -0.32913476 -0.23630723 -0.19123182
0.2754637 0.1167281 0.20783497 0.19828564 0.022846622 0.114203095 -0.0059833196 0.1853856
0.10412497 0.04770981 0.056149166 0.23415154 0.21014091 -0.035803642 -0.045154188 0.21076193
00000000: 48d1 7cbd 5c5b 95bc c4f2 febc 58a7 2f3e
00000010: 2cb1 93bd 6a27 a23e 73fd 36be b8b4 073e
00000020: ac37 923e 6e88 283e 81d0 903b fd9f b13d
00000030: 59bf 153e c2de c63e f6db c43d a051 8f3e
00000040: fa08 d83e 51d6 9d3e 343f 083f da44 913e
00000050: f384 5d3e bb17 e73e 75b7 e03e 3e2b 6b3e
00000060: fb76 af3e 8891 603e 6e2c 0e3e f3e1 4d3e
00000070: 8efd 203e d71b 863e 53bf 413e 9106 9c3c
00000080: 9c34 2ebc 9c31 6bbd 9159 bdbd 8c0e e03c
00000090: 09ff 71be 1e25 44bd de0d f2bd fd54 13be
000000a0: 737d a03e 2e90 a5bd 2123 5b3d 28b7 a6bd
000000b0: 924a 4f3d 1cc3 a73e 97bd 153d ae46 02be
000000c0: f506 3dbd 634a e13d ad0b 2a3d bffe 23bc
000000d0: 02fa 00be de4a 0abe 9171 afbc 1dc6 0b3d
000000e0: 3602 36bc 3702 edbd 1acb a3bd 6577 4cbc
000000f0: 5160 a0bc e2ea ccbd a604 95bd e7c8 c7bd
00000100: 42cc 01be 69dc 32be 0677 0dbe 2415 25be
00000110: da27 bebd 123b 47bd 547f 8b3d 8ebf 49bc
00000120: fbcf d8bd ff57 0bbd 3bcb 013d dc7b 08bd
00000130: 9560 cb3c cb85 ed3d 40fa 113c de81 9a3a
00000140: 976e 0e3f bb92 9e3e b8e6 d63e 870b 193f
00000150: e652 be3e cced c73e 7dd9 653e 8241 9a3e
00000160: f157 c93e 14ca a73e 33e9 dc3e ef9f 803e
00000170: d0d0 743e ae9c 323e 80ab bb3e a17a 163e
00000180: 71b7 a83e abdf 3c3d 5b07 8c3e ed08 4a3e
00000190: 7d05 3d3e db67 e03e dd22 873e 8760 943e
000001a0: 5026 783e 39c3 ab3e 684e 813e f2a6 623e
000001b0: 41da a83d 052f 353e c40e ae3c 839b 7d3d
000001c0: a30f ed3d c952 eebd f23d a23d 264f b03d
000001d0: b04e eb3d cf26 3d3d b022 d53c 5e06 293e
000001e0: 5243 2bbe 43d7 c3bd c2e0 bd3d 5683 09bd
000001f0: aff6 893c 5358 b03e 3caa d9bd dfb8 ffbd
00000200: 98c9 62be 3545 c2bc 8a7a 5e3d 5321 883c
00000210: 5097 8ebd 9e97 32be 4f0e 17bd 495a efbd
00000220: b0d5 9cbd f353 1d3b e6c2 0ebd c454 9dbc
00000230: 6f3f e9bd d8b8 12bd 01d9 e73d 1fee bd3d
00000240: 21eb 743d 1948 5cbd 5996 0ebc e195 09be
00000250: b4ee 2bbd c7ab e53c 7934 a63d 23fd 283b
00000260: 8719 98bc 3229 af3a 73ba cebc 63ec fdbc
00000270: b6ab babc fb2b c9bc eaab 45bd de2d 2cbc
00000280: 1c50 dabe 5bb7 6f3d 5104 603e 61a6 0bbc
00000290: 832d 78be 0e46 bfbf 0777 85bf ec52 d43c
000002a0: 274c 5b3e 6d90 563f 46ae 783f 34d5 283f
000002b0: 25e1 d93e 4e3c 893f 438d 753f 207c 813f
000002c0: 2bf7 5f3f df0f d73e 594e e43e 59d3 b63e
000002d0: a1b4 043f fe0d 08be 3b58 d2be 4025 12bf
000002e0: 4bb1 b6be 9bec 30be 6536 2b3d c161 a33d
000002f0: 6d1a 7e3d 4d5f 94bd 3ea3 27be c8d6 47be
00000300: cf6a bdbe 8ad6 84be f1da 75be 1e95 3cbe
00000310: 3c50 c8be 4b5e d7be d3c8 a7be 781a 8dbe
00000320: 1d02 47be 3b95 943e 08b2 863e 521e 033b
00000330: ac16 bebd 3ced 95bd 0231 953c f00a 6a3e
00000340: 9d07 813f b8b3 583f 48c1 533f 2359 1b3f
00000350: b3d2 a13e 938b 003f b8c4 8b3e 5b90 033e
00000360: c3e4 883c ff90 6ebd d8d0 0cbe d807 aebd
00000370: 88bf b7bd 32c2 cebe 92b1 39bf 271f 32bf
00000380: 7245 14bf f593 debe 8308 a7be 0c3b a9be
00000390: 7942 67be 55a8 59be 78bb 3fbe 7771 24be
000003a0: ff31 4ebe ec7d 65be c472 91be cb7c 80be
000003b0: c9f2 aabe 5a84 a8be 86fa 71be 46d2 43be
000003c0: 9409 8d3e 240f ef3d b1d2 543e 640b 4b3e
000003d0: d728 bb3c 50e3 e93d b90f c4bb b9d5 3d3e
000003e0: 793f d53d 5d6b 433d abfc 653d 6cc5 6f3e
000003f0: 2e2f 573e d7a6 12bd 99f3 38bd fad1 573e

tf.bias f4 [64]
0.12475052 -0.057895456 -0.062825285 -0.26659033 0.057440497 0.020657193 0.037985582 0.17597859
0.20954543 -0.048162133 0.1608962 -6.3092e-22 0.019768791 0.018237578 -0.23868 0.0021911196
-0.0034726202 -0.014618551 -0.094387755 0.07209486 -0.00809795 -0.028621692 -0.012494636 -2.099573e-17
-0.067205906 0.0106261615 -0.54691744 0.017605357 -0.018592233 -9.026192e-05 0.03940256 -3.0830314e-18
0.02222713 -0.06807646 -0.0038431792 -0.10544516 -0.039988853 0.047205493 -0.27406222 0.027652731
-1.5101999e-23 -0.6530558 0.036612723 -0.0188635 -0.03353473 -0.065203205 -1.2112796e-15 -0.00016836044
-0.024805928 -1.408342e-16 -4.0504163e-15 -0.06196967 -4.448e-42 -2.112e-42 0.17530227 -3.7379739e-06
-6.155e-42 -0.0058419257 -0.03702475 0.04530027 -0.04851711 -4.206402e-14 -0.105506584 -0.06778355
00000000: 337d ff3d c923 6dbd 8baa 80bd 877e 88be
00000010: ba46 6b3d 4639 a93c c596 1b3d bb33 343e
00000020: 1493 563e a845 45bd f9c1 243e 12af 3e9c
00000030: 29f2 a13c f966 953c 8868 74be e398 0f3b
00000040: e694 63bb a682 6fbc 5e4e c1bd 78a6 933d
00000050: 44ad 04bc 0a78 eabc 4db6 4cbc c4a6 c1a3
00000060: 40a3 89bd 5a19 2e3c c802 0cbf 1c39 903c
00000070: bd4e 98bc 004b bdb8 9464 213d d17c 63a2
00000080: ac15 b63c ac6b 8bbd d9dd 7bbb a2f3 d7bd
00000090: 5acb 23bd 8c5a 413d e251 8cbe fb87 e23c
000000a0: bd0e 9299 aa2e 27bf 39f7 153d a087 9abc
000000b0: b75b 09bd 4289 85bd 5490 aea6 e989 30b9
000000c0: cd35 cbbc eb5e 22a5 7fee 91a7 e9d3 7dbd
000000d0: 660c 0080 e305 0080 7082 333e e7d9 7ab6
000000e0: 2811 0080 a06d bfbb 44a7 17bd c78c 393d
000000f0: e1b9 46bd 8370 3da9 d613 d8bd 1ad2 8abd

gru1.weight_ih_l0 f4 [192, 64]
-0.010353161 0.046118557 0.026886586 0.031748783 0.07461497 -0.107683994 -0.2011282 -0.22217475
-0.18450911 2.898319e-05 -0.19317631 -2.768e-42 -0.3253692 0.040738896 0.0025597878 -0.02636693
1.448e-42 -0.18368492 -0.04193658 0.27944607 6.295e-42 0.0028035785 0.153232 -5.535e-42
-0.03726531 0.120279126 -0.07156922 -0.080523774 -0.016032299 -6.19e-42 0.08822268 -2.242e-42
-0.077613115 -0.0066580437 -2.9104547e-28 -0.01215491 -0.0645806 -0.054317366 -0.0053986693 0.020307684
1.81e-43 -0.00016500437 -0.25620624 -0.049178552 0.0052672895 0.084229134 -4.763e-42 -3.88e-43
-0.049410917 5.514e-42 1.386e-42 -0.119141184 4.113e-42 -2.587e-42 0.04605612 4.53e-42
-2.248e-42 -0.21984906 -0.0015554945 0.17576014 0.03920277 -3.552e-42 0.035502315 -0.15136115
0.16214986 0.13420726 -0.1172736 -0.0015184048 -0.18415783 0.03024087 -0.0048817233 -0.14215493
-0.13355233 -8.81159e-09 -0.042327527 3.649e-42 0.29717305 -0.00808625 -0.029600022 -0.03339829
-2.073e-42 0.1736727 0.00648094 -0.34116706 -1.243e-42 -0.019764628 0.13673683 -3.167e-42
-0.022302333 0.042428326 -0.005097644 0.029594064 0.06691261 6.289e-42 -0.0845439 2.232e-42
0.20159872 0.07745099 -2.4600046e-27 0.019274142 0.23109566 0.191152 0.039875355 0.016945813
4.491e-42 0.0027938972 0.36599845 0.09749144 0.09119959 0.055656366 -6.952e-42 2.699e-42
-0.041676708 2.933e-42 4.606e-42 -0.026149623 -6.25e-42 6.662e-42 0.08355738 2.89e-42
-3.387e-42 0.22445132 -0.0011420968 -0.06487127 -0.012023644 -2.71e-42 -0.020022694 0.002471086
-0.35103324 -0.008594781 -0.29814798 -0.008381058 0.0057670353 -0.012871232 -0.10704574 -0.047690514
-0.0150911985 -7.4830596e-16 -0.12351182 -4.722e-42 -0.01228079 -0.0112264855 -0.0019087032 -0.03533856
3.535e-42 -0.009014642 -1.8504267e-06 -0.020394389 7.68e-43 4.7612554e-07 0.003067989 -1.893e-42
-0.00046353447 -0.020386104 8.038048e-05 -0.0018149021 -0.0031910301 -0.004863586 -0.022894599 3.737e-42
0.0019127042 -0.008228508 -2.199e-42 -0.0014246014 -0.010426939 -0.012540129 3.7160335e-05 -0.0023584836
-1.24e-42 0.0005686443 -0.0122765675 -0.0014033186 -0.0036394715 0.008226479 0.0025496061 -5.182e-42
-0.21462037 -5.78e-42 -1.627e-42 -0.049425896 -0.004437382 -4.417e-42 -0.3858205 -6.491e-42
-0.0048979633 -0.013260924 -7.896671e-05 -0.025176937 5.966545e-05 -6.421e-42 -0.00020944126 0.006443403
-0.17942862 0.002228533 -0.027294938 -0.0060361964 -0.0067885546 -0.019938886 -0.0651983 -0.009328162
-0.001881005 -0.00807739 -0.12441097 -3.262e-42 -0.015535651 -0.016921388 -0.004022392 -0.027730756
6.949e-42 -0.014511574 0.00029717284 -0.021454893 1.973e-42 2.0973932e-06 0.011644636 -4.331e-42
0.00022115977 -0.021702876 -0.0044509526 -0.023138674 -0.005583756 0.0029816364 -0.026585236 -5.35e-42
-0.006860304 0.001331656 0.0019188616 -0.0027243807 -0.0090810545 -0.0010233783 -0.0015181055 0.0054282816
-4.841e-42 -0.0024444368 -0.0044089053 -0.00971131 0.00090071006 -0.01949038 0.0048921397 -2.302e-42
-0.153784 -4.051e-42 -2.025e-42 -0.0649811 0.0046746586 -1.142e-42 -0.17511588 -2.07e-42
0.0049004857 0.0045567886 -1.5924175e-05 -0.03539207 0.0015383799 -4.816e-42 -0.005855997 -0.044885606
00000000: 4ea0 29bc d0e6 3c3d 4241 dc3c 030b 023d
00000010: bccf 983d 6d89 dcbd 8df4 4dbe c781 63be
00000020: f5ef 3cbe ed20 f337 03d0 45be b707 0080
00000030: cb96 a6be d4dd 263d 1dc2 273b 76ff d7bc
00000040: 0904 0000 e617 3cbe b1c5 2bbd 8e13 8f3e
00000050: 8c11 0000 3ebc 373b d9e8 1c3e 6e0f 0080
00000060: 82a3 18bd e754 f63d e292 92bd a6e9 a4bd
00000070: 2b56 83bc 4111 0080 18ae b43d 4006 0080
00000080: a0f3 9ebd b82b dabb d478 b891 6325 47bc
00000090: d542 84bd e37b 5ebd 52e7 b0bb 4d5c a63c
000000a0: 8100 0000 0605 2db9 772d 83be 736f 49bd
000000b0: 3a99 ac3b 5380 ac3d 470d 0080 1501 0080
000000c0: 1a63 4abd 5f0f 0000 dd03 0000 4b00 f4bd
000000d0: 770b 0000 3607 0080 58a5 3c3d a10c 0000
000000e0: 4406 0080 1d20 61be bce1 cbba 77fa 333e
000000f0: 1593 203d e709 0080 e06a 113d 6bfe 1abe
00000100: 9d0a 263e a16d 093e 242d f0bd 3605 c7ba
00000110: df93 3cbe b3bb f73c ddf6 9fbb 1091 11be
00000120: f1c1 08be c861 17b2 a15f 2dbd 2c0a 0000
00000130: 1127 983e 317c 04bc bf7b f2bc a5cc 08bd
00000140: c705 0080 42d7 313e 115e d43b 73ad aebe
00000150: 7703 0080 6ee9 a1bc bd04 0c3e d408 0080
00000160: 62b3 b6bc 53c9 2d3d 230a a7bb 406f f23c
00000170: 7a09 893d 8811 0000 5a25 adbd 3906 0000
00000180: e56f 4e3e a09e 9e3d d2e6 4293 cee4 9d3c
00000190: 57a4 6c3e 5abd 433e 5754 233d f2d1 8a3c
000001a0: 850c 0000 d119 373b 2664 bb3e 98a9 c73d
000001b0: dac6 ba3d eef7 633d 6113 0080 8607 0000
000001c0: 32b5 2abd 2d08 0000 d70c 0000 bc37 d6bc
000001d0: 6c11 0080 9212 0000 2220 ab3d 0e08 0000
000001e0: 7109 0080 91d6 653e 69b2 95ba 3adb 84bd
000001f0: d1fe 44bc 8e07 0080 a206 a4bc f2f1 213b
00000200: a1ba b3be 20d1 0cbc daa6 98be b550 09bc
00000210: 66f9 bc3b dce1 52bc cc3a dbbd 2157 43bd
00000220: 1341 77bc 3caf 57a6 c4f3 fcbd 2a0d 0080
00000230: 5e35 49bc 4bef 37bc 742d faba 2abf 10bd
00000240: db09 0000 26b2 13bc 2d5c f8b5 2212 a7bc
00000250: 2402 0000 329e ff34 5010 493b 4705 0080
00000260: 8b06 f3b9 c200 a7bc f191 a838 02e2 edba
00000270: 9a20 51bb b75e 9fbb 748d bbbc 6b0a 0000
00000280: b4b3 fa3a ddd0 06bc 2106 0080 b1b9 baba
00000290: c1d5 2abc 1d75 4dbc 9bdc 1b38 ca90 1abb
000002a0: 7503 0080 1311 153a a823 49bc 8fef b7ba
000002b0: 3384 6ebb 5bc8 063c 4b17 273b 720e 0080
000002c0: 71c5 5bbe 1d10 0080 8904 0080 cf72 4abd
000002d0: 7567 91bb 500c 0080 448a c5be 1812 0080
000002e0: 187f a0bb 5944 59bc ee9a a5b8 dd3f cebc
000002f0: 4a41 7a38 e611 0080 769d 5bb9 2f23 d33b
00000300: 23bc 37be 940c 123b a299 dfbc 49cb c5bb
00000310: 8672 debb e056 a3bc b086 85bd 26d5 18bc
00000320: 0e8c f6ba 0757 04bc 2ecb febd 1809 0080
00000330: 3e89 7ebc b99e 8abc 45ce 83bb 9c2b e3bc
00000340: 5f13 0000 f4c1 6dbc ddcd 9b39 2cc2 afbc
00000350: 8005 0000 f1c0 0c36 25c9 3e3c 130c 0080
00000360: 20e7 6739 3bca b1bc 4cd9 91bb 518d bdbc
00000370: f1f7 b6bb 8f67 433b 48c9 d9bc ea0e 0080
00000380: 67cc e0bb f68a ae3a 5082 fb3a 868b 32bb
00000390: b4c8 14bc e122 86ba 2bfb c6ba badf b13b
000003a0: 7f0d 0080 d832 20bb 9478 90bb 301c 1fbc
000003b0: a11d 6c3a 4aaa 9fbc 3e4e a03b 6b06 0080
000003c0: 8e79 1dbe 4b0b 0080 a505 0080 d014 85bd
000003d0: e12d 993b 2f03 0080 9451 33be c505 0080
000003e0: 4194 a03b 1d51 953b e894 85b7 46f7 10bd
000003f0: 77a3 c93a 6d0d 0080 aae3 bfbb f8d9 37bd

gru1.weight_hh_l0 f4 [192, 64]
0.002590964 -0.17511351 0.09881025 -0.22258557 -0.31348506 0.062128928 -0.0063534826 -0.13477965
-0.18490832 -0.07428828 -0.098667525 0.24889071 -0.080919676 -0.22064783 0.01088944 0.3977205
0.086663395 0.0014326042 -0.14536473 -0.011970964 -0.020295706 0.05396433 -0.2758589 -0.42241907
-0.049143936 -0.07759057 -0.062350947 0.12686558 0.05720479 0.03614919 -0.05731544 -0.20705366
-0.13127185 -0.2089197 -0.059412252 -0.18289733 -0.14983737 0.15604733 0.039169036 -0.018601744
0.15624419 0.07956956 -0.18487415 0.15076774 -0.12056022 -0.18603308 -0.10155694 0.23710862
0.110214 -0.0022321383 0.16826363 0.023664445 0.07831743 -0.14268251 -0.22258522 0.24450536
0.014033311 -0.08432 0.2874842 -0.049828146 -0.19560143 0.19658542 -0.11547887 0.24738781
0.01405603 -0.047471926 0.17017289 -0.13651592 -0.021448556 -0.21148753 0.17135271 -0.17718197
-0.015262315 0.32567656 0.23844005 0.31985044 -0.1995442 -0.16245717 0.018088609 0.2883827
0.021310894 0.19086692 -0.11965224 -0.15468006 -0.13515571 0.19857058 -0.3402979 -0.35460478
-0.25787258 0.07977087 0.19738062 0.38865328 -0.0637068 -0.044425465 0.15397322 -0.13148232
-0.16043952 -0.11823167 0.00057136675 -0.35701826 0.19274972 0.5105357 -0.13648559 -0.08560967
0.1270597 -0.26091707 0.08194072 -0.046745412 -0.14436947 0.075843975 -0.129838 0.31382912
-0.07194671 0.0077820746 -0.052273806 -0.09340491 -0.24484642 -0.013934889 -0.4395685 0.1025207
0.061048202 0.27022752 -0.0152487755 -0.2652406 0.06837914 -0.16461053 0.04300793 -0.36809117
-0.13147737 -0.10151145 0.05855744 -0.021479363 -0.07996226 0.25681522 -0.22991973 -0.15308544
-0.2223831 -0.03313264 0.16424172 0.32523254 0.09782015 -0.17514004 -0.25485674 0.14431785
-0.17520145 -0.20445856 0.16345453 -0.30378032 -0.39505845 0.23367834 -0.38915864 0.09072949
-0.43851265 0.06693893 0.015048329 0.14840245 -0.08759623 -0.04376337 -0.044851568 -0.0054696957
-0.05113275 -0.061932348 0.14661042 -0.23259395 -0.28190753 -0.15632157 -0.086900085 -0.051083185
0.081035495 0.08566088 -0.10109172 0.017365946 -0.043895707 -0.043387808 0.20996177 0.32293177
0.14860888 -0.29336852 0.0777612 0.060616814 0.15007871 -0.080579355 -0.24538168 0.29395318
0.08181768 0.24311055 -0.07847186 -0.036090475 0.19727261 0.06345813 -0.14271067 -0.24383979
0.27704495 -0.12477509 0.032783482 -0.5360701 -0.3961687 0.02561624 -0.117251374 0.010385379
-0.042274978 0.016512254 -0.31475434 0.15044653 0.074152604 -0.26909274 0.027151944 0.26743504
0.14881277 0.029342445 0.0055046487 -0.4718384 -0.18671538 0.2090305 0.07577038 -0.0893349
-0.07176262 0.083594345 0.22624235 -0.20621628 0.028333731 -0.04327372 0.07821776 -0.05198002
0.037185993 -0.2816744 0.15829042 -0.028956719 -0.23766336 -0.08824988 -0.06847056 -0.076334
0.28275925 0.22943401 -0.21146104 -0.013907266 0.03837286 -0.10461401 -0.10676383 -0.0063166255
0.050376814 -0.260106 0.26436022 -0.04301146 0.103840746 0.0016705075 -0.015101872 0.2620629
0.017921053 0.03040466 0.10901816 0.087924846 -0.22749262 -0.018496782 0.07486622 0.18938859
00000000: 2acd 293b f550 33be 075d ca3d 79ed 63be
00000010: 1d81 a0be e77a 7e3d e030 d0bb ad03 0abe
00000020: 9b58 3dbe 7424 98bd 3312 cabd 35dd 7e3e
00000030: 37b9 a5bd 81f1 61be 9f69 323c 05a2 cb3e
00000040: 947c b13d 38c6 bb3a 7eda 14be dd21 44bc
00000050: 2e43 a6bc b409 5d3d 613d 8dbe 5047 d8be
00000060: 274b 49bd cee7 9ebd b563 7fbd 0de9 013e
00000070: 924f 6a3d 2c11 143d 98c3 6abd e005 54be
00000080: 216c 06be 0cef 55be 435a 73bd 7049 3bbe
00000090: f86e 19be dfca 1f3e b66f 203d af62 98bc
000000a0: 7afe 1f3e 5ef5 a23d a64f 3dbe dc62 1a3e
000000b0: 47e8 f6bd 757f 3ebe 16fd cfbd 9acc 723e
000000c0: e1b7 e13d 1149 12bb 4d4d 2c3e f0db c13c
000000d0: e464 a03d 5d1b 12be 61ed 63be 9d5f 7a3e
000000e0: f9eb 653c f7af acbd 2131 933e 9918 4cbd
000000f0: be4b 48be b04d 493e 3080 ecbd 3b53 7d3e
00000100: 434b 663c ec71 42bd cd41 2e3e d4ca 0bbe
00000110: e2b4 afbc 3090 58be 1677 2f3e 316f 35be
00000120: ca0e 7abc 14bf a63e a129 743e 70c3 a33e
00000130: 5155 4cbe 2c5b 26be 902e 943c e6a6 933e
00000140: 2f94 ae3c 9e72 433e 3c0c f5bd 7364 1ebe
00000150: 4266 0abe 1656 4b3e 873b aebe c28e b5be
00000160: e007 84be e95e a33d 251e 4a3e 90fd c63e
00000170: b678 82bd 7af7 35bd 28ab 1d3e 4da3 06be
00000180: 424a 24be 7223 f2bd c6c7 153a 19cb b6be
00000190: 2f60 453e 78b2 023f e1c2 0bbe 1f54 afbd
000001a0: f01b 023e ec96 85be 89d0 a73d 1e78 3fbd
000001b0: 97d5 13be 1654 9b3d 41f4 04be 36ae a03e
000001c0: cc58 93bd c600 ff3b 0f1d 56bd 134b bfbd
000001d0: 05b9 7abe 294f 64bc 1f0f e1be 5ff6 d13d
000001e0: ae0d 7a3d 435b 8a3e 00d6 79bc 9ecd 87be
000001f0: 5d0a 8c3d aa8f 28be 1529 303d 7276 bcbe
00000200: 01a2 06be 3ce5 cfbd edd9 6f3d 7df5 afbc
00000210: 41c3 a3bd 497d 833e 1470 6bbe 6ec2 1cbe
00000220: 65b8 63be 17b6 07bd fb2e 283e e184 a63e
00000230: ee55 c83d e957 33be 957c 82be 0fc8 133e
00000240: 0268 33be 965d 51be a060 273e 1889 9bbe
00000250: 1a45 cabe 6049 6f3e cd3f c7be 62d0 b93d
00000260: bb84 e0be 4717 893d 448d 763c d0f6 173e
00000270: a765 b3bd 3841 33bd 47b6 37bd 223b b3bb
00000280: 9370 51bd c6ac 7dbd 0b21 163e 1c2d 6ebe
00000290: 2f56 90be c312 20be acf8 b1bd 9a3c 51bd
000002a0: f0f5 a53d f96e af3d 2d09 cfbd 0743 8e3c
000002b0: fccb 33bd 6ab7 31bd 3800 573e 5057 a53e
000002c0: ed2c 183e 6634 96be 4441 9f3d 5649 783d
000002d0: 3cae 193e ca06 a5bd 5645 7bbe 0881 963e
000002e0: 0790 a73d f9f1 783e dbb5 a0bd 9bd3 13bd
000002f0: d501 4a3e 56f6 813d bf22 12be 23b1 79be
00000300: d6d8 8d3e 158a ffbd f947 063d e43b 09bf
00000310: a0d6 cabe 26d9 d13c 7d21 f0bd 7027 2a3c
00000320: 8728 2dbd b544 873c 7b27 a1be a80e 1a3e
00000330: 52dd 973d 86c6 89be c16d de3c 3fed 883e
00000340: 6062 183e 915f f03c 5760 b43b ce94 f1be
00000350: 5132 3fbe 170c 563e 802d 9b3d 37f5 b6bd
00000360: 48f8 92bd 8333 ab3d 13ac 673e 5c2a 53be
00000370: 241c e83c c93f 31bd a230 a03d 00e9 54bd
00000380: 5750 183d a137 90be e216 223e a436 edbc
00000390: 065e 73be 5abc b4bd 4b3a 8cbd 0055 9cbd
000003a0: d2c5 903e c0f0 6a3e 3e89 58be 4ddb 63bc
000003b0: dc2c 1d3d df3f d6bd ffa6 dabd b2fb cebb
000003c0: eb57 4e3d 9d2c 85be 395a 873e c92c 30bd
000003d0: 75aa d43d eef4 da3a d86d 77bc 1c2d 863e
000003e0: 2ccf 923c 3213 f93c ea44 df3d f111 b43d
000003f0: d3f3 68be 9086 97bc 7653 993d 15ef 413e

gru1.bias_ih_l0 f4 [192]
-0.03450315 0.23239662 -0.4204916 -0.3042509 -0.35219136 0.2544402 0.23956823 -0.00070166844
0.08737334 0.23599014 -0.43278804 0.27795023 -0.38277078 -0.005747413 -0.019106258 0.012373662
-0.23776834 0.07047956 -0.6834096 0.043408416 -0.12043553 0.18848333 0.05174802 0.09612036
-0.082055666 0.13753547 0.06715205 -0.19731633 -0.16168693 0.157709 0.41619554 0.064927414
0.028686399 0.015815573 -0.08127322 0.1275035 -0.36848748 0.28016087 0.014724469 -0.124044664
-0.083156444 0.038214363 -0.36436343 0.43270913 -0.18736662 0.040182106 0.40007296 0.086120404
-0.17291999 -0.19425489 -0.054460354 -0.3299678 0.089946136 -0.08928187 -0.0091479 -0.0025222164
-0.3699154 0.08021601 -0.10422513 -0.08356579 0.50091875 -0.20312048 -0.023012029 -0.20447548
-0.36079824 -0.5168802 0.36859238 -0.36480492 -0.48393837 0.13552871 -0.44928077 -0.0134244645
-0.2112573 -0.11674621 0.15192199 0.1354253 0.28021517 -0.32562464 -0.10360914 -0.26338202
0.4970714 -0.38207507 0.5932661 -0.42063066 0.069943465 -0.12294533 -0.193118 0.12240425
0.2517969 -0.39012015 -0.3780322 -0.11172481 -0.34799474 -0.40710843 -0.069291525 -0.33848503
0.112755984 -0.4342428 -0.043289676 0.12216004 -0.1925117 -0.38180688 -0.48538724 -0.4403774
-0.26570487 -0.04881741 0.46095374 0.45685533 0.2947041 -0.21387874 0.43208253 -0.04732893
-0.029058712 -0.28978187 -0.37426156 0.35824043 -0.072137244 -0.29114845 -0.14704497 -0.38981944
0.41405773 -0.18820179 0.40044782 -0.081514046 0.59668815 0.32607928 -0.20627555 0.057861917
-0.2047697 0.23463705 -0.14207377 0.31550866 0.16551928 -0.054609094 0.05870267 -0.2208139
-0.11007382 -0.0656882 0.034480657 -0.056879 0.059045803 0.33303517 -0.26704505 -0.04679109
0.17714676 -0.12462648 -0.12248339 0.26309523 -0.0010755393 -0.3299494 -0.1533318 -0.063591085
0.049465097 0.12648916 -0.23781213 -0.036056638 -0.10107239 -0.1917876 0.16889058 0.2434944
-0.01377667 0.16093136 -0.05230157 0.025636971 0.12731577 -0.06123716 0.07600154 0.14307608
-0.17898183 -0.03718208 -0.02990295 -0.19279942 -0.0012538966 -0.13378975 -0.15447319 -0.035455644
0.06549093 0.26553473 -0.20132992 -0.091739856 0.05796718 -0.13103308 0.020530717 -0.026076412
0.07185366 0.059252474 0.11551981 -0.17142494 -0.08160747 0.15378033 -0.12442759 0.025732078
00000000: 2d53 0dbd 61f9 6d3e ad4a d7be c6c6 9bbe
00000010: 6d52 b4be fc45 823e 6051 753e 2cf0 37ba
00000020: cbf0 b23d 66a7 713e 6596 ddbe 7e4f 8e3e
00000030: 88fa c3be cb54 bcbb ba84 9cbc e6ba 4a3c
00000040: 8b79 73be 9657 903d eef3 2ebf 06cd 313d
00000050: e7a6 f6bd c601 413e bbf5 533d c0da c43d
00000060: cd0c a8bd 19d6 0c3e 0487 893d 4b0d 4abe
00000070: 4291 25be 787e 213e 9517 d53e aaf8 843d
00000080: bdff ea3c a98f 813c 9372 a6bd 4790 023e
00000090: 64aa bcbe 3f71 8f3e e63e 713c 210b febd
000000a0: ed4d aabd aa86 1c3d d88d babe 0d8c dd3e
000000b0: 09dd 3fbe fe95 243d 5dd6 cc3e e55f b03d
000000c0: f011 31be c1ea 46be d211 5fbd 8af1 a8be
000000d0: ae35 b83d 6ad9 b6bd 13e1 15bc c54b 25bb
000000e0: 8d65 bdbe 4b48 a43d fc73 d5bd 8a24 abbd
000000f0: 363c 003f d1fe 4fbe b983 bcbc 0562 51be
00000100: 8cba b8be 4352 04bf 24b8 bc3e b6c7 babe
00000110: c5c6 f7be 0ac8 0a3e 2108 e6be 49f2 5bbc
00000120: d553 58be a318 efbd 7091 1b3e eeac 0a3e
00000130: 5d78 8f3e 46b8 a6be 0731 d4bd 02da 86be
00000140: 2480 fe3e 589f c3be 4ae0 173f e75c d7be
00000150: 853e 8f3d c3ca fbbd bac0 45be 14af fa3d
00000160: 86eb 803e d4bd c7be 708d c1be facf e4bd
00000170: 5e2c b2be 8470 d0be b7e8 8dbd e94d adbe
00000180: 9cec e63d 1355 debe 8450 31bd 0b2f fa3d
00000190: c921 45be 317c c3be ad84 f8be 2679 e1be
000001a0: 780a 88be c4f4 47bd 2102 ec3e f1e8 e93e
000001b0: 75e3 963e 0703 5bbe ec39 dd3e fbdb 41bd
000001c0: 890c eebc 4a5e 94be 369f bfbe 4a6b b73e
000001d0: b1bc 93bd 6911 95be f592 16be 6a96 c7be
000001e0: 60ff d33e f8b7 40be 7f07 cd3e d6f0 a6bd
000001f0: 8ec0 183f ddf3 a63e e639 53be 9e00 6d3d
00000200: 26af 51be b244 703e c97b 11be 5a8a a13e
00000210: e37d 293e c9ad 5fbd 3672 703d 0a1d 62be
00000220: 626e e1bd 8987 86bd 973b 0d3d f4f9 68bd
00000230: 03da 713d 9683 aa3e 21ba 88be 04a8 3fbd
00000240: f665 353e 2b3c ffbd 92d8 fabd 6bb4 863e
00000250: 1cf9 8cba 21ef a8be 0303 1dbe 0b3c 82bd
00000260: ea9b 4a3d 6086 013e 0685 73be 20b0 13bd
00000270: 0bff cebd f863 44be a7f1 2c3e 9956 793e
00000280: 8bb7 61bc 31cb 243e 2c3a 56bd a004 d23c
00000290: 115f 023e d1d3 7abd b2a6 9b3d 8982 123e
000002a0: 0347 37be 3d4c 18bd 08f7 f4bc 366d 45be
000002b0: ca59 a4ba 2e00 09be 382e 1ebe f039 11bd
000002c0: 1c20 863d 2bf4 873e 6e29 4ebe 1be2 bbbd
000002d0: fe6e 6d3d 892d 06be 0930 a83c 339e d5bc
000002e0: 0328 933d b9b2 723d a695 ec3d 058a 2fbe
000002f0: d121 a7bd 9778 1d3e e4d3 febd 14cc d23c

gru1.bias_hh_l0 f4 [192]
-0.2424634 0.11505435 -0.34689912 -0.44889113 -0.23510009 0.27855963 0.16451842 0.1604945
0.026703112 0.25182548 -0.2961066 0.14962552 -0.5750372 -0.028524678 0.06403122 0.18585786
-0.14800553 0.18343262 -0.6297799 0.13024907 -0.12568673 0.29598892 -0.026449181 0.24738565
-0.04598105 0.1782221 0.016073678 -0.09716309 -0.097922616 0.009295536 0.44514784 -0.04454451
0.072631374 -0.089576855 -0.1902032 0.038863976 -0.43111977 0.32801875 -0.053853124 -0.28536898
-0.30836177 0.076720655 -0.3456573 0.43995503 -0.31169742 0.113633 0.2586805 0.09512064
-0.3196813 -0.078643054 -0.061764162 -0.23830003 0.022761494 -0.060339138 -0.011221271 -0.050626606
-0.43224886 -0.08529129 -0.1629125 -0.18167351 0.4997977 -0.2088593 -0.037796482 -0.26777098
-0.41904098 -0.43661124 0.36012506 -0.38655633 -0.50025034 0.0948193 -0.48071024 -0.021443587
-0.29214925 -0.12970473 0.25960487 0.074222356 0.2923234 -0.34322605 -0.048608813 -0.38495412
0.34016356 -0.421902 0.5296138 -0.35401958 0.018719185 -0.14266688 -0.22102843 -0.018466288
0.2274202 -0.39483833 -0.32059866 -0.046218503 -0.26628122 -0.34219497 -0.12173961 -0.34085497
0.016108165 -0.28789663 -0.09436779 0.059003346 -0.18349446 -0.33787203 -0.30724403 -0.36327767
-0.2868364 -0.004169743 0.3202788 0.43459934 0.25029606 -0.21244001 0.39444694 0.012842291
0.08819899 -0.27660543 -0.28750333 0.42012364 0.02225306 -0.21068442 -0.1493063 -0.49182904
0.35938686 -0.1635986 0.35288042 -0.12409786 0.55272853 0.3025824 -0.10838356 -0.026783569
-0.12991908 0.26539844 -0.12291154 0.1552513 0.18679571 -0.013464948 0.04460914 -0.06749316
-0.012322511 -0.26786178 0.17351046 -0.12694827 0.043035362 0.3249274 -0.08921745 -0.23039074
-0.08203681 -0.15639178 -0.12113421 0.391921 -0.017171936 -0.365661 -0.012278901 -0.19356383
-0.002649242 0.21287213 -0.14761642 -0.1317227 -0.03697328 -0.16138087 0.120881766 0.12793247
0.1447309 0.26427197 -0.05400932 0.16285199 0.16340378 -0.1544011 0.21504089 0.108049385
-0.17955244 0.009915713 0.030313319 -0.15837552 0.15578645 -0.22293842 -0.11154149 -0.21786422
0.058852307 0.2958865 -0.17458092 0.03302889 0.30086574 -0.09496383 0.07098594 -0.26820752
0.015819168 -0.041710213 -0.009165484 -0.25532335 -0.23072274 0.3132265 -0.14119287 -0.002230577
00000000: 5348 78be 9da1 eb3d c39c b1be 0fd5 e5be
00000010: 14be 70be 5e9f 8e3e 8477 283e ac58 243e
00000020: 7cc0 da3c 45ef 803e 499b 97be 6f37 193e
00000030: a335 13bf 96ac e9bc cd22 833d 8651 3e3e
00000040: c38e 17be c3d5 3b3e 4139 21bf 0360 053e
00000050: 06b4 00be dc8b 973e f4ab d8bc aa52 7d3e
00000060: a056 3cbd db7f 363e f2ac 833c 71fd c6bd
00000070: a78b c8bd 4e4c 183c 6bea e33e 4e74 36bd
00000080: c2bf 943d 1274 b7bd a1c4 42be d52f 1f3d
00000090: bbbb dcbe 13f2 a73e 1895 5cbd e21b 92be
000000a0: 98e1 9dbe b81f 9d3d fef9 b0be c941 e13e
000000b0: ce96 9fbe 6bb8 e83d c571 843e 9cce c23d
000000c0: 44ad a3be 9c0f a1bd 6bfc 7cbd ec04 74be
000000d0: 5076 ba3c 2c26 77bd 6cd9 37bc d85d 4fbd
000000e0: b94f ddbe 33ad aebd 89d2 26be 9f08 3abe
000000f0: 7ce5 ff3e 36df 55be 7cd0 1abd 4719 89be
00000100: 8a8c d6be 828b dfbe 5062 b83e b6ea c5be
00000110: 6810 00bf 9f30 c23d a71f f6be 76aa afbc
00000120: 9694 95be 51d1 04be eeea 843e e401 983d
00000130: 6aab 953e 53bb afbe 091a 47bd b518 c5be
00000140: eb29 ae3e 8a03 d8be c594 073f 0e42 b5be
00000150: fa58 993c 4417 12be 4755 62be 9d46 97bc
00000160: d7e0 683e 4028 cabe 8225 a4be 9d4f 3dbd
00000170: 0356 88be 2e34 afbe 9e52 f9bd 8b84 aebe
00000180: 45f5 833c 3067 93be e643 c1bd 7ead 713d
00000190: f9e5 3bbe 90fd acbe 174f 9dbe 88ff b9be
000001a0: 38dc 92be 57a2 88bb 95fb a33e ce83 de3e
000001b0: ce26 803e e089 59be f3f4 c93e 7968 523c
000001c0: aca1 b43d 3a9f 8dbe a333 93be 721a d73e
000001d0: 0d4c b63c a8bd 57be c0e3 18be 04d1 fbbe
000001e0: 8e01 b83e 6486 27be beac b43e 0527 febd
000001f0: 9e7f 0d3f 15ec 9a3e 33f8 ddbd 3769 dbbc
00000200: 8209 05be 4ee2 873e 0cb9 fbbd 32fa 1e3e
00000210: 6047 3f3e 169c 5cbc 13b8 363d db39 8abd
00000220: 5be4 49bc 2e25 89be baac 313e bafe 01be
00000230: d945 303d e25c a63e a3b7 b6bd 8deb 6bbe
00000240: ea02 a8bd 2b25 20be 3615 f8bd dfa9 c83e
00000250: 29ac 8cbc eb37 bbbe 722d 49bc 9935 46be
00000260: e89e 2dbb 27fb 593e c228 17be 51e2 06be
00000270: 4b71 17bd 0741 25be dc90 f73d bb00 033e
00000280: 5634 143e a84e 873e e038 5dbd acc2 263e
00000290: 5253 273e 521b 1ebe ae33 5c3e ff48 dd3d
000002a0: 98dc 37be 8475 223c a353 f83c 312d 22be
000002b0: 7c86 1f3e f849 64be dd6f e4bd cc17 5fbe
000002c0: 1e0f 713d 6f7e 973e 57c5 32be 4d49 073d
000002d0: 130b 9a3e 667c c2bd 1461 913d 7f52 89be
000002e0: 3397 813c 54d8 2abd d42a 16bc beb9 82be
000002f0: 9542 6cbe 395f a03e dd94 10be df2e 12bb

gru2.weight_ih_l0 f4 [192, 64]
0.0004287013 0.0047685853 0.0044529103 -0.016706947 -0.0035522275 0.01637303 -0.024689786 0.016287835
-0.009911116 0.020875942 -0.0018958956 0.026224341 0.001928858 -0.013788775 0.007142589 0.026206523
-0.00033893256 -0.00064961426 2.1504939e-05 -0.01920667 -0.0018641291 0.015833573 0.003660258 0.0029244334
-0.0027388441 0.014600331 0.0068059233 -0.0041688243 -8.198663e-05 -0.0012252671 -0.012260405 -0.0017701393
0.0031923114 -0.0077418857 0.001204487 -0.0052291173 -0.0010494449 7.2600145e-05 0.0010628125 -0.0008483518
0.0070850616 0.027208913 -0.002046772 0.012089652 -0.0029452494 -0.0030724516 0.0057279184 0.0014168137
0.0012569358 -0.011732249 0.006765862 -0.000120355944 -0.0024452314 0.00040255275 -0.0014007669 0.01892698
-0.00032197766 0.0013059282 0.00045753515 0.0074686552 0.008350497 0.0018326807 0.025456019 -0.0011372591
-0.004363395 -0.008326952 -0.008539331 0.03740255 0.0043145814 -0.025595408 0.044185787 -0.034002073
0.018929172 -0.036750723 0.0026074257 -0.044378977 0.00917099 0.031995565 -0.0077149817 -0.047960475
-0.01488101 0.006022383 -0.0050289137 0.03966137 -0.0073832744 -0.03527543 -0.009113534 -0.0038982371
0.0024983892 -0.013368271 -0.011672214 0.0063244808 0.0062917233 0.005665087 0.017120462 -0.0025917885
-0.018647611 0.021843696 -0.008540224 0.011890279 -0.0052767606 -0.015781252 -0.015345842 0.004389042
-0.008565286 -0.048757922 0.0053839698 -0.022945661 0.0049506556 -0.0016637547 -0.012143112 -0.014153385
0.017015854 0.029400507 -0.019885836 -0.00021763057 0.0055563683 -0.0076095886 -0.0030149992 -0.035455227
0.0044320137 0.0020177893 0.013249243 -0.010632912 -0.023165395 -0.0020753026 -0.04660018 -0.0062252134
-0.0058978144 0.0142561635 0.0094818445 0.08306682 0.04822459 -0.057766136 0.032433264 -0.077632084
0.052807588 -0.03457738 0.020832175 0.003862653 0.004809513 0.02849764 -0.03727386 -0.067160115
-0.011060521 -0.10467295 0.002742137 0.07569688 -0.04254878 -0.08140179 0.06377573 -0.08695018
-0.07664208 0.14100799 -0.043187544 0.038618244 -0.07403275 0.0891506 -0.011392751 0.07185981
-0.07174596 0.12627794 0.1067441 -0.044023283 -0.046600603 -0.019709054 0.07439545 0.101128444
0.012107694 -0.05915747 0.049963836 0.06646863 0.09444699 -0.011192367 -0.0064432546 8.127591e-05
0.026385361 0.09241945 -0.1008115 0.00783519 0.021847503 0.018501204 -0.038722046 -0.06790809
-0.010603883 0.02972533 -0.010074623 -0.018640721 0.024065867 0.10040704 -0.06346498 -0.02135381
-0.08289553 -0.05227883 -0.009808235 0.13293906 0.017530406 -0.091496825 0.12858596 -0.13452475
0.08548964 -0.07839953 -0.11571745 -0.11706225 0.011408626 0.14363228 0.06319875 -0.17488255
0.02150254 0.02012317 -0.0018494951 0.140683 0.0355725 -0.13411038 0.048546292 -0.04584115
-0.026885485 -0.028205462 -0.054854333 0.0959168 -0.06760429 0.017977078 0.01871713 0.03943658
-0.08965234 0.12897788 0.042543754 -0.035637338 -0.054995675 -0.033760656 -0.05287177 0.104509
-0.023777682 -0.16387495 0.057956945 0.025134025 0.07227353 0.029633515 -0.032494515 -0.045233667
-0.0034945577 0.11741766 -0.10107992 -0.007749062 -0.003229877 0.0074339486 -0.043676455 -0.044879418
0.029341199 -0.025278416 0.039674494 0.05841629 -0.058163673 0.054117307 -0.16046947 0.00630298
00000000: 51c3 e039 cb41 9c3b b8e9 913b 02dd 88bc
00000010: 7dcc 68bb bc20 863c 3c42 cabc 116e 853c
00000020: 3c62 22bc 0604 ab3c b37f f8ba 6ed4 d63c
00000030: bcd1 fc3a 50ea 61bc 610c ea3b 10af d63c
00000040: c2b2 b1b9 e04a 2aba 8165 b437 4e57 9dbc
00000050: cb55 f4ba 69b5 813c f0e0 6f3b daa7 3f3b
00000060: 2e7e 33bb 3a36 6f3c 3904 df3b a29a 88bb
00000070: 3df0 abb8 2499 a0ba dedf 48bc 0504 e8ba
00000080: 1936 513b a5af fdbb e1df 9d3a 0459 abbb
00000090: 878d 89ba e840 9838 124e 8b3a ed63 5eba
000000a0: ce29 e83b 3ae5 de3c 2323 06bb ad13 463c
000000b0: 1605 41bb 2f5b 49bb 43b1 bb3b 61b4 b93a
000000c0: c4bf a43a 9e38 40bc 2ab4 dd3b 9b67 fcb8
000000d0: 2d40 20bb b70d d339 f099 b7ba c10c 9b3c
000000e0: 1ccf a8b9 ae2b ab3a 54e1 ef39 9fbb f43b
000000f0: 86d0 083c 8f36 f03a 2489 d03c 1510 95ba
00000100: cffa 8ebb c56d 08bc 8de8 0bbc 6b33 193d
00000110: 5561 8d3b 76ad d1bc 28fc 343d c245 0bbd
00000120: 5a11 9b3c ed87 16bd 58e1 2a3b bbc6 35bd
00000130: ec41 163c c80d 033d f5cd fcbb 3472 44bd
00000140: 7bcf 73bc 6957 c53b 96c9 a4bb f673 223d
00000150: 65ef f1bb f87c 10bd ef50 15bc 9179 7fbb
00000160: 04bc 233b 9806 5bbc d03c 3fbc 973d cf3b
00000170: cd2a ce3b 32a2 b93b 3640 8c3c ffda 29bb
00000180: e0c2 98bc 8df1 b23c 4cec 0bbc 72cf 423c
00000190: ade8 acbb af47 81bc 206d 7bbc f4d1 8f3b
000001a0: 6a55 0cbc 63b6 47bd 036c b03b 8af8 bbbc
000001b0: 1c39 a23b 5812 daba e7f3 46bc 99e3 67bc
000001c0: d564 8b3c 55d9 f03c 9fe7 a2bc c333 64b9
000001d0: 3212 b63b db59 f9bb 4b97 45bb 8039 11bd
000001e0: 6d3a 913b e33c 043b 5a13 593c aa35 2ebc
000001f0: 5bc5 bdbc cd01 08bb d5df 3ebd e0fc cbbb
00000200: 7442 c1bb af92 693c bd59 1b3c f01e aa3d
00000210: 2687 453d 2f9c 6cbd bed8 043d 92fd 9ebd
00000220: c54c 583d 03a1 0dbd 3da8 aa3c 9024 7d3b
00000230: 1f99 9d3b e273 e93c 7aac 18bd 3e8b 89bd
00000240: 3037 35bc c65e d6bd 6db5 333b f706 9b3d
00000250: a147 2ebd fbb5 a6bd da9c 823d f012 b2bd
00000260: 86f6 9cbd 6664 103e 6ce5 30bd 2a2e 1e3d
00000270: 7c9e 97bd 9794 b63d a9a8 3abc 3c2b 933d
00000280: 8cef 92bd 014f 013e a79c da3d c251 34bd
00000290: 46e0 3ebd e274 a1bc a45c 983d 6e1c cf3d
000002a0: 595f 463c 1a4f 72bd e1a6 4c3d b520 883d
000002b0: 6c6d c13d 3160 37bc f021 d3bb ac72 aa38
000002c0: 1d26 d83c 6946 bd3d 4276 cebd 2b5f 003c
000002d0: 89f9 b23c d68f 973c 029b 1ebd 6613 8bbd
000002e0: e9bb 2dbc 8982 f33c 0810 25bc 6db4 98bc
000002f0: c825 c53c 35a2 cd3d edf9 81bd 2fee aebc
00000300: 22c5 a9bd 5422 56bd b8b2 20bc 2d21 083e
00000310: ed9b 8f3c b062 bbbd 0aac 033e dbc0 09be
00000320: 3115 af3d ef8f a0bd 45fd ecbd 55be efbd
00000330: 3feb 3a3c 5714 133e 596e 813d 6914 33be
00000340: 1826 b03c 59d9 a43c c26a f2ba 340f 103e
00000350: 78b4 113d 3b54 09be 7ad8 463d eec3 3bbd
00000360: f33e dcbc 240f e7bc f0ae 60bd 0770 c43d
00000370: 1e74 8abd aa44 933c ab54 993c 4088 213d
00000380: a59b b7bd c712 043e 5c42 2e3d 75f8 11bd
00000390: 2543 61bd 9d48 0abd 1290 58bd d108 d63d
000003a0: 6ac9 c2bc d6ce 27be 4364 6d3d dfe5 cd3c
000003b0: 2504 943d fcc1 f23c f818 05bd f046 39bd
000003c0: f304 65bb ac78 f03d fd02 cfbd d8eb fdbb
000003d0: 58ac 53bb 7b98 f33b 15e6 32bd 7bd3 37bd
000003e0: f45c f03c ae14 cfbc b981 223d eb45 6f3d
000003f0: 083d 6ebd 1caa 5d3d 1c52 24be 3a89 ce3b

gru2.weight_hh_l0 f4 [192, 64]
-0.00010140651 0.027637001 -0.014416779 0.014143028 4.4089607e-05 0.0099718915 -0.00016857493 -0.020474512
0.00024214853 -0.001363351 -6.94106e-05 -0.0054181516 0.017733911 -0.023404572 0.027563114 0.00094702246
0.005189742 -0.0022919115 -0.0063312375 -0.00025726893 -0.0002956018 -3.6248803e-05 0.027820775 0.0024272748
0.027734302 -0.0015791041 0.00015831518 -0.0014584836 -0.027676776 -0.0011519117 -0.0034669938 0.0029556854
0.023808965 0.0015221768 0.00012656498 0.021234095 0.0018100173 0.02128874 0.0020536857 0.017883107
-0.002652352 -0.02768138 0.0011704499 0.000864784 4.1131218e-05 0.027750334 0.014649698 -3.141534e-05
0.005455116 -0.024855105 0.0164137 -6.868359e-05 -0.01919535 0.02770063 0.027635608 -0.0079695685
0.0276028 0.01911017 0.027653055 0.0019654003 0.02774709 -0.0039005165 -0.013481844 -0.006316309
-0.005866387 -0.048239287 0.026067052 -0.029590694 -0.001543124 -0.031138686 0.007985851 0.03114431
-0.006444806 0.0097011505 0.0034753538 0.0078623565 -0.029517477 0.034941237 -0.04811127 -0.008407095
0.0033670296 0.002119549 -0.00028005824 0.009112241 0.012743663 -0.004873178 -0.048613466 0.004895986
-0.048448514 0.015261969 -0.009673364 0.018507915 0.048357677 0.015238335 0.013172899 -0.01479328
-0.039206333 -0.020649422 0.0010593188 -0.039783888 -0.024297884 -0.03584944 -0.009906574 -0.02635126
0.022383828 0.048342515 0.004748133 -0.009881562 -0.0097110765 -0.04848184 -0.031236827 0.0014121154
-0.022438342 0.032503184 -0.032928225 0.006004224 0.02794043 -0.048408218 -0.048260275 -0.003964669
-0.048226345 -0.037202563 -0.04835978 -0.0034927935 -0.048519995 0.02102554 0.032966044 0.015260191
-0.0018010536 -0.057829954 -0.07700194 -0.1007535 0.0064858897 0.059655767 0.002781087 0.054757398
-0.0014909982 0.009582883 -0.002618244 -0.07146461 0.14115521 0.10816298 -0.057779975 -0.014351961
-0.024715202 0.0018499759 -0.030423772 -0.0023907355 -0.02796462 -0.0032404037 -0.058252975 -0.10797347
-0.058041357 -0.009176548 -0.0016453713 -0.06237458 0.057957962 -0.0031198473 0.04554592 0.019901983
0.06889105 -0.014988712 -0.004161 -0.08805449 0.03087405 -0.14531252 0.0146511085 -0.10611238
0.20000747 0.057938263 0.03041698 -0.010908032 -0.002028416 -0.05805109 -0.025666922 -0.001972676
0.049832124 0.097300276 -0.12529372 0.0010830236 0.057606235 -0.05791914 -0.05789236 0.042048633
-0.058389183 0.07638838 -0.05812368 0.00175212 -0.05810723 0.052066155 0.17566374 0.08515301
0.0009350004 -0.16300157 0.046938725 -0.035487644 -0.0060835523 -0.11593406 0.010890254 0.05099013
-0.0074618175 -0.013375198 -0.009235639 -0.043485023 -0.06429724 0.061217967 -0.16237907 -0.01007104
0.049622983 -0.07713105 -0.047181796 -0.00062330376 -0.032323714 -0.0012494649 -0.16394687 0.062040187
-0.16342202 0.013696344 -0.014814368 0.044565544 0.16319391 -0.015847988 -0.005931356 -0.06616187
-0.12570766 0.0030652068 0.005848205 -0.008368244 -0.028584003 -0.087073974 -0.05415067 -0.0205341
-0.05516202 0.1631353 -0.03938785 -0.00677883 0.002676163 -0.16348071 -0.14752954 0.008227459
-0.0064853244 0.115671106 -0.03548026 0.002474093 0.0327382 -0.1631365 -0.16289635 -0.036892697
-0.16346605 -0.021056307 -0.16301264 -0.022349158 -0.16358846 -0.08633095 0.06818503 -0.014580193
00000000: 35aa d4b8 fe66 e23c 5b34 6cbc 29b8 673c
00000010: dbec 3838 2561 233c 7dc3 30b9 2aba a7bc
00000020: 40e9 7d39 78b2 b2ba 8890 91b8 c08a b1bb
00000030: b546 913c f2ba bfbc 0acc e13c 9a41 783a
00000040: b60e aa3b e533 16bb 4576 cfbb 0de2 86b9
00000050: 01fb 9ab9 db09 18b8 65e8 e33c ea12 1f3b
00000060: 0c33 e33c f1f9 ceba 6801 2639 972a bfba
00000070: 68ba e2bc befb 96ba 8136 63bb 2cb4 413b
00000080: 050b c33c c783 c73a 87b6 0439 20f3 ad3c
00000090: 1a3e ed3a b965 ae3c 2197 063b 987f 923c
000000a0: 15d3 2dbb 10c4 e2bc c869 993a acb2 623a
000000b0: 4f84 2c38 ab54 e33c 4905 703c f7c3 03b8
000000c0: d4c0 b23b ef9c cbbc 0676 863c 390a 90b8
000000d0: 913f 9dbc 6eec e23c 1264 e23c cb92 02bc
000000e0: 441f e23c ee8c 9c3c a988 e23c f2cd 003b
000000f0: de4d e33c cf9f 7fbb f4e2 5cbc 0af9 cebb
00000100: d23a c0bb 8f96 45bd 928a d53c 2f68 f2bc
00000110: a642 caba 8f16 ffbc 16d7 023c 5a22 ff3c
00000120: f32e d3bb 93f1 1e3c c3c2 633b 1dd1 003c
00000130: a3ce f1bc 8b1e 0f3d 5310 45bd eabd 09bc
00000140: 62a9 5c3b 22e8 0a3b c8d4 92b9 824b 153c
00000150: ccca 503c 2eaf 9fbb ea1e 47bd 826e a03b
00000160: f371 46bd 560d 7a3c 087d 1ebc e99d 973c
00000170: b312 463d 36aa 793c 25d3 573c 835f 72bc
00000180: d296 20bd fa28 a9bc d7d8 8a3a 6ef4 22bd
00000190: 5b0c c7bc ddd6 12bd 2f4f 22bc 99de d7bc
000001a0: 4a5e b73c cd02 463d 3a96 9b3b 46e6 21bc
000001b0: 351b 1fbc e594 46bd 60e4 ffbc bb16 b93a
000001c0: 9dd0 b7bc 0f22 053d bfdf 06bd 15bf c43b
000001d0: 54e3 e43c b247 46bd 91ac 45bd 0eea 81bb
000001e0: fd88 45bd b761 18bd e814 46bd 5ae7 64bb
000001f0: e7bc 46bd c13d ac3c 6707 073d e105 7a3c
00000200: 5511 ecba 1adf 6cbd 31b3 9dbd da57 cebd
00000210: 9687 d43b 9b59 743d e642 363b 4b49 603d
00000220: 996d c3ba 8601 1d3c d896 2bbb 0a5c 92bd
00000230: fe8a 103e 8d84 dd3d b2aa 6cbd 7d24 6bbc
00000240: 8977 cabc e47a f23a 463b f9bc e3ad 1cbb
00000250: 0f16 e5bc f45c 54bb ac9a 6ebd 3221 ddbd
00000260: c6bc 6dbd 3b59 16bc 80a9 d7ba 7d7c 7fbd
00000270: 5465 6d3d 5a76 4cbb 5c8e 3a3d 7c09 a33c
00000280: c016 8d3d 3793 75bc ff58 88bb ea55 b4bd
00000290: 93eb fc3c cecc 14be 340b 703c 7351 d9bd
000002a0: c2ce 4c3e ac50 6d3d 082d f93c 9ab7 32bc
000002b0: 2cef 04bb fbc6 6dbd 7043 d2bc 0348 01bb
000002c0: c51c 4c3d 5e45 c73d ff4c 00be 3ef4 8d3a
000002d0: 84f4 6b3d 9f3c 6dbd 8a20 6dbd 303b 2c3d
000002e0: 7f29 6fbd 8371 9c3d 1913 6ebd 64a7 e53a
000002f0: d901 6ebd 5243 553d 32e1 333e b464 ae3d
00000300: d11a 753a e2e9 26be d242 403d 7e5b 11bd
00000310: 8958 c7bb d66e edbd 096d 323c 07db 503d
00000320: 4382 f4bb a523 5bbc 1451 17bc 5a1d 32bd
00000330: 45ae 83bd b1bf 7a3d b346 26be 0101 25bc
00000340: 7841 4b3d e2f6 9dbd b341 41bd 3565 23ba
00000350: df65 04bd 16c5 a3ba b0e1 27be da1d 7e3d
00000360: 1a58 27be a166 603c f7b7 72bc 5c8a 363d
00000370: 4e1c 273e a4d3 81bc d25b c2bb e07f 87bd
00000380: 82b9 00be a3e1 483b 4da2 bf3b f61a 09bc
00000390: 0029 eabc d753 b2bd 18cd 5dbd 2137 a8bc
000003a0: 92f1 61bd f10c 273e 2755 21bd f320 debb
000003b0: 9162 2f3b 7d67 27be fc11 17be 77cc 063c
000003c0: d882 d4bb f9e4 ec3d c053 11bd 6524 223b
000003d0: 7e18 063d 410d 27be 4dce 26be cc1c 17bd
000003e0: a563 27be 477e acbc c9ec 26be 9515 b7bc
000003f0: bc83 27be 48ce b0bd 98a4 8b3d c3e1 6ebc

gru2.bias_ih_l0 f4 [192]
-0.03047879 0.056849208 0.059896454 0.16615614 -0.031765644 0.058613505 -0.044274844 -0.11393031
-0.030745374 0.12130526 -0.07645426 -0.12229409 -0.07667903 0.0378217 0.054361917 -0.09403293
0.07787652 0.11981843 0.15730861 -0.082240105 -0.039446186 -0.03901837 0.05942356 0.11855137
0.056361984 0.10930248 -0.037523363 0.16168739 0.056068253 -0.07823438 0.110233866 0.109732196
0.08001226 -0.11855205 -0.059240207 -0.10105567 0.030984579 0.07549674 -0.12511468 0.096309036
0.10324583 0.05877712 -0.100219384 -0.052043263 -0.02557239 0.05997631 -0.15628967 -0.01871879
0.13404253 0.05422583 -0.07993652 -0.03390857 -0.15038365 0.06102284 0.057231214 0.07572516
0.043891598 -0.04715444 0.037510198 -0.088717915 0.059387766 0.14595522 0.021658512 0.079597
0.43371272 -0.19276896 0.37338328 -0.01898269 0.4355839 0.25944096 0.47381672 -0.09874968
0.42492202 0.20018971 0.45977044 -0.12453852 -0.13773233 -0.07393952 -0.16836496 0.5254133
0.3222894 -0.013831649 -0.0815007 0.4315106 0.4357257 0.43432173 -0.25504407 0.24878086
-0.22449899 0.2857064 0.4555372 0.14114094 -0.20641525 0.5068486 0.07678607 0.4761968
0.08751342 0.43874192 0.40739658 0.0013130913 0.3664192 -0.3421526 0.45251033 -0.12449424
0.0752907 -0.20457599 0.5693225 0.38210663 0.45854476 -0.22766034 0.16230579 0.3914128
-0.039371386 -0.24649745 0.0813502 0.45525476 -0.029313505 -0.2106572 -0.19306822 0.32788095
-0.18280081 0.19191664 -0.19501032 0.43799034 -0.23294862 0.13274047 -0.0224776 0.17472847
-0.001242008 -0.34555116 -0.14788917 -0.060518775 0.011052608 -0.2926401 0.0065888055 0.24339296
-0.093419194 0.28457934 -0.039755672 0.21905686 -0.43314406 0.09687291 -0.3218536 0.14046633
-0.09921699 0.3962806 0.4838756 -0.04007392 0.16192706 0.02521992 -0.39103425 -0.41228178
-0.3729411 0.34423143 -0.011295301 0.543404 0.35780695 0.08382456 0.3168373 -0.047425017
0.18218605 -0.10054908 0.032944545 -0.19963332 -0.15893483 -0.3706485 -0.36572316 0.42340288
0.2672913 0.3560095 0.2428966 -0.347175 0.009499995 -0.37067285 -0.13915314 -0.0074746856
-0.40813273 0.34521377 -0.111488916 -0.009203287 0.37041068 -0.35682622 -0.34678212 0.3254106
-0.3267796 -0.31723717 -0.3710317 0.004780599 -0.37267414 0.0877359 0.31941578 0.21536528
00000000: a8ae f9bc b7da 683d fc55 753d d624 2a3e
00000010: b11c 02bd b714 703d 8a59 35bd 4b54 e9bd
00000020: b9dd fbbc e46e f83d 0d94 9cbd 5375 fabd
00000030: e509 9dbd edea 1a3d 9aaa 5e3d 5694 c0bd
00000040: ba7d 9f3d 5d63 f53d 8215 213e 806d a8bd
00000050: 5392 21bd bad1 1fbd 1e66 733d 10cb f23d
00000060: d3db 663d fbd9 df3d 19b2 19bd 6191 253e
00000070: d3a7 653d 5939 a0bd 4bc2 e13d 46bb e03d
00000080: 78dd a33d 6bcb f2bd dca5 72bd 46f6 cebd
00000090: 5fd3 fd3c 099e 9a3d 101e 00be ac3d c53d
000000a0: 8d72 d33d 47c0 703d d23f cdbd 512b 55bd
000000b0: 307d d1bc b8a9 753d 660a 20be 2658 99bc
000000c0: 7242 093e e71b 5e3d c2b5 a3bd b6e3 0abd
000000d0: 2cfe 19be 16f3 793d 476b 6a3d cb15 9b3d
000000e0: adc7 333d 0425 41bd 4ba4 193d bdb1 b5bd
000000f0: 9640 733d 4975 153e 316d b13c c003 a33d
00000100: 980f de3e 3a65 45be 182c bf3e 9681 9bbc
00000110: da04 df3e 72d5 843e 1b98 f23e 463d cabd
00000120: 618f d93e 88fe 4c3e 0867 eb3e 0d0e ffbd
00000130: b409 0dbe 9a6d 97bd dd67 2cbe 7c81 063f
00000140: 1e03 a53e 249e 62bc d7e9 a6bd f5ee dc3e
00000150: 7017 df3e 6b5f de3e 2395 82be 69c0 7e3e
00000160: 10e3 65be 1c48 923e 2c3c e93e 4087 103e
00000170: 855e 53be d4c0 013f 0442 9d3d 11d0 f33e
00000180: 3c3a b33d c8a2 e03e 4996 d03e 081c ac3a
00000190: 4c9b bb3e a02e afbe 6faf e73e d6f6 febd
000001a0: 0332 9a3d 5e7c 51be 1fbf 113f 7ba3 c33e
000001b0: 61c6 ea3e cb1f 69be 7d33 263e 4267 c83e
000001c0: e443 21bd d469 7cbe ef9a a63d 2717 e93e
000001d0: e022 f0bc 85b6 57be adb3 45be 03e0 a73e
000001e0: 2330 3bbe cc85 443e c9b0 47be 4540 e03e
000001f0: 158a 6ebe 1eed 073e f222 b8bc 05ec 323e
00000200: dfca a2ba 15ec b0be 4270 17be 89e2 77bd
00000210: ff15 353c ecd4 95be e8e6 d73b 013c 793e
00000220: 9052 bfbd 62b4 913e d8d6 22bd 7150 603e
00000230: 0fc5 ddbe 4e65 c63d ffc9 a4be 68d6 0f3e
00000240: 4732 cbbd 4ae5 ca3e 8bbe f73e 8d24 24bd
00000250: 35d0 253e 019a ce3c a435 c8be 9916 d3be
00000260: 23f2 bebe 1a3f b03e ed0f 39bc 861c 0b3f
00000270: 7932 b73e 36ac ab3d 8038 a23e bc40 42bd
00000280: fb8e 3a3e adec cdbd dcf0 063d ad6c 4cbe
00000290: d0bf 22be a4c5 bdbe 1140 bbbe 43c8 d83e
000002a0: 68da 883e e146 b63e e3b9 783e ecc0 b1be
000002b0: dea5 1b3c d5c8 bdbe 297e 0ebe 35ee f4bb
000002c0: c6f6 d0be dcbf b03e 4d54 e4bd 62c9 16bc
000002d0: 78a6 bd3e edb1 b6be 6d8d b1be 389c a63e
000002e0: a84f a7be e96c a2be def7 bdbe 92a6 9c3b
000002f0: 25cf bebe e1ae b33d 778a a33e b788 5c3e
