script/checkpoint/LeVoice_v0.pth (torch, 225979 bytes, 14 tensors)

tf.weight f4 [64, 40]
0	0x3f2b59fa	0.6693417
1	0xbf058043	-0.52148837
2	0x3e13f21a	0.14447823
3	0xbd56f8c3	-0.05248333
4	0x3df508b9	0.11964554
5	0xbe0b8887	-0.136263
6	0xbdd33e21	-0.103145845
7	0x3ed1fd05	0.4101335
8	0xbd847062	-0.06466748
9	0xbdabb61a	-0.083843425
10	0xbf20ae51	-0.62765986
11	0xbeeaacdf	-0.45835015
12	0xbefbf163	-0.492076
13	0xbe800757	-0.250056
14	0xbefcac19	-0.4935005
15	0xbdb8a569	-0.090159245
16	0x3c31c0b1	0.010849164
17	0x3d88f1e6	0.066867635
18	0x3ed856f8	0.42253852
19	0x3e5208fe	0.20511243
20	0x3cf8d196	0.030373376
21	0x3e03d829	0.12875427
22	0x3ec4a1dc	0.3840474
23	0x3e75b168	0.23993456
24	0x3d827288	0.06369501
25	0x3e378c2a	0.17924562
26	0x3e1ee2e9	0.15516247
27	0xbd3eaf83	-0.0465541
28	0xbdc9b92e	-0.09849773
29	0xbdbb1f90	-0.091368794
30	0xbdb99b84	-0.090628654
31	0xbbc9da23	-0.006160037
32	0xbc03d8d6	-0.008047303
33	0x3b522f6a	0.0032071718
34	0xbb8c67b0	-0.0042848215
35	0xbb92d81e	-0.0044813296
36	0xbb967f2b	-0.0045927963
37	0xbb989fa3	-0.004657702
38	0xbb99dfcc	-0.004695868
39	0xbb9a8e90	-0.004716702
40	0x3f38d390	0.7219782
41	0x3eeec63d	0.4663562
42	0x3db54430	0.08850896
43	0x3ea8c034	0.3295914
44	0xbef1b787	-0.47210333
45	0xbf1f4ed9	-0.62229687
46	0xbfe5c9eb	-1.7952245
47	0xbdc768b1	-0.09736765
48	0x3f52df70	0.8237219
49	0x3f598b70	0.8497839
50	0x3f305671	0.688819
51	0xbe932485	-0.287388
52	0xbf46acff	-0.7760772
53	0xbe96ddb3	-0.29466018
54	0x3f434890	0.76282597
55	0x3f9b054b	1.211099
56	0x400297d2	2.0405164
57	0x401ed4a6	2.481729
58	0x4003c68b	2.058993
59	0x3fc5fe1a	1.5468171
60	0x3eb16318	0.34645915
61	0xbea7729c	-0.32704628
62	0xbed20f9e	-0.4102754
63	0xbdaed393	-0.08536448
64	0xbf283951	-0.6571246
65	0xbf5eeea9	-0.87082916
66	0xbd3ab59f	-0.045583364
67	0x3f0a0fce	0.53930366
68	0x3e8ed160	0.27894115
69	0xbee550ac	-0.4478811
70	0xbea227f6	-0.31671113
71	0xbc104eea	-0.008807877
72	0xbba1731e	-0.004927053
73	0xbb90b248	-0.004415784
74	0xbbdee87b	-0.006802616
75	0xbbec2e7c	-0.00720769
76	0xbb92d7f3	-0.0044813096
77	0xbb844e81	-0.0040376787
78	0xbb8904ca	-0.004181479
79	0xbb8c77dc	-0.0042867493
80	0x3f3ef442	0.7459146
81	0xbf169190	-0.5881586
82	0xbe7fbe39	-0.24974908
83	0xbfb9decb	-1.4521116
84	0xbeb951c1	-0.36195186
85	0xbee1bf07	-0.44091055
86	0x3e48166c	0.19539803
87	0x402f6d74	2.7410555
88	0x403111a4	2.7667017
89	0x4001d3e8	2.0285587
90	0x3fdb3fcf	1.7128848
91	0x3fe20948	1.7659082
92	0x3fba7059	1.4565536
93	0x3f83f967	1.0310487
94	0x3f9f7982	1.2458956
95	0x3facfcba	1.3514626
96	0x3f85862c	1.0431571
97	0x3f9c40c6	1.2207267
98	0x3f62c9f5	0.8858941
99	0x3eb59cb1	0.3547111
100	0xbe130fca	-0.14361492
101	0xbe4745c1	-0.19460203
102	0x3da6062c	0.08106646
103	0x3ea9e2a1	0.33180717
104	0xbedd5470	-0.43228483
105	0x3f2c7cb7	0.673778
106	0x3f235bde	0.63812053
107	0xbe078986	-0.13236055
108	0xbeab70fb	-0.33484635
109	0x3fbc10bd	1.4692608
110	0x3fc452e1	1.5337793
111	0x3d3c3d08	0.04595664
112	0xbb80ecbf	-0.0039344723
113	0xbb91b8fd	-0.004447101
114	0xbbaad1b2	-0.005212986
115	0xbbfb01ee	-0.007660142
116	0x3be89f83	0.0070990934
117	0xbb94e912	-0.0045443857
118	0xbb94c153	-0.0045396476
119	0xbba13202	-0.0049192915
120	0x3ec6ce52	0.38829285
121	0x3f57d8ba	0.84315073
122	0xbe9784fb	-0.29593644
123	0x3e7e865f	0.24855946
124	0x3f7d1924	0.98866487
125	0x3f2d0c84	0.6759722
126	0xbde8983e	-0.11357163
127	0xbfabebf2	-1.343138
128	0xbf95f8d2	-1.1716559
129	0xbfccbaf4	-1.5994554
130	0xbf61e594	-0.88240933
131	0xbd0ab8f8	-0.033867806
132	0x3ee2da7c	0.44307315
133	0x3f15a6c7	0.5845761
134	0x3f8ddd0e	1.1083086
135	0x3f1456b8	0.5794482
136	0x399120a7	0.00027680883
137	0xbe405119	-0.18780936
138	0xbe1ac219	-0.15113105
139	0xbea6678c	-0.32500875
140	0xbeb163a3	-0.3464633
141	0xbf150d7b	-0.58223695
142	0xbf173cfe	-0.5907744
143	0xbf842092	-1.032244
144	0xbf30e1c8	-0.69094515
145	0xbfaab8cf	-1.3337649
146	0xbf821a26	-1.016423
147	0xbe79bc03	-0.24388127
148	0xbd8bdb85	-0.068289794
149	0xbf5a6598	-0.8531127
150	0xbf234870	-0.63782406
151	0xbc22d394	-0.0099381395
152	0xbbe8bddf	-0.0071027125
153	0x3b907610	0.0044086054
154	0x3b7ccb9a	0.0038573504
155	0x3b99be90	0.0046919063
156	0x3ba09458	0.0049004965
157	0x3ba48c6a	0.0050216215
158	0x3ba64d9f	0.005075171
159	0x3ba70881	0.0050974493
160	0xbeb53918	-0.35395122
161	0x3e5c1deb	0.21495788
162	0x3e8b1e09	0.27171353
163	0x3ed89b16	0.4230582
164	0x3eaff3ac	0.34365594
165	0x3f8aa8c3	1.0832752
166	0x3fdc5b4e	1.7215364
167	0x40139843	2.3061683
168	0x3f969fc8	1.1767511
169	0x3eb34d19	0.35019758
170	0xbf00fd2f	-0.5038633
171	0x3dc93f26	0.09826498
172	0x3db23b57	0.087027244
173	0x3e4f8819	0.20266761
174	0x3f2f47f4	0.68469167
175	0x3f4a22c3	0.7895929
176	0x3eb39466	0.35074157
177	0x3e9324d2	0.2873903
178	0x3f2845d6	0.6573156
179	0x3f6f1a57	0.93399566
180	0x3f10506c	0.56372714
181	0x3f50ca22	0.8155843
182	0x3f4915b1	0.78548723
183	0x3eba3b0e	0.3637318
184	0x3e446ce1	0.19182159
185	0x3f083705	0.53208953
186	0x3ec8c264	0.39210808
187	0x3dda0ac4	0.10646585
188	0x3e1ecbf6	0.15507492
189	0x3f59fc0e	0.8515023
190	0x3f130e5c	0.57443786
191	0x3d082bbb	0.03324483
192	0xbb96f156	-0.004606406
193	0xbbb24432	-0.0054402584
194	0xbbac9ecc	-0.0052679535
195	0xbbe175cc	-0.0068804976
196	0x3b938429	0.0045018387
197	0xbbf4af3b	-0.007467178
198	0x3b489f12	0.0030612391
199	0xbb97f525	-0.004637378
200	0xc000679b	-2.0063236
201	0xbeeaeeec	-0.45885408
202	0xbec1306f	-0.37732264
203	0x3f20b19e	0.6277102
204	0x3d12295d	0.03568398
205	0xbb96dcd8	-0.0046039633
206	0x3f19985e	0.5999812
207	0x3daa842b	0.0832599
208	0x3d823ff0	0.06359851
209	0xbd8d088c	-0.06886396
210	0x3f1d99af	0.6156263
211	0x3f85c443	1.0450519
212	0x3fd3cc96	1.654681
213	0x3f9ddce7	1.2333039
214	0x3f9877bb	1.1911539
215	0x3f080bec	0.5314319
216	0xbeedface	-0.4648041
217	0xbf1dc5e5	-0.6163009
218	0xbf84d183	-1.0376438
219	0xbfa5c77e	-1.2951505
220	0xbfa2d74d	-1.2721955
221	0xbf60272a	-0.8755976
222	0xbf29575d	-0.6614893
223	0x3cae835c	0.021302871
224	0x3d65bc19	0.056087587
225	0xbdcdfa3b	-0.10057493
226	0xbe6f6805	-0.23379524
227	0x3c6a5a24	0.014303718
228	0xbd8de898	-0.06929129
229	0x3e120b93	0.14262228
230	0x3dc17672	0.0944642
231	0x3a248e1d	0.000627728
232	0xbb2681de	-0.0025406997
233	0x3ba5e644	0.00506285
234	0x3baafe59	0.005218309
235	0x3bab5a67	0.0052292827
236	0x3baa83af	0.005203686
237	0x3ba9af92	0.0051784003
238	0x3ba90ea3	0.0051592155
239	0x3ba8a906	0.0051471023
240	0x3e917e5d	0.2841672
241	0xbf3361df	-0.70071214
242	0x3ebe9b87	0.37228033
243	0xbead87a8	-0.3389256
244	0x3e15a5c7	0.1461402
245	0x3e5c4f26	0.21514568
246	0xbdc7b76e	-0.09751783
247	0xbed5eb31	-0.41781
248	0xbc334808	-0.010942467
249	0x3ecbb6a8	0.39787793
250	0x3e6ed679	0.23324002
251	0x3da9e32a	0.08295281
252	0x3c819fd3	0.01582328
253	0xbe941c22	-0.28927714
254	0xbec86f67	-0.39147493
255	0xbddb7f8f	-0.10717689

tf.bias f4 [64]
0	0xbe68add9	-0.22722568
1	0x3d92f3a4	0.07175377
2	0x3d3c5e46	0.045988344
3	0xbe0d554d	-0.13802071
4	0xbdd28b6f	-0.10280501
5	0xbd8b92d8	-0.068151176
6	0xbd4cef6f	-0.05003303
7	0x3e0d65ff	0.1380844
8	0x3d9cd37f	0.07657527
9	0x3d25e175	0.040498216
10	0xbda113c8	-0.07865101
11	0x3da23a6a	0.07921298
12	0xbd7a1bd8	-0.06106171
13	0x3d2321b6	0.03982707
14	0xbdca20da	-0.09869547
15	0x3d746499	0.05966625
16	0x3d905732	0.07047881
17	0x3d296a47	0.04136112
18	0xbe00db41	-0.12583639
19	0xbd978dc5	-0.07400087
20	0xbc25e996	-0.010126492
21	0x3e20ae5b	0.15691511
22	0xbd75915b	-0.059953075
23	0xbd69322d	-0.056932617
24	0x3df432e5	0.1192377
25	0x3c80636a	0.015672404
26	0x3dbab48e	0.09116469
27	0xbd8ab14b	-0.06772097
28	0x3dd91770	0.106001735
29	0xbd112e51	-0.03544456
30	0x3da73024	0.08163479
31	0x3db811f0	0.08987796
32	0x3d2497e6	0.040183924
33	0xbd58189f	-0.052757856
34	0xbe00251c	-0.12514156
35	0xbd6ac3d4	-0.057315663
36	0x3d909810	0.070602536
37	0xbd3d548d	-0.046223212
38	0xbdb77b84	-0.089591056
39	0x3ddf2943	0.10896542
40	0x3d103500	0.035206795
41	0x3d47fd82	0.04882575
42	0x3d84d7e2	0.06486489
43	0xbc92fb18	-0.017941996
44	0x3c80e0aa	0.015732128
45	0xbd35ccb7	-0.044384684
46	0xbd1e3f33	-0.03863449
47	0xbd834e14	-0.064113766
48	0x3d77c48e	0.060490184
49	0xbcdbc5c0	-0.026827693
50	0x3d7b2792	0.061317034
51	0xbd833dc6	-0.06408267
52	0x3d7d5916	0.061852537
53	0x3e156a86	0.14591417
54	0xbd4486f0	-0.04798025
55	0xbd65e4b2	-0.056126304
56	0xbc995146	-0.018715512
57	0xbe76b9e2	-0.24094346
58	0xbdc77819	-0.09739704
59	0x3db099b6	0.08623068
60	0x3b7e107c	0.003876715
61	0xbddb46df	-0.10706877
62	0x3d53b3d4	0.05168517
63	0x3e004f60	0.12530279

gru1.weight_ih_l0 f4 [192, 64]
0	0xbdc45875	-0.09587184
1	0xbe0d585a	-0.13803235
2	0x3dc26894	0.09492603
3	0xbe5c35ef	-0.21504949
4	0xbd1824df	-0.037144538
5	0x3ecb10a8	0.39661145
6	0x3e167e60	0.14696646
7	0x3f7dc931	0.9913512
8	0xbe975abd	-0.29561415
9	0xbeb57e09	-0.3544772
10	0xbee8b2dc	-0.4544896
11	0xbe9ce165	-0.30640712
12	0xbe26ec1d	-0.16301008
13	0x3d61a548	0.055089265
14	0x3cbaed7c	0.02281832
15	0xbebc6eef	-0.36803386
16	0xbbd263e6	-0.0064206
17	0x3e2c8fab	0.1685168
18	0xbe773cd6	-0.24144301
19	0x3dafd0f2	0.08584775
20	0xbd79be51	-0.060972515
21	0xbe65180b	-0.22372453
22	0x3e7d1140	0.24713612
23	0xbd35be23	-0.04437078
24	0x3cf61462	0.030039016
25	0x3eb2ddb3	0.34934768
26	0x3c06cc27	0.008227385
27	0x3e4695fb	0.1939315
28	0x3ccf83c7	0.025331391
29	0x3e51bc27	0.2048193
30	0xbd7853fe	-0.060626976
31	0xbe1f98a1	-0.15585567
32	0x3e7f0a8a	0.24906364
33	0x3e025e24	0.12731224
34	0x3d59d33c	0.053179964
35	0x3e5b276c	0.21401757
36	0xbdd76fdc	-0.10519382
37	0x3eb26a44	0.348467
38	0x3e0a3b7c	0.13499254
39	0xbc340508	-0.010987528
40	0xbc301817	-0.010747931
41	0xbeef7149	-0.46766117
42	0x3ec09f81	0.37621692
43	0xbe48d401	-0.19612123
44	0x3e97cd05	0.29648605
45	0x3cf322f4	0.029679753
46	0xbe0923e6	-0.133926
47	0xbe2bd8d1	-0.16781928
48	0xbe1424ee	-0.14467213
49	0x3efc4668	0.49272466
50	0x3cc2a38d	0.023759628
51	0x3e9d0e04	0.30674756
52	0x3eff5ba2	0.49874598
53	0xbd775fd0	-0.06039411
54	0xbeb0e7e3	-0.34551916
55	0x3ebbad47	0.36655638
56	0x3e8ec1b5	0.27882162
57	0xbdd188da	-0.102311805
58	0x3eb8babb	0.36079964
59	0xbe7be68c	-0.24599665
60	0x3ed28ae7	0.411216
61	0xbd98fbeb	-0.074699245
62	0x3db80d86	0.089869544
63	0xbe883f9c	-0.2661103
64	0xbd6e9fc2	-0.058257826
65	0x3c19348c	0.009350907
66	0xbc54b544	-0.01298267
67	0x3d167d70	0.03674072
68	0x3774ec00	1.4598481e-05
69	0xbb82afa2	-0.003988222
70	0xbd39ba35	-0.045343596
71	0xbd73b1fc	-0.05949591
72	0x3ca6747a	0.020319212
73	0xbc08afff	-0.008342742
74	0x3d4c52cb	0.049883645
75	0x3c8970a2	0.01677734
76	0x3aae1870	0.001328243
77	0x3ca29770	0.019847602
78	0xbd35c4e9	-0.04437724
79	0xbb9ef2c4	-0.0048507173
80	0xbbae7158	-0.00532357
81	0xbc875924	-0.016521998
82	0xbc0f2236	-0.008736184
83	0xbc0224be	-0.00794333
84	0xbc295fe5	-0.010337804
85	0x3d0178cc	0.03160934
86	0xbcbaaba9	-0.022786932
87	0xbc7e4494	-0.01551928
88	0xbc09b973	-0.008406031
89	0xbcfbf854	-0.03075806
90	0xbbf13b1c	-0.0073617827
91	0x3c137694	0.009000439
92	0xbc0b807c	-0.00851452
93	0xbd09d75a	-0.03365264
94	0x3d059f02	0.032622345
95	0x3d383051	0.044967953
96	0xbd16b770	-0.036796033
97	0xbcb6826f	-0.022278992
98	0xbb1cc2ad	-0.0023919747
99	0xbd453dfd	-0.04815482
100	0xbccd6cf8	-0.025076374
101	0xbcb2c2dc	-0.021821432
102	0xbc9e3f61	-0.01931733
103	0x3b1e29c9	0.0024133793
104	0x3c5cee46	0.013484543
105	0x3d9a8c30	0.0754627
106	0x3cd87b3b	0.026425948
107	0x3d637de3	0.055539977
108	0xbc5d62b6	-0.013512304
109	0x3cad6cda	0.021170069
110	0x3b0ce93d	0.0021501326
111	0x3d2c325d	0.042040218
112	0xbd5f5b24	-0.054530278
113	0xbd0a0823	-0.033699166
114	0x3bcf9c35	0.00633576
115	0xbce47602	-0.027888302
116	0x3d7e4b49	0.062083516
117	0x3d00d727	0.031455185
118	0xbd6b8031	-0.0574953
119	0xbc122b5e	-0.008921472
120	0xbd1461e8	-0.036226183
121	0xbd51536e	-0.051104955
122	0xbda8a9e6	-0.082355306
123	0xbba49694	-0.005022833
124	0x3b992156	0.0046731634
125	0xbdb71d48	-0.08941132
126	0xbcaefb17	-0.021359963
127	0x3dfd226f	0.12360083
128	0x3c66377f	0.014051317
129	0x3d402ad0	0.04691583
130	0xbdf9396a	-0.12169154
131	0x3e22c95e	0.15897128
132	0xbdb64c3d	-0.0890126
133	0x3bc49e7c	0.006000338
134	0x3d586910	0.05283457
135	0xbe26f73e	-0.16305253
136	0x3c5934a2	0.013257178
137	0x3d80c9df	0.06288504
138	0x3d808087	0.06274515
139	0xbcd50f0d	-0.026008153
140	0xbcdd65fa	-0.027026165
141	0xbd7ec1be	-0.062196486
142	0xbaa77229	-0.0012775111
143	0x3da9b2b5	0.08286039
144	0xbcd601a6	-0.026123833
145	0xbdafe67e	-0.08588885
146	0x3ce8d4f0	0.028421849
147	0x3cb254bd	0.021768922
148	0xbda6f2db	-0.0815179
149	0xbd1f3e42	-0.038877733
150	0xbd3d804b	-0.046264928
151	0x3d78bfc2	0.06072975
152	0x3d981e7f	0.07427692
153	0xbc4c1c1f	-0.0124578765
154	0xbcb68fa7	-0.022285296
155	0xbda25ee7	-0.079282574
156	0x3da9ebab	0.08296903
157	0x3cd4256a	0.025896747
158	0xbcc4903b	-0.023994556
159	0x3bc6b470	0.0060639903
160	0x3c3639d5	0.011122187
161	0xbd082995	-0.03324278
162	0xbdacfbf6	-0.08446495
163	0x3d367a0c	0.044549987
164	0xbdfcf1d6	-0.12350814
165	0xbcd5055b	-0.02600353
166	0x3d7b09f4	0.06128879
167	0x3d89edbe	0.06734799
168	0x3cb5ebf4	0.022207238
169	0x3cd4e6e5	0.025989005
170	0xbdd41c42	-0.10356952
171	0x3c66d028	0.014087714
172	0xbd2142cd	-0.039370347
173	0xbd862d4b	-0.06551608
174	0x3b863eb7	0.0040968317
175	0x3d80ecb1	0.06295145
176	0x3d6f32f1	0.05839819
177	0xbc3bdf3d	-0.011466798
178	0x3ca664eb	0.020311793
179	0x3c914c06	0.017736446
180	0xbdd13320	-0.102148294
181	0xbd86a959	-0.06575269
182	0x3ddce0ca	0.107850626
183	0xbd110b07	-0.035410907
184	0x3d2ecfdc	0.0426787
185	0x3da37d8e	0.07982932
186	0xbc1bab8d	-0.00950135
187	0x3c7710f4	0.0150797255
188	0xbda31cdd	-0.079644896
189	0x3d82d26e	0.063877925
190	0x3afd919a	0.0019345761
191	0xbc6ce63a	-0.014459187
192	0x3d900f41	0.070341595
193	0x3cbd6403	0.023118978
194	0xbcab0fc2	-0.020881537
195	0x3cea715f	0.028618513
196	0x3b96b2cc	0.004598951
197	0x3b1bd674	0.0023778947
198	0xbd0be7c9	-0.034156594
199	0xbd61d79f	-0.055137273
200	0xbca5fc6c	-0.020261966
201	0xbce2904a	-0.027656693
202	0x3d55d5cb	0.052205842
203	0xbbd19778	-0.0063962303
204	0xbc114178	-0.008865707
205	0xbb5cbd5c	-0.0033682203
206	0x3c8388de	0.016056474
207	0xbcb2a392	-0.021806512
208	0xbd1f5da8	-0.038907677
209	0xbb6e0df0	-0.0036324225
210	0x3d9e811d	0.0773947
211	0x3c834170	0.016022414
212	0x3cc627d4	0.024188913
213	0xbdfbcdce	-0.122951135
214	0xbcd9f33e	-0.026605245
215	0xbc2172f8	-0.009854071
216	0xbc31386c	-0.010816675
217	0xbb57410d	-0.003284517
218	0xbd0f81ba	-0.035035826
219	0x3b49d5df	0.0030797643
220	0xbcb37925	-0.021908352
221	0xbd028b44	-0.031871095
222	0xbbc1dfda	-0.0059165778
223	0x3cb3999c	0.021923833
224	0xbb8a2d37	-0.004216816
225	0xbcade7c2	-0.021228675
226	0x3d041b32	0.032252498
227	0xbd1da550	-0.038487732
228	0xbc431c0b	-0.011908541
229	0x3c8a23b3	0.016862726
230	0x3d540d64	0.051770583
231	0xbc699d06	-0.014258629
232	0x3c6375e5	0.013883089
233	0x3d06248e	0.032749705
234	0xbd02ff6c	-0.03198187
235	0x3bc2d3c0	0.0059456527
236	0xbc161a8a	-0.009161601
237	0x3cfefde3	0.031126922
238	0xbc270ec0	-0.010196388
239	0x3c84a132	0.016190145
240	0xbcba6115	-0.02275137
241	0x3b98fd60	0.0046688765
242	0x3c9aed39	0.018911945
243	0x3db19592	0.086711064
244	0xbd50018f	-0.050782736
245	0xbdd04317	-0.10169046
246	0x3d1689e8	0.03675261
247	0xbc8ef516	-0.01745085
248	0x3c74bcab	0.01493756
249	0x3dd93fc3	0.10607865
250	0xbcc995a3	-0.024607485
251	0xbcf4839b	-0.02984791
252	0xbcdd9c28	-0.027052
253	0xbbd3b60a	-0.0064609097
254	0xbaa617dc	-0.0012671906
255	0x3d08ab21	0.033366326

gru1.weight_hh_l0 f4 [192, 64]
0	0x3e399e3a	0.18126765
1	0xbdc81161	-0.0976894
2	0x3e7d7eb3	0.24755363
3	0x3e776720	0.24160433
4	0x3e187bfa	0.14891043
5	0x3e173457	0.1476606
6	0xbf0afa24	-0.54287934
7	0x3ef1c902	0.4722367
8	0xbcda95b7	-0.026682718
9	0xbe30e733	-0.17275696
10	0x3e0c4cb7	0.1370114
11	0x3ea452cd	0.32094422
12	0xbe9f7937	-0.31147167
13	0x3eee88b2	0.46588665
14	0xbe8dfcb9	-0.27731875
15	0x3d91096e	0.07081877
16	0xbdb001e6	-0.08594112
17	0xbf26489b	-0.6495454
18	0x3e57c40f	0.21070884
19	0xbeedcdb5	-0.46446005
20	0xbdf7e1b8	-0.12103599
21	0x3e47fd1d	0.19530149
22	0x3eb05ed7	0.34447357
23	0xbd501153	-0.05079777
24	0xbe27d18e	-0.16388533
25	0x3e991dd2	0.29905564
26	0x3ea11f31	0.3146911
27	0xbe9e585c	-0.30926788
28	0x3ed75dfa	0.42063886
29	0xbe1127fa	-0.14175406
30	0x3e4dbbbb	0.20091145
31	0x3e949505	0.29019943
32	0x3f06dda6	0.5268196
33	0x3df18280	0.11792469
34	0xbdbe7989	-0.09300525
35	0xbec63cbd	-0.38718215
36	0xbdb61c61	-0.088921316
37	0xbedeab72	-0.43490177
38	0xbeab6c96	-0.33481282
39	0xbdbf03e4	-0.09326914
40	0x3e39c424	0.18141228
41	0xbe119061	-0.14215232
42	0xbdd0fd88	-0.10204607
43	0x3eabac2c	0.33529794
44	0x3eab4481	0.33450702
45	0x3e60c17d	0.2194881
46	0x3ee8df96	0.45483083
47	0x3ecb5be2	0.3971854
48	0xbda0562d	-0.07828937
49	0xbefee953	-0.49787387
50	0x3ee7b99d	0.452588
51	0x3e68f737	0.22750555
52	0xbe77626c	-0.24158639
53	0x3eaf2f1e	0.34215635
54	0x3e2634b2	0.16231039
55	0xbea5f726	-0.32415122
56	0xbdc626d0	-0.09675372
57	0xbe35c88a	-0.17752281
58	0xbe9693b4	-0.29409564
59	0x3ea3a054	0.31958258
60	0xbf39c08a	-0.72559416
61	0x3ea64b55	0.3247935
62	0x3d8adbb0	0.06780183
63	0x3e6c9c62	0.2310653
64	0x3ca0cb4d	0.019628191
65	0xbd76795a	-0.060174324
66	0xbc25c266	-0.010117149
67	0xbd96ae75	-0.07357494
68	0xbc676067	-0.014122105
69	0xbd06b327	-0.032885697
70	0x3e18fb6d	0.14939661
71	0xbe066152	-0.13123062
72	0xbd5e8e0d	-0.05433469
73	0x3d11caa0	0.03559363
74	0x3dfd035d	0.12354157
75	0xbdb0f60e	-0.08640681
76	0x3ced008d	0.028930927
77	0xbd4cca2a	-0.049997486
78	0xbcdf8455	-0.02728478
79	0x3cb78d69	0.022406297
80	0x3d894002	0.06701662
81	0x3e5b434d	0.21412392
82	0x3dc8e082	0.098084465
83	0x3d6edbd8	0.058315128
84	0x3e198070	0.14990401
85	0x3dab7dd5	0.0837361
86	0xbc2bb491	-0.010480062
87	0x3c959ea9	0.018264132
88	0x3c45c814	0.012071628
89	0xbcbfe642	-0.023425225
90	0xbdbe45ff	-0.092906944
91	0x3cfda4ec	0.03096243
92	0x3e07afcc	0.13250655
93	0x3da72d4c	0.081629366
94	0xbd726162	-0.059174903
95	0xbe17f1ba	-0.14838305
96	0xbe50f549	-0.20406069
97	0x3c94804b	0.018127581
98	0xbd94009c	-0.07226679
99	0xbe26250d	-0.16225071
100	0x3cb1a6a5	0.021685908
101	0x3ca66ca6	0.02031548
102	0x3cf82c7b	0.030294647
103	0xbcc8784a	-0.02447142
104	0xbda2663c	-0.07929656
105	0x3e380920	0.17972231
106	0x3d912e66	0.07088928
107	0x3d074f35	0.033034522
108	0xbbe3120c	-0.0069296416
109	0xbb6b842e	-0.003593694
110	0xbe82a916	-0.25519627
111	0xbdc5700b	-0.09640511
112	0x3bce0312	0.006286987
113	0x3df2d9d6	0.11857955
114	0x3caff3a8	0.021478489
115	0xbbaacd77	-0.0052124816
116	0x3d9e4530	0.0772804
117	0xbdcc3e59	-0.09972829
118	0xbbe96ac6	-0.007123324
119	0x3e0d9590	0.13826585
120	0x3db80131	0.08984602
121	0xbd0b1137	-0.033951964
122	0xbdef0afa	-0.116720155
123	0xbe49ef31	-0.1972015
124	0x3e255a77	0.16147791
125	0xbdd0b131	-0.101900466
126	0x3c73c5e2	0.014878722
127	0xbd09b35a	-0.03361831
128	0x3e098ae7	0.13431893
129	0xbcc4b1a4	-0.024010487
130	0xba30f180	-0.00067498535
131	0x3ba5e21e	0.0050623557
132	0xbcdb085e	-0.026737388
133	0xbdd891ed	-0.10574708
134	0x3e9f32e5	0.31093517
135	0x3b3fe74d	0.0029282153
136	0x3cdc6f16	0.026908439
137	0xbd83e523	-0.06440189
138	0x3da3ab72	0.07991685
139	0x3b84cc75	0.0040526935
140	0x3d3aad04	0.045575157
141	0xbbc4103d	-0.005983381
142	0x3bbaafab	0.005697211
143	0x3d892bdc	0.06697819
144	0x3c63f62b	0.0139136715
145	0xbc796b10	-0.01522328
146	0xbcfdb612	-0.030970607
147	0xbd8a36fa	-0.06748767
148	0xbdd5c140	-0.1043725
149	0xbe02d7c3	-0.12777619
150	0x3d8380c2	0.06421043
151	0x3daf5dc7	0.085628085
152	0xbd933045	-0.07186941
153	0xbd2c5cfc	-0.042080864
154	0xbd3b8636	-0.04578229
155	0x3e58cb09	0.21171202
156	0x3c8e2308	0.017350689
157	0xbd68dbf4	-0.05685039
158	0xbd46df53	-0.048552822
159	0xbde043e3	-0.10950448
160	0xbea067b5	-0.31329122
161	0xbce86f60	-0.02837342
162	0x3da3552f	0.07975232
163	0xbaee1392	-0.0018163791
164	0x3dcc121d	0.09964392
165	0xbdf6923f	-0.12039613
166	0xbe4fdbb5	-0.20298655
167	0xbcc89337	-0.02448426
168	0xbc40acae	-0.01175992
169	0xbe29af93	-0.16570882
170	0xbdb32c65	-0.08748702
171	0xbde35381	-0.110999115
172	0x3b6025da	0.0034202249
173	0xbe8c6ecc	-0.2742828
174	0x3db5d9c7	0.08879428
175	0x3e360258	0.17774332
176	0x3cca81b2	0.024720047
177	0xbc9eb5be	-0.01937377
178	0xbd9911f9	-0.07474131
179	0x3d8bd22a	0.06827195
180	0x3e32e4fd	0.17470165
181	0xbd7df604	-0.062002197
182	0x3d3c9907	0.046044376
183	0x3e0c2776	0.13686928
184	0xbdfca059	-0.123352714
185	0x3d14961a	0.03627596
186	0x3debcf6b	0.11514171
187	0x3bd84167	0.0065995934
188	0xbdd6e429	-0.10492737
189	0x3d7d3af3	0.061823796
190	0xba9d7dd0	-0.0012015644
191	0xbbcb2aa5	-0.006200152
192	0xbe204c44	-0.15654093
193	0xbd77549d	-0.060383428
194	0x3e071949	0.1319324
195	0xbe0fc984	-0.14041716
196	0xbdb75d58	-0.08953351
197	0xbe378230	-0.17920756
198	0xbdb59172	-0.08865632
199	0x3b98e53e	0.0046659997
200	0x3c7809ed	0.015139085
201	0xbd3fb7e6	-0.04680624
202	0xbe13bc32	-0.1442726
203	0xbd4a5f1c	-0.04940711
204	0xbdc4318d	-0.095797636
205	0x3c35d9c0	0.011099279
206	0xbe35119d	-0.176825
207	0xbe53c4be	-0.2068052
208	0x3d4225a2	0.04739917
209	0xbda4e56a	-0.0805157
210	0xbdf0a1a8	-0.117495835
211	0xbe3adcdd	-0.18248315
212	0x3ce7576a	0.028239924
213	0x38967540	7.174397e-05
214	0x3ccbf38a	0.024896402
215	0xbdb87999	-0.09007568
216	0x3db6cb97	0.089255504
217	0x3dc6e58e	0.09711753
218	0x3d75c751	0.060004536
219	0xbcb0f630	-0.021601766
220	0xbe0fc869	-0.14041294
221	0x3d40f1b8	0.04710552
222	0xbb564bc1	-0.0032698961
223	0x3e114829	0.14187683
224	0x3dd9be32	0.1063198
225	0xbca7086d	-0.02038976
226	0x3e55f2fb	0.20893471
227	0x3cc8a546	0.024492871
228	0xbde91626	-0.113811776
229	0x3b09c253	0.0021020367
230	0xbeb53be5	-0.35397258
231	0x3e1e97a7	0.15487538
232	0xbdb81ba2	-0.089896455
233	0xbe16be71	-0.14721085
234	0x3d7c40c1	0.06158519
235	0x3d9a2817	0.07527178
236	0xbd7d9f3c	-0.061919436
237	0xbdba2611	-0.09089292
238	0x3e00f2ac	0.12592572
239	0x3e529da9	0.20567955
240	0x3d137052	0.03599579
241	0x3e8a29f0	0.2698512
242	0x3d79d9e3	0.06099881
243	0x3df3e496	0.11908834
244	0xbcf818d1	-0.03028527
245	0x3dfce123	0.12347629
246	0x3e1305b3	0.14357643
247	0x3c85e193	0.016342914
248	0xbe6780b3	-0.22607689
249	0x3dc08bf2	0.094016925
250	0xbd570d1c	-0.052502736
251	0xbc11b6c2	-0.0088936705
252	0xbd00f3fe	-0.03148269
253	0xbd5360fc	-0.051606163
254	0xbb8796ea	-0.0041378634
255	0xbe05dade	-0.13071772

gru1.bias_ih_l0 f4 [192]
0	0x3f1578ed	0.58387643
1	0xbea43d89	-0.32078198
2	0xbeb518eb	-0.35370573
3	0x3c3e5e91	0.011619226
4	0xbecd569d	-0.40105143
5	0xbd499112	-0.049210615
6	0x3cd6c229	0.02621563
7	0xbe0c323e	-0.13691041
8	0xbe999a26	-0.30000418
9	0xbec4f333	-0.38466796
10	0xbe6698b4	-0.22519189
11	0xbedb2816	-0.4280402
12	0xbe99c3f2	-0.30032307
13	0xbea5f386	-0.32412356
14	0x3e5df422	0.2167516
15	0x3d8e3dac	0.06945357
16	0x3e5174ba	0.20454684
17	0x3ebab63c	0.3646716
18	0xbef1db77	-0.4723775
19	0xbea41990	-0.32050753
20	0xbf0b78da	-0.5448128
21	0xbf26cb8e	-0.6515435
22	0x3eff06e5	0.49809948
23	0xbdac76f3	-0.08421125
24	0xbcbd0dd8	-0.02307789
25	0x3e494f0a	0.19659057
26	0x3dcbaf20	0.09945512
27	0xbefe8acf	-0.49715278
28	0xbe486b33	-0.19572143
29	0xbe962176	-0.29322404
30	0xbe408b2e	-0.18803093
31	0xbf1a3f53	-0.60252875
32	0x3d4636e8	0.048392206
33	0x3df8050c	0.121103376
34	0xbf0a4594	-0.5401242
35	0xbefee532	-0.49784237
36	0xbeb484c6	-0.35257548
37	0x3e1488ae	0.14505264
38	0xbef1fea6	-0.47264594
39	0x3d622c18	0.055217832
40	0x3e251d2a	0.16124406
41	0xbf6ac74c	-0.9171035
42	0x3f02ec84	0.51142144
43	0xbe8fae39	-0.2806261
44	0xbe06b2a9	-0.13154091
45	0xbe68beb6	-0.22729
46	0xbe1eaa16	-0.1549457
47	0xbf6d467e	-0.9268569
48	0xbda26dcf	-0.079311006
49	0xbd903f46	-0.070433185
50	0xbf37a630	-0.71737957
51	0xbe047317	-0.12934528
52	0xbe87d4fd	-0.26529685
53	0x3e48a2a7	0.19593297
54	0xbe8e9980	-0.27851486
55	0x3f387c3a	0.72064555
56	0xbe4f7502	-0.20259479
57	0xbdb88f37	-0.09011691
58	0x3db9ce91	0.090726025
59	0xbedf922b	-0.43666205
60	0xbe332c6b	-0.17497413
61	0xbf01cfdc	-0.50707793
62	0x3c994d30	0.018713564
63	0xbf02bf04	-0.51072717
64	0x3e97991b	0.29608998
65	0x3f4f943b	0.81085557
66	0x3fb0b3a0	1.3804817
67	0x3f490770	0.78526974
68	0x3f86af3e	1.052223
69	0xbf3828de	-0.7193736
70	0xbf0cb77c	-0.54967475
71	0xbe195128	-0.14972365
72	0x3f0671e3	0.5251753
73	0x3f529fe0	0.822752
74	0xbe3f0a17	-0.18656193
75	0x3f453ad7	0.7704291
76	0x3f4d235a	0.8013207
77	0x3f822a06	1.0169075
78	0x3f5ee037	0.87060875
79	0x3fad5c38	1.3543768
80	0x3f378217	0.71682876
81	0x3ec707f4	0.38873255
82	0x3f2ed69c	0.6829622
83	0xbf2cd69e	-0.6751498
84	0xbf7a2071	-0.9770575
85	0xbf0a9379	-0.54131275
86	0x3ec93efc	0.39305866
87	0x3e158f7a	0.14605513
88	0x3f82cf84	1.0219579
89	0x3fcec5ee	1.6154153
90	0x3e8a00d4	0.26953757
91	0xbea251a7	-0.3170292
92	0xbf09b9b0	-0.5379896
93	0xbee504cc	-0.44730222
94	0x3f75179f	0.9573917
95	0x3e0ff1b8	0.14057052
96	0xbf06267b	-0.52402467
97	0x3f1678cb	0.58778065
98	0xbe34fe6a	-0.17675176
99	0xbe052c93	-0.13005285
100	0x3f575bf3	0.8412468
101	0x3f1726f6	0.59043825
102	0xbec6f4ef	-0.38858745
103	0x3fb58b2b	1.4183096
104	0x3f8436ad	1.0329186
105	0xbf805b0d	-1.0027786
106	0xbd3e39a8	-0.046441704
107	0x3f8d4cea	1.1039097
108	0x3fa7890c	1.3088698
109	0xbf4e19c4	-0.80508065
110	0xbf29cf77	-0.6633219
111	0xbf906c05	-1.1282965
112	0x3f8d7fd6	1.1054637
113	0x3f185f7c	0.595207
114	0xbf36820a	-0.71292174
115	0x3e74592a	0.23862138
116	0x3f057d2a	0.5214411
117	0x3f66b152	0.9011432
118	0x3f55d851	0.835332
119	0xbf36faeb	-0.7147662
120	0x3ee8749f	0.45401475
121	0x3f8f0820	1.1174355
122	0x3f191b8c	0.5980766
123	0x3f189006	0.5959476
124	0xbe7fc2ff	-0.24976729
125	0xbe26f22d	-0.1630332
126	0x3f8ecb25	1.1155745
127	0xbf48f41c	-0.7849748
128	0x3df55dfc	0.11980817
129	0x3e603b40	0.21897602
130	0xbe488dd8	-0.19585359
131	0xbced31ea	-0.028954465
132	0x3c8a2b56	0.016866367
133	0xbe0c4385	-0.13697632
134	0xbf92eea7	-1.1479081
135	0xbdbe61e7	-0.09296017
136	0x3de5620d	0.11200342
137	0xbeab6cca	-0.33481437
138	0xbbfd1235	-0.0077231177
139	0x3f0e9ecd	0.5571106
140	0x3da49af8	0.080373704
141	0x3e2522e6	0.16126594
142	0xbdeca72a	-0.115553215
143	0x3e8cd72c	0.27507913
144	0x3e42d095	0.1902488
145	0xbf10b528	-0.5652642
146	0xbeec64e2	-0.46170717
147	0x3d983700	0.074323654
148	0xbe53c5ce	-0.20680925
149	0xbe2cb3ae	-0.16865417
150	0xbf08f26b	-0.534949
151	0xbed5546d	-0.41665974
152	0xbe36c9f2	-0.17850474
153	0x3f2e06f9	0.6797939
154	0xbda74d70	-0.08169067
155	0xbeb17fd1	-0.3466783
156	0xbeb3c7c2	-0.3511334
157	0xbe196cdd	-0.14982934
158	0x3ee9cfbb	0.45666298
159	0x3e975ddd	0.295638
160	0x3fd8884b	1.6916593
161	0xbeadf536	-0.33976144
162	0xbc18dce3	-0.009330007
163	0x3d825bb3	0.063651465
164	0x3dff8c86	0.124779746
165	0xbda312eb	-0.07962593
166	0x3e41d3aa	0.189284
167	0x3e9148f5	0.28375974
168	0x3f058510	0.5215616
169	0xbd633db2	-0.05547876
170	0xbe94d673	-0.29069862
171	0xbe743523	-0.23848395
172	0x3d168ab9	0.03675339
173	0x3fa7c728	1.3107653
174	0x3f54c6b5	0.831157
175	0x3dab8749	0.08375413
176	0x3df7ae68	0.12093812
177	0xbf338dcd	-0.70138246
178	0xbe5db908	-0.21652615
179	0xbe0898bf	-0.13339518
180	0xbec226b7	-0.37920162
181	0x3f128b25	0.5724357
182	0xbd3bd8e2	-0.045861132
183	0x3e7cd56a	0.24690786
184	0xbc8da051	-0.017288359
185	0xbda2f74c	-0.079573244
186	0x3e88b0ae	0.26697296
187	0x3ec779e3	0.3896018
188	0xbf064eff	-0.5246429
189	0x3e5196c3	0.20467667
190	0xbdfecd77	-0.12441533
191	0xbe3b45e7	-0.18288384

gru1.bias_hh_l0 f4 [192]
0	0x3f157de6	0.5839523
1	0xbea44543	-0.32084092
2	0xbeb5440d	-0.3540348
3	0x3c3e6b66	0.0116222855
4	0xbecd569e	-0.40105146
5	0xbe1d1318	-0.15339315
6	0x3bf6bcd6	0.007529835
7	0xbe09a2d7	-0.13441025
8	0xbe999a18	-0.30000377
9	0xbec4f31e	-0.38466734
10	0xbe71428c	-0.23560542
11	0xbedb2808	-0.4280398
12	0xbe99c3f0	-0.300323
13	0xbea5ffb5	-0.3242165
14	0x3e5e5862	0.21713403
15	0x3d8e464b	0.06947001
16	0x3e516352	0.20448044
17	0x3eba8fe4	0.36437905
18	0xbef1dab2	-0.47237164
19	0xbea1406b	-0.3149446
20	0xbf0c5d47	-0.5482983
21	0xbf279ada	-0.6547066
22	0x3eff07b6	0.4981057
23	0xbd8ef5a2	-0.069804445
24	0xbcbd0400	-0.023073196
25	0x3e494c38	0.19657981
26	0x3d151c19	0.03640375
27	0xbefe7b26	-0.4970333
28	0xbe8c26c1	-0.27373317
29	0xbe9bd8b2	-0.30438763
30	0xbe408b54	-0.1880315
31	0xbf1a40d6	-0.6025518
32	0x3d4495ce	0.047994427
33	0x3df80f22	0.12112261
34	0xbf0a527e	-0.54032123
35	0xbf072587	-0.5279164
36	0xbeb484c7	-0.3525755
37	0x3e205099	0.15655746
38	0xbef4a9ce	-0.477858
39	0x3d622b92	0.055217333
40	0x3e251e65	0.16124876
41	0xbf6b0b03	-0.9181368
42	0x3f02f109	0.5114904
43	0xbe8fa696	-0.28056782
44	0xbe06b2e0	-0.13154173
45	0xbe5d2eac	-0.21599835
46	0xbe1917d8	-0.14950502
47	0xbf6daeaa	-0.9284464
48	0xbda26dcc	-0.07931098
49	0xbdb96b3a	-0.09053655
50	0xbf366af3	-0.7125694
51	0xbdf27ae4	-0.11839846
52	0xbe87e2c5	-0.265402
53	0x3e489d28	0.195912
54	0xbe8e997c	-0.27851474
55	0x3f381bdc	0.7191751
56	0xbe31efcb	-0.1737663
57	0xbdbbb575	-0.091654696
58	0x3db9dd75	0.09075443
59	0xbed9d73d	-0.42547026
60	0xbe3e46b0	-0.18581653
61	0xbf020324	-0.5078604
62	0x3c994d26	0.018713545
63	0xbf034065	-0.51270133
64	0x3e9994ff	0.29996487
65	0x3f4f1821	0.8089619
66	0x3fb0b8a5	1.3806349
67	0x3f485e54	0.78268933
68	0x3f86ad72	1.0521681
69	0xbf37fd57	-0.7187094
70	0xbf0cb4db	-0.54963464
71	0xbe17d030	-0.14825511
72	0x3f067a38	0.5253024
73	0x3f5191b1	0.8186293
74	0xbe3a72b3	-0.18207817
75	0x3f465c19	0.7748428
76	0x3f4d25a4	0.8013556
77	0x3f822f93	1.0170768
78	0x3f5e9e4b	0.86960286
79	0x3fadda6a	1.358228
80	0x3f378124	0.7168143
81	0x3ec7ead8	0.3904636
82	0x3f2f3367	0.6843781
83	0xbf2c7ed3	-0.6738102
84	0xbf7a6275	-0.97806484
85	0xbf0a0fde	-0.5393046
86	0x3ec71a55	0.38887277
87	0x3e14b8e6	0.14523658
88	0x3f82e553	1.0226234
89	0x3fceb965	1.6150328
90	0x3e895760	0.26824474
91	0xbea14e62	-0.31505114
92	0xbf09b702	-0.5379487
93	0xbee55242	-0.4478932
94	0x3f7502ec	0.95707583
95	0x3e0acd88	0.13554966
96	0xbf067e46	-0.5253643
97	0x3f1771de	0.5915812
98	0xbe3265a9	-0.17421593
99	0xbe050044	-0.12988383
100	0x3f577447	0.841618
101	0x3f15bcfe	0.58491504
102	0xbec74326	-0.38918418
103	0x3fb5a30d	1.4190384
104	0x3f8380ff	1.0273741
105	0xbf8066a5	-1.0031325
106	0xbd3b7ba6	-0.045772217
107	0x3f8cf811	1.1013204
108	0x3fa7a39f	1.3096808
109	0xbf4e322a	-0.80545294
110	0xbf29d984	-0.6634753
111	0xbf90780e	-1.1286638
112	0x3f8d9dcb	1.106378
113	0x3f188d97	0.5959105
114	0xbf36f340	-0.7146492
115	0x3e734b05	0.23759086
116	0x3f061d00	0.52388
117	0x3f67a23c	0.90481925
118	0x3f55d98b	0.8353507
119	0xbf374797	-0.7159361
120	0x3ee89de0	0.4543295
121	0x3f8e4898	1.1115904
122	0x3f1911c3	0.5979273
123	0x3f189914	0.5960858
124	0xbe7bea58	-0.24601114
125	0xbe284c91	-0.16435458
126	0x3f8edfcc	1.1162047
127	0xbf4908ba	-0.7852894
128	0xbb2b39b2	-0.0026126918
129	0x3eb7ae0b	0.35874972
130	0xbe5fdbcd	-0.21861191
131	0xbdb9cf23	-0.09072711
132	0xbe40f0ee	-0.18841907
133	0xbb2a338c	-0.0025970666
134	0xbfbdfc8d	-1.4842697
135	0x3e75ecf3	0.2401617
136	0x3e6ac972	0.22928408
137	0xbdd347ab	-0.10316404
138	0xbf2b4e28	-0.6691613
139	0x3e288cba	0.16459933
140	0x3c8071c0	0.01567924
141	0xbd49e320	-0.04928887
142	0x3e037dc9	0.12840952
143	0x3ebddf20	0.37084293
144	0x3e70d389	0.23518194
145	0xbec98f3c	-0.39367092
146	0x3e38674f	0.18008159
147	0x3e352a37	0.17691885
148	0xbe770af3	-0.2412527
149	0x3e58a064	0.21154934
150	0xbf11d215	-0.56961185
151	0xbe80aa42	-0.25129896
152	0xbe22ef96	-0.15911707
153	0x3ef46500	0.47733307
154	0x3e2f8844	0.17141825
155	0x3c8200c9	0.015869515
156	0xbf4dee32	-0.8044158
157	0xbe58ed61	-0.21184303
158	0x3e275be0	0.16343641
159	0x3d7e422e	0.062074833
160	0x3fa871b6	1.3159702
161	0xbe1d6b05	-0.15372856
162	0x3e4e7e40	0.20165348
163	0x3ed40d90	0.41416597
164	0x3d578845	0.05262019
165	0xbdcc3a24	-0.09972027
166	0x3e8c3259	0.27382162
167	0xbd9346c2	-0.0719123
168	0x3ecd36fe	0.40081018
169	0x3db95382	0.09049131
170	0xbebff344	-0.37490284
171	0xbd8b1645	-0.06791357
172	0xbcff9da8	-0.031203106
173	0x3db5af44	0.0887132
174	0x3f328543	0.6973459
175	0x3e1de611	0.15419795
176	0x3e6905df	0.22756146
177	0xbe78c258	-0.24292886
178	0xbe51c1f8	-0.2048415
179	0xbcf3feb5	-0.02978454
180	0x3ce9e162	0.028549854
181	0x3df6248b	0.12018689
182	0xbdb9d768	-0.090742886
183	0x3e5af5e8	0.21382868
184	0xbd944166	-0.07239036
185	0x3f264192	0.649438
186	0x3e81f1fc	0.25379932
187	0x3efe1988	0.49628854
188	0xbf0eca6c	-0.5577762
189	0x3ec0026d	0.3750185
190	0x3bf8bab7	0.0075906175
191	0x3eef874b	0.46782908

gru2.weight_ih_l0 f4 [192, 64]
0	0xbd20f14e	-0.039292626
1	0x3c814211	0.015778573
2	0x3d93b44f	0.072121255
3	0x3cb22892	0.021747861
4	0x3d59aa18	0.05314073
5	0xbddf3f0d	-0.10900698
6	0x3d8be387	0.06830507
7	0xbdd054e9	-0.10172445
8	0x3dca1cfc	0.098688096
9	0xbd455aa4	-0.048182145
10	0xbd2d74ba	-0.042347647
11	0x3caa97bc	0.020824306
12	0xbccbc1ec	-0.024872743
13	0xbd5d9cc3	-0.054104578
14	0xbdb2e4fa	-0.0873508
15	0x3bf3cd05	0.0074402117
16	0x3be5492c	0.006997248
17	0x3d0480ba	0.032349326
18	0x3be6b89b	0.0070410497
19	0xbd133db0	-0.0359475
20	0xbd2b6d6b	-0.041852396
21	0xbc6d0c53	-0.01446827
22	0x3d82976f	0.0637654
23	0x3b130032	0.0022430536
24	0xbce3d3da	-0.02781098
25	0xbda8d9ab	-0.08244642
26	0x3ce25f46	0.02763332
27	0x3e0012e6	0.12507209
28	0xbc828296	-0.015931409
29	0x3da0c148	0.078493655
30	0xbc2f333a	-0.010693366
31	0xbc228528	-0.009919442
32	0xbe209fc2	-0.15685943
33	0xbbdcffc6	-0.0067443578
34	0x3a9aeec8	0.001182043
35	0xbddcc86c	-0.10780415
36	0x3e1116e0	0.14168882
37	0x3ce77c60	0.028257549
38	0x3d4f9df5	0.05068775
39	0x3d51d770	0.051230848
40	0xbde34af2	-0.11098279
41	0x3da74985	0.081683196
42	0xbce3902a	-0.027778704
43	0xbd311508	-0.043232948
44	0xbdd5b864	-0.1043556
45	0xbda9afc5	-0.082854785
46	0xbd6d894d	-0.05799227
47	0xbbb572fc	-0.005537389
48	0x3d9ae1f5	0.07562629
49	0xbd4b8420	-0.04968655
50	0xbdaa6cc3	-0.08321526
51	0xbd440e84	-0.047865406
52	0xbd92a610	-0.0716058
53	0xbd48e772	-0.04904885
54	0x3ca2cbf5	0.019872645
55	0xbde2637d	-0.11054132
56	0x3e23b430	0.15986705
57	0x3bf71adb	0.007541043
58	0x3caa89f6	0.020817738
59	0xbd70ea31	-0.058817092
60	0xbc959395	-0.01825885
61	0x3d39e8e7	0.04538813
62	0x3d8f94e3	0.0701082
63	0x3d1801c8	0.037111074
64	0xbdebfefd	-0.115232445
65	0x3dc2f643	0.09519627
66	0xbe36bf5f	-0.1784644
67	0x3dd0bd25	0.101923265
68	0xbea792a7	-0.32729074
69	0xbd95907a	-0.07302947
70	0x3d366c38	0.0445368
71	0x3ea10f99	0.31457213
72	0x3da21232	0.07913627
73	0x3d4988a5	0.04920258
74	0xbdabe07a	-0.08392425
75	0x3e0bd7dd	0.13656564
76	0xbe1d2944	-0.15347773
77	0xbd50e2b8	-0.050997466
78	0xbdcf60cc	-0.101258844
79	0x3dff5691	0.12467683
80	0x3d9113c6	0.070838496
81	0xbce75ea5	-0.028243372
82	0x3e8026d6	0.2502963
83	0xbd73a393	-0.05948217
84	0xbe54f7a6	-0.20797595
85	0x3e169f98	0.14709318
86	0x3e58c08a	0.21167198
87	0xbe2a06b0	-0.16604114
88	0xbd3f0597	-0.04663619
89	0xbe35b0d0	-0.1774323
90	0xbecc5a3b	-0.3991259
91	0xbe8ef952	-0.2792459
92	0x3d9c5753	0.07633843
93	0x3e051855	0.12997563
94	0x3e03e5d1	0.12880637
95	0x3d843c79	0.06456847
96	0x3eb9e05a	0.3630398
97	0xbd95b39c	-0.073096484
98	0x3d060211	0.032716814
99	0xbdf05d6d	-0.117365696
100	0xbe0921c7	-0.13391791
101	0xbc7b3905	-0.015333419
102	0x3f11d102	0.56959546
103	0xbdd55336	-0.10416262
104	0xbcbdb34a	-0.02315678
105	0x3e23ab3c	0.1598329
106	0xbe16104e	-0.14654657
107	0x3e32b522	0.17451909
108	0xbcc0ece8	-0.023550466
109	0x3f2f6d45	0.6852611
110	0xbdcfd786	-0.1014853
111	0xbebb267e	-0.36552805
112	0x3e5a9969	0.21347584
113	0xbe205825	-0.15658624
114	0xbdd9fc34	-0.10643807
115	0xbe8d372b	-0.27581152
116	0xbdd2eacc	-0.1029869
117	0x3e80977e	0.2511558
118	0x3b0873df	0.0020821018
119	0xbd1b8e32	-0.037977405
120	0x3e2b71ac	0.16742581
121	0xbe5ed8f6	-0.21762452
122	0xbe4f7ac9	-0.20261683
123	0xbd8680ef	-0.06567561
124	0xbd9c64f7	-0.07636445
125	0x3dce1b7b	0.10063835
126	0xbd2cdbf0	-0.042201936
127	0x3d7e34ee	0.062062196
128	0xbdb3a29d	-0.087712504
129	0x3e4649e7	0.19364129
130	0xbde64eec	-0.11245522
131	0xbd90173c	-0.070356816
132	0x3e8fa428	0.2805493
133	0xbe641878	-0.22274959
134	0xbd4f6cae	-0.050640754
135	0xbeda01e5	-0.4257957
136	0xbdeeb16d	-0.11654935
137	0xbdd84b8f	-0.10561287
138	0x3e6037d4	0.21896297
139	0xbe47e2fa	-0.19520178
140	0x3c77ddb9	0.015128546
141	0xbe433db2	-0.19066504
142	0x3cadc949	0.021214144
143	0x3e6870f6	0.22699341
144	0x3e3f4bc7	0.1868125
145	0x3e88583c	0.26629817
146	0xbe1a303e	-0.15057465
147	0xbd44e20c	-0.048067138
148	0x3e416cb9	0.1888913
149	0x3dd42583	0.10358717
150	0xbe2cce7a	-0.1687564
151	0x3e2661be	0.16248223
152	0x3e30de6f	0.17272352
153	0xbc83c72f	-0.01608619
154	0xbe73a0da	-0.23791829
155	0xbe78aec6	-0.24285421
156	0x3e844be4	0.2583915
157	0xbdae3bbf	-0.085074894
158	0xbd0669ae	-0.032815628
159	0xbd96a4d5	-0.07355658
160	0xbe4b8273	-0.19873981
161	0xbc8b8aa4	-0.017033882
162	0xbdef5418	-0.116859615
163	0xbe8e6f79	-0.27819422
164	0x3e6084a9	0.21925606
165	0x3c3672e1	0.011135788
166	0xbe32a41b	-0.17445414
167	0xbe1876d6	-0.14889082
168	0xbda8e30b	-0.0824643
169	0x3e01aa6d	0.12662669
170	0xbd958319	-0.073003955
171	0xbe024908	-0.12723172
172	0xbe36a495	-0.1783622
173	0x3eaeb06c	0.34118974
174	0xbec8dc7f	-0.39230725
175	0x3d8d593b	0.06901785
176	0x3e218685	0.15773971
177	0x3d40f61c	0.04710971
178	0x3e8dcf06	0.2769701
179	0x3e0c1c04	0.13682562
180	0x3e025388	0.12727177
181	0xbd6c2218	-0.0576497
182	0xbe21e25a	-0.15809003
183	0x3da06703	0.07832148
184	0x3e230714	0.15920669
185	0x3ecb27c0	0.39678764
186	0x3b430dc9	0.0029762855
187	0xbeecb85a	-0.462344
188	0x3e4984d4	0.19679576
189	0xbe542e8e	-0.20720884
190	0xbc697d24	-0.014251027
191	0xbe2fd462	-0.17170861
192	0xbd80bad1	-0.062856324
193	0xbd607439	-0.05479834
194	0xbdcc91b0	-0.09988725
195	0x3dce86d3	0.100843094
196	0x3c9c24d0	0.019060522
197	0x3dc7ad0e	0.097498044
198	0xbe0aeda4	-0.13567215
199	0x3e42c149	0.19019045
200	0x3e1c1f8f	0.15246414
201	0xbe2f06de	-0.17092463
202	0xbe981452	-0.29703003
203	0x3ddaa9e2	0.10676934
204	0xbcc4f185	-0.024040947
205	0x3d45d4a0	0.048298478
206	0x3d9d04b3	0.07666912
207	0x3d4fe63e	0.050756685
208	0xbe5bae9d	-0.21453328
209	0xbecf40d8	-0.4047916
210	0xbd5c6ff0	-0.05381769
211	0xbdcad045	-0.099030055
212	0xbdbb6e37	-0.09151881
213	0x3cb994a8	0.022653893
214	0x3e72670e	0.23672125
215	0x3d98627e	0.07440661
216	0xbbb0c0b6	-0.0053940667
217	0x3e2a22bb	0.16614811
218	0x3e7f7f3f	0.24950884
219	0xbe3c4f08	-0.18389523
220	0xbd8fcdc6	-0.0702167
221	0xbe8d9fe8	-0.2766106
222	0xbd01465b	-0.031561237
223	0x3e03ddef	0.1287763
224	0x3e3c1e52	0.18370941
225	0x3d09934a	0.03358773
226	0x3dd1347e	0.1021509
227	0x3e74e2d1	0.23914649
228	0xbd0c271c	-0.034216985
229	0xbd2b29ee	-0.041788034
230	0xbdee98c4	-0.116502315
231	0x3c9fa1ce	0.019486334
232	0x3d9d669d	0.076855876
233	0xbeb293d8	-0.3487842
234	0xbe8555fc	-0.26042163
235	0xbe489e9c	-0.19591755
236	0x3d232d0e	0.03983789
237	0x3d9d764d	0.0768858
238	0x3eb11a75	0.34590498
239	0x3e4dcaa3	0.20096831
240	0xbc4a9ea7	-0.012366927
241	0xbe84d364	-0.25942528
242	0xbe235db5	-0.15953715
243	0x3e16a4cb	0.14711301
244	0xbe5eef76	-0.21771035
245	0x3d922c5c	0.07137367
246	0xbe7c148d	-0.24617215
247	0xbdc4041a	-0.09571095
248	0xbdbf5a84	-0.09343436
249	0x3de70b9d	0.11281512
250	0x3db3be51	0.08776534
251	0x3ec3f286	0.38270968
252	0xbdb9c590	-0.09070885
253	0x3ddbd47c	0.107338876
254	0xbd3e4b91	-0.046458784
255	0x3dc54899	0.096329875

gru2.weight_hh_l0 f4 [192, 64]
0	0x3cf1beda	0.02950995
1	0x3d461e5e	0.048368804
2	0x3d4d5ddd	0.050138343
3	0x3d110344	0.035403505
4	0xbc69ab97	-0.014262102
5	0x3d651892	0.055931635
6	0x39cf01a6	0.00039483345
7	0xbcef2655	-0.029193083
8	0x3d0497df	0.032371398
9	0xbd90b03c	-0.07064864
10	0x3d4ca1e0	0.049959064
11	0x3c05706a	0.008144477
12	0xbbfa3b03	-0.0076364293
13	0x3cc14ad3	0.02359525
14	0x3ceaba32	0.028653238
15	0x3b7e95dc	0.0038846647
16	0xbd47c97d	-0.04877614
17	0xbd0eb720	-0.03484261
18	0xbcb358df	-0.021892963
19	0x3d3644f9	0.04449937
20	0x3d33e0ae	0.043915443
21	0xbe20bd6d	-0.1569726
22	0xbe19666a	-0.14980474
23	0xba8efcec	-0.0010909117
24	0xbc2bddd1	-0.010489897
25	0xbd0dff58	-0.034667343
26	0xbd8a03a3	-0.06738975
27	0x3e058dab	0.13042323
28	0x3db3592a	0.08757241
29	0xbe13b81d	-0.14425702
30	0x3d2878b3	0.041130733
31	0x3d797224	0.06089987
32	0xbc82ccac	-0.015966736
33	0xbe0073fb	-0.12544243
34	0xbdb6e9c2	-0.089313045
35	0x3da37399	0.07981033
36	0x3db195df	0.08671164
37	0x3d4264ea	0.04745952
38	0xbcb2d378	-0.021829352
39	0xbd0cc18a	-0.03436426
40	0xbdb8c650	-0.090222
41	0xbcc47561	-0.023981752
42	0x3cb5ac50	0.022176892
43	0xbd750555	-0.05981954
44	0x3d00fe9e	0.031492822
45	0x3e363855	0.17794926
46	0x3cd1d3a8	0.02561362
47	0x3ca29502	0.019846443
48	0x3daa2ed6	0.083097145
49	0xbd1e7b5c	-0.038691863
50	0x3d371f67	0.044707682
51	0x3c3bd9fe	0.011465548
52	0x3d0aa7ba	0.033851363
53	0x3b9f5296	0.00486214
54	0x3db9be11	0.090694554
55	0x3c829a41	0.015942695
56	0xbbb9841f	-0.005661502
57	0xbdb92ee2	-0.09042145
58	0xbc797ba2	-0.01522723
59	0xbce19550	-0.027537018
60	0x3d1846f3	0.037177037
61	0x3c945503	0.018106943
62	0xbd89f79a	-0.067366794
63	0x3d519bee	0.051174097
64	0xbd2b8d8a	-0.04188303
65	0x3a3b292c	0.0007139619
66	0x3e80e888	0.25177407
67	0x3e914eeb	0.28380522
68	0xbe1c4488	-0.15260518
69	0xbd5ec9bb	-0.054391604
70	0x3dd7413c	0.10510489
71	0x3e2f3cca	0.17113033
72	0xbdc1569a	-0.09440346
73	0xbd67fc51	-0.056637112
74	0x3c2ad429	0.0104265595
75	0x3e5c7859	0.21530284
76	0x3dccf0fb	0.10006901
77	0x3e04e395	0.1297744
78	0x3df960b8	0.12176651
79	0xbd79a7b6	-0.060950957
80	0x3e52447d	0.20533939
81	0xbda6d06d	-0.08145223
82	0x3d417baf	0.047237094
83	0x3d3af1f5	0.045640904
84	0xbec9ffe3	-0.3945304
85	0x3e5d4f20	0.21612215
86	0xbea319b9	-0.31855562
87	0xbe884894	-0.26617873
88	0xbc9f5d56	-0.019453686
89	0x3e823b53	0.25435886
90	0xbe1d480d	-0.15359516
91	0x3d8a2cf3	0.06746855
92	0xbdb7b194	-0.08969417
93	0x3bc438ae	0.005988202
94	0x3d3d1e60	0.046171546
95	0xbe275f9d	-0.16345067
96	0x3e88001c	0.26562583
97	0xbdd5825a	-0.10425253
98	0x3e430e26	0.19048366
99	0xbd128dca	-0.03577975
100	0x3c5e1c04	0.013556484
101	0xbd386d30	-0.045026004
102	0x3cd2a96c	0.025715552
103	0x3d0156fa	0.031577088
104	0x3d04915a	0.03236518
105	0x3e019099	0.12652816
106	0x3d63fd8e	0.05566173
107	0xbeda1683	-0.425953
108	0xbe03ed7a	-0.12883559
109	0x3d798dfe	0.06092643
110	0xbd643ec2	-0.055723913
111	0xbe9540a8	-0.2915089
112	0x3e4ac303	0.19800954
113	0xbe432e6b	-0.19060676
114	0xbecf81c1	-0.40528682
115	0xbb7b3769	-0.0038332588
116	0xbd71f80f	-0.059074458
117	0x3e13bc4c	0.14427298
118	0xbd7b85f7	-0.061407056
119	0xbdea32de	-0.114354834
120	0x3d8c5b20	0.06853318
121	0xbebb8661	-0.3662596
122	0x3ddd63a5	0.10810021
123	0xbd21c698	-0.039496034
124	0x3d05f786	0.03270676
125	0xbe9fdbc6	-0.3122236
126	0x3d1448b1	0.036202136
127	0xbd7546a7	-0.059881832
128	0xbdfe539d	-0.12418292
129	0xbe1367a4	-0.14395005
130	0x3cc738d6	0.024319094
131	0x3def8a84	0.11696342
132	0x3d4b4351	0.049624745
133	0x3e8ef71f	0.27922913
134	0xbd336137	-0.043793883
135	0xbd62d2b2	-0.055376716
136	0xbcbf820a	-0.023377437
137	0xbd0e5135	-0.034745414
138	0xbc263767	-0.010145045
139	0x3d33b76c	0.043876097
140	0xbc726efb	-0.014796968
141	0x3c68fd02	0.014220478
142	0x3cdd723e	0.027032014
143	0xbc22c3ab	-0.009934346
144	0x3ea93911	0.3305135
145	0x3f120830	0.57043743
146	0xbddfefc7	-0.10934406
147	0x3dcd6a4a	0.10030039
148	0x3dd3c11f	0.10339569
149	0xbdaa48e6	-0.083146855
150	0x3ec3f4ef	0.38272807
151	0x3e8806cd	0.2656769
152	0xbc6c106a	-0.01440821
153	0xbd94911b	-0.07254239
154	0xbe0b8cae	-0.13627884
155	0x3e0cf031	0.13763501
156	0x3e94a723	0.29033765
157	0xbdc7e203	-0.09759905
158	0x3bf2eac8	0.007413242
159	0x3c4592c2	0.012058916
160	0x3e433281	0.19062234
161	0xbe210455	-0.15724309
162	0x3db3f62d	0.08787189
163	0x3e58be13	0.21166258
164	0x3e1dc6c3	0.15407853
165	0x3d917714	0.071027905
166	0x3d85517a	0.06509681
167	0x3d3a5ee8	0.045500666
168	0xbe63bfaa	-0.22241083
169	0xbdc4c478	-0.09607786
170	0xbd3dc809	-0.046333347
171	0xbe091dde	-0.133903
172	0xbcfd2db2	-0.030905578
173	0xbe347ddc	-0.17626137
174	0x3d935e80	0.07195759
175	0xbea1477f	-0.3149986
176	0x3e4bc039	0.19897546
177	0x3d71be13	0.05901916
178	0x3e4f06a5	0.20217378
179	0x3ce3cc1b	0.027807286
180	0x3da7b8b2	0.08189525
181	0x3d005adb	0.031336647
182	0x3ac478c4	0.0014989604
183	0xbcb97513	-0.022638833
184	0x3c69d233	0.014271307
185	0xbf001014	-0.50024533
186	0xbd7ebb05	-0.062190074
187	0x3da03b9b	0.07823869
188	0xbdcd67f9	-0.10029597
189	0x3da97161	0.082735784
190	0x3d721fdf	0.059112426
191	0x3d317dc9	0.04333285
192	0x3dbf3917	0.09337061
193	0xbebc1080	-0.36731339
194	0x3e69e53a	0.22841349
195	0xbeb933e7	-0.3617241
196	0xbd25ec96	-0.04050883
197	0xbe510ac2	-0.2041426
198	0x3915cb7a	0.00014285548
199	0xbe95db61	-0.29268935
200	0x3e5a5193	0.2132018
201	0xbc03c048	-0.008041449
202	0x3da16500	0.07880592
203	0x3eb72ac4	0.35774815
204	0xbe3e1ef9	-0.18566503
205	0x3e24d2fa	0.16096106
206	0xbe171115	-0.1475261
207	0xbd1ea27e	-0.038729183
208	0x3e1bfd40	0.15233326
209	0xbe5f6f68	-0.21819842
210	0x3e70d901	0.2352028
211	0xbc142f8c	-0.009044539
212	0xbe4a3094	-0.19745094
213	0x3da267f7	0.07929986
214	0xbe4dbd54	-0.20091754
215	0xbd80deb3	-0.062924765
216	0xbdcdc3e6	-0.1004713
217	0x3e0ea078	0.13928401
218	0x3e5932f1	0.21210839
219	0x3e365d60	0.17809057
220	0xbd9c3212	-0.07626738
221	0xbe634d49	-0.2219745
222	0xbe28b0a2	-0.1647363
223	0x3df0d53a	0.1175942
224	0xbe974b9a	-0.29549867
225	0xbdc2088d	-0.09474287
226	0xbbb214f3	-0.0054346262
227	0x3db4444c	0.08802089
228	0xbccf040f	-0.02527049
229	0x3da69a4f	0.08134901
230	0x3e12b9d0	0.14328694
231	0x3e7f2abf	0.2491865
232	0x3e3cfdd2	0.184562
233	0x3e0a3120	0.13495302
234	0x3dfd5266	0.12369232
235	0xbd68df21	-0.056853417
236	0xbe014fad	-0.1262805
237	0xbe34908b	-0.17633264
238	0x3ebcae55	0.36851755
239	0xbe199c04	-0.15000921
240	0xbed121bf	-0.4084606
241	0xbe3b10fc	-0.18268198
242	0xbebefafe	-0.37300867
243	0x3d5fc312	0.054629393
244	0x3cc5e472	0.024156783
245	0xbe0a4c09	-0.13505568
246	0x3d329886	0.04360249
247	0xbc486355	-0.012230714
248	0xbdd817b7	-0.10551398
249	0x3e785f05	0.24254997
250	0xbc7e3795	-0.0155161815
251	0xbe8efa4a	-0.2792533
252	0x3e5705ef	0.20998357
253	0xbc88ef1b	-0.016715577
254	0x3d7a1316	0.061053358
255	0x3d8da351	0.06915916
