script/checkpoint/LeVoice-1.pth (torch, 229391 bytes, 14 tensors)

tf.weight f4 [64, 40]
0	0x3d43de45	0.047819395
1	0xbe0fe3b7	-0.1405171
2	0xbd244d2f	-0.04011267
3	0xbb91b712	-0.0044468725
4	0xbdf8c808	-0.12147528
5	0x3cef2d0d	0.029196287
6	0xbe51a89f	-0.2047448
7	0x3b3a6e9c	0.0028447276
8	0xbdd5b7b1	-0.10435427
9	0xbd6e844f	-0.058231648
10	0x3b80a454	0.0039258394
11	0xbc1ac0db	-0.009445394
12	0x3cdda658	0.027056858
13	0x3e6ecfa6	0.23321399
14	0xbd6b8dad	-0.05750816
15	0xbc819456	-0.015817802
16	0x3dc3a4c6	0.095529124
17	0xbce83171	-0.028343888
18	0x3d459860	0.04824102
19	0x3d1db70f	0.038504656
20	0xbcdbdfea	-0.026840169
21	0x3e7368d6	0.2377046
22	0x3e7aac5b	0.24479811
23	0x3d7531b9	0.059861872
24	0x3d9f3fcb	0.077758394
25	0x3c899e30	0.016799062
26	0xbd406c23	-0.046978127
27	0x3c7495d2	0.014928298
28	0xbd70fbe8	-0.058833987
29	0xbc2aceed	-0.0104253115
30	0xbc77e367	-0.015129901
31	0xbe1d31f1	-0.15351082
32	0xbdf90053	-0.12158265
33	0xbe4c21a1	-0.19934703
34	0xbd36dd43	-0.044644605
35	0x3b4b4515	0.0031016518
36	0xbe4c7b1a	-0.19968835
37	0x3d5eee40	0.05442643
38	0xbabc10f2	-0.0014348312
39	0xbcdc3849	-0.026882308
40	0x3d435387	0.04768708
41	0x3da1e34e	0.07904683
42	0x3dfffdfb	0.12499615
43	0x3d8d3c51	0.0689627
44	0x3e039c4b	0.1285259
45	0x3e7547c2	0.23953155
46	0x3e32e0c7	0.17468558
47	0x3d58dc0d	0.05294423
48	0x3d1437e9	0.036186133
49	0x3e4710e6	0.1944004
50	0x3e2626cf	0.16225742
51	0x3e5d2fa2	0.21600202
52	0x3c5e2ccd	0.013560486
53	0xbc201e76	-0.009772887
54	0xbdd2063f	-0.102550976
55	0x3cd14f4a	0.025550503
56	0xbe26a7b7	-0.16274916
57	0xbd8f5129	-0.06997902
58	0x3d940edc	0.07229397
59	0x3e620fe3	0.22076373
60	0x3da1882a	0.07887299
61	0xbc978868	-0.01849766
62	0x3e4616c9	0.1934463
63	0x3cf1d4be	0.029520389
64	0x3afc244c	0.0019236892
65	0x3cb2b1d4	0.02181331
66	0x3cf2fa91	0.029660495
67	0x3e3a5ef1	0.1820028
68	0x3d81e6e1	0.06342865
69	0x3dce2467	0.10065537
70	0x3d4c7a53	0.049921345
71	0x3e450544	0.1924029
72	0xbe01eec5	-0.1268874
73	0xba6efda1	-0.0009116773
74	0xbd2c7650	-0.04210502
75	0xbd5d15c0	-0.05397582
76	0xbd3664b1	-0.04452962
77	0x3dbab782	0.091170326
78	0x3d3b84f3	0.045781087
79	0xbd865cce	-0.0656067
80	0x3e7c1857	0.2461866
81	0x3d21acae	0.03947132
82	0x3e31540b	0.17317216
83	0x3e4a9585	0.197836
84	0x3e820608	0.25395226
85	0x3e19d5c9	0.15022959
86	0xbd251956	-0.040307365
87	0x3c8cb5b7	0.017176492
88	0x3df58b84	0.11989501
89	0x3da07c89	0.07836253
90	0x3e73e4e0	0.23817778
91	0x3d0adf51	0.033904377
92	0x3da39ac9	0.07988507
93	0x3c8b2a2f	0.016987888
94	0x3e37fe9d	0.17968221
95	0x3cf9fd1c	0.0305162
96	0x3e3ddd98	0.18541563
97	0x3bcec4f0	0.006310098
98	0x3e31a826	0.173493
99	0x3dfcc55d	0.123423316
100	0xbccc487f	-0.024936913
101	0x3e5c55ff	0.2151718
102	0x3db78274	0.08960429
103	0x3db8a12a	0.090151146
104	0x3d87bae2	0.06627442
105	0x3e324ec8	0.17412865
106	0x3e420813	0.18948393
107	0x3e2515bd	0.16121574
108	0xbd47d65a	-0.048788406
109	0xbb36dd5e	-0.0027902941
110	0xbd38cfb6	-0.045119964
111	0xbd1f567d	-0.03890084
112	0x3e03d6a1	0.12874843
113	0xbde9ac78	-0.11409849
114	0x3d364fc7	0.044509675
115	0x3d4b01a2	0.049562104
116	0x3d258f93	0.040420126
117	0xba0c7112	-0.0005357425
118	0xbe20d4b9	-0.15706147
119	0x3c4580ef	0.012054666
120	0x3e6dc260	0.2321868
121	0x3d2c191e	0.04201614
122	0x3e3ea6b3	0.18618278
123	0xbd43edf7	-0.047834363
124	0x3b7d1291	0.0038615803
125	0xbc0d0680	-0.008607507
126	0xbd5e9424	-0.054340497
127	0x3ceb860b	0.02875044
128	0xbcd134ec	-0.02553793
129	0xbd101e24	-0.035184994
130	0x3e068950	0.13138318
131	0x3da4c1ed	0.08044801
132	0x3e004b7d	0.12528796
133	0x3e4be529	0.19911636
134	0x3e719f51	0.2359593
135	0x3d57ec36	0.052715503
136	0xbbe01773	-0.006838733
137	0x3d3a357a	0.045461155
138	0x3da7b1cb	0.08188208
139	0x3d8eab12	0.06966223
140	0x3e12295b	0.14273588
141	0x3d90bf90	0.07067788
142	0xbcc6d758	-0.024272606
143	0x3e242d75	0.16032965
144	0x3ca00301	0.019532682
145	0x3d71442a	0.058902897
146	0xbcf21b26	-0.029553961
147	0x3e0518cb	0.12997739
148	0x3e436a82	0.19083598
149	0x3d078801	0.033088688
150	0x3d1569da	0.0364779
151	0x3e83c300	0.2573471
152	0x3dd1072d	0.10206447
153	0x3dae2918	0.08503932
154	0x3d652a8f	0.05594879
155	0xbbf10c9e	-0.0073562404
156	0xbb18a5fa	-0.002329229
157	0x3e768552	0.24074295
158	0x3e2c52b1	0.1682842
159	0x3e4ac990	0.19803452
160	0xbda1e93b	-0.07905813
161	0xbe0dd5b2	-0.1385105
162	0xbe7309ca	-0.23734203
163	0x3cb35af6	0.02189396
164	0xbccc092d	-0.02490672
165	0xbc0099e6	-0.007849192
166	0xbe6dbdfc	-0.23217005
167	0x3d1e35da	0.038625576
168	0xbe28eb9f	-0.16496132
169	0xbe4dca15	-0.2009662
170	0xbe1dcf80	-0.15411186
171	0x3d103e40	0.035215616
172	0xbcbc62e3	-0.022996372
173	0xbe7d1eee	-0.2471883
174	0xbe530b97	-0.2060989
175	0x3c5b1e4a	0.013373921
176	0xbe2cd68d	-0.1687872
177	0xbe488710	-0.19582772
178	0xbe11bd01	-0.14232256
179	0xbe834e63	-0.25645742
180	0xbdb0817d	-0.08618448
181	0xbd7df3e9	-0.06200019
182	0x3d3167ef	0.04331201
183	0xbe3e8746	-0.1860629
184	0xbc955e1c	-0.018233351
185	0xbdd9d6a7	-0.10636645
186	0xbe10ed12	-0.14152935
187	0xbe81c06c	-0.2534212
188	0xbe6b5b19	-0.2298397
189	0xbdb905ee	-0.09034334
190	0x3d66349b	0.056202512
191	0xbde9c977	-0.114153795
192	0xbe12a9e1	-0.14322616
193	0xbd4d2de5	-0.050092597
194	0x3dc6f139	0.09713978
195	0x3e113474	0.14180166
196	0x3e6953d8	0.2278589
197	0x3e30b2ea	0.1725575
198	0x3d75801d	0.05993663
199	0xbe68e93d	-0.22745223
200	0x3bfdcb07	0.00774515
201	0xbe59bc71	-0.21263291
202	0x3c8392c6	0.016061198
203	0xbdb365f5	-0.08759681
204	0x3d926952	0.071489945
205	0xbe1d79aa	-0.15378442
206	0xbe209e64	-0.15685421
207	0xbe495dbf	-0.19664668
208	0xbe353934	-0.17697603
209	0xbdbacb40	-0.09120798
210	0x3c8f2129	0.017471867
211	0xbe0f4738	-0.13992012
212	0xbce46d9a	-0.027884293
213	0xbe582c9b	-0.21110766
214	0x3de1050c	0.10987291
215	0xbe045f81	-0.12927057
216	0xbc4990eb	-0.012302618
217	0xbe575045	-0.21026714
218	0xbe801fbf	-0.2502422
219	0xbd3e45cf	-0.046453293
220	0xbca38c21	-0.01996428
221	0xbe307b1a	-0.1723446
222	0x3d2159b1	0.039392177
223	0xbe392feb	-0.18084686
224	0xbe60cd46	-0.21953306
225	0xbddc12f8	-0.107458055
226	0xbe371a35	-0.17881091
227	0xbd8d5d19	-0.069025226
228	0xbe5c286f	-0.21499799
229	0xbdc9b55c	-0.09849045
230	0xbe2ba0a0	-0.16760492
231	0x3e01ff2d	0.12694998
232	0xbd33b97f	-0.043878075
233	0xbe811dd7	-0.25218078
234	0xbdb87cf0	-0.09008205
235	0xbdf935e1	-0.1216848
236	0x3d3dbf2a	0.046324886
237	0xbd02bf0f	-0.03192049
238	0xbd9011d6	-0.07034652
239	0xbe0c86e6	-0.13723335
240	0x3de5680f	0.11201488
241	0x3babeb19	0.0052465317
242	0x3d8ae343	0.06781628
243	0xbd1c1ad2	-0.038111515
244	0x3d1bf4ef	0.038075384
245	0xbd580261	-0.052736644
246	0xbd65e00c	-0.05612187
247	0x3dca668d	0.09882841
248	0xbd577b08	-0.052607566
249	0x3c9cc581	0.019137146
250	0x3c22aa73	0.009928334
251	0x3c5ce139	0.013481432
252	0x3e0e4a70	0.13895583
253	0x3c898ffb	0.016792288
254	0xbca823bb	-0.02052485
255	0x3e3cdc97	0.18443523

tf.bias f4 [64]
0	0xbce5f6da	-0.02807181
1	0xbb4ab598	-0.0030930992
2	0xbd648ad0	-0.055796444
3	0x3e36d55c	0.17854828
4	0xbca8e886	-0.020618688
5	0xbc7d7f16	-0.015472194
6	0x3e803439	0.25039843
7	0xbb3a02b3	-0.0028382957
8	0xbdde7887	-0.108628325
9	0x3c229ad3	0.009924608
10	0x3c9b69be	0.01897132
11	0x3e5b6eca	0.21428981
12	0x3c3c0b83	0.011477354
13	0xbd8682bf	-0.065679066
14	0xbc451dba	-0.012031013
15	0x3d46dadd	0.048548568
16	0xbdb690ab	-0.08914312
17	0xbe46e849	-0.19424547
18	0x3df51d89	0.11968524
19	0xbdb00092	-0.08593859
20	0xbdf9b31c	-0.121923655
21	0x3c75b717	0.014997265
22	0xbe33af5e	-0.17547366
23	0x3e74b8a6	0.23898563
24	0xbe13e875	-0.14444144
25	0xbe4cd1a2	-0.20001844
26	0xbd465379	-0.04841945
27	0xbdf4fb16	-0.11961953
28	0x3e4a35b7	0.19747053
29	0xbd668529	-0.056279335
30	0xbce012c0	-0.02735269
31	0x3dfa33fa	0.12216945
32	0xbe6826e9	-0.22671093
33	0xbd4e865d	-0.050421108
34	0x3dbf31d5	0.093356766
35	0xbe0fca55	-0.14042027
36	0x3dbb7aac	0.09154257
37	0x3e1e7a71	0.15476395
38	0xbca5f372	-0.020257685
39	0x3e5215c6	0.20516118
40	0x3e2c2d8a	0.16814247
41	0x3d464c46	0.048412584
42	0x3d2cf9e8	0.042230517
43	0x3dc04976	0.093890116
44	0xbd0f59b8	-0.03499767
45	0xbd993849	-0.07481439
46	0x3e23f2e6	0.16010627
47	0xbdda74d5	-0.10666815
48	0x3d554731	0.052069847
49	0x3e357d7c	0.1772365
50	0x3e4760b3	0.19470482
51	0x3d3ecc8c	0.04658179
52	0xbb2928c8	-0.002581166
53	0x3d032bdd	0.032024253
54	0xbe4a93de	-0.1978297
55	0x3d123a0e	0.035699897
56	0xbdf86f28	-0.12130576
57	0xbd0c1058	-0.034195274
58	0xbd5acabe	-0.053416006
59	0xbe7a16fb	-0.24422829
60	0xbe379e0a	-0.17931381
61	0x3e71ea6b	0.2362458
62	0x3d624fce	0.05525189
63	0x3e4c1f3e	0.19933793

gru1.weight_ih_l0 f4 [192, 64]
0	0xbb31972d	-0.0027098164
1	0xbdabbf53	-0.083861016
2	0x3d79f9f1	0.06102938
3	0xbd638a31	-0.05555171
4	0xbe373b4b	-0.17893712
5	0xbd388675	-0.045050103
6	0xbe038dfc	-0.12847131
7	0xbe60eb18	-0.21964681
8	0xbda6fa3e	-0.08153199
9	0x3d902394	0.07038036
10	0xbdbfe24e	-0.09369336
11	0xbcfe3fbc	-0.03103625
12	0xbe0c121e	-0.13678786
13	0x3c97a2be	0.018510219
14	0xbca3e0d1	-0.020004662
15	0xbd6cfc11	-0.057857577
16	0xbdc60a70	-0.096699595
17	0xbb461875	-0.003022698
18	0xbd52cc2e	-0.051464252
19	0xbc3ed58a	-0.011647591
20	0x3d373b49	0.044734273
21	0xbe1bd075	-0.15216239
22	0x3bc6c870	0.0060663745
23	0xbe2a0dd2	-0.16606835
24	0x3cbf6a7b	0.023366204
25	0x3d2f72c1	0.042834047
26	0xbe3513d6	-0.17683348
27	0x3cf414ae	0.029795017
28	0xbdc807b5	-0.09767095
29	0x3cbe3bdc	0.023221903
30	0xbde1b70a	-0.1102124
31	0x3cbd664f	0.023120074
32	0xbda97bbd	-0.08275554
33	0x39cc53a8	0.0003897224
34	0xbe015437	-0.12629782
35	0x3daf4cc3	0.08559563
36	0xbd76104d	-0.06007414
37	0xbe413cbc	-0.18870825
38	0xbdc6e1aa	-0.09711011
39	0xbd8a7dab	-0.067622505
40	0xbe62313f	-0.22089098
41	0xbe3da2b4	-0.18519098
42	0xbc1b56f4	-0.00948118
43	0xbdaa22dc	-0.0830743
44	0xbd0c55a0	-0.034261346
45	0x3c1d0fed	0.0095863165
46	0xbd47f8c9	-0.048821244
47	0xbca00a6b	-0.019536218
48	0xbbba68ee	-0.005688778
49	0x3cbdd36a	0.0231721
50	0xbd5947db	-0.053047042
51	0xbd7448cc	-0.059639737
52	0xbe4b79e4	-0.19870716
53	0xbe5f8df9	-0.21831502
54	0x3c28a849	0.010294029
55	0x3db3033d	0.08740852
56	0x3d338d60	0.043835998
57	0x3d85a36d	0.065253116
58	0xbe0a76f5	-0.13521941
59	0x3c186d90	0.0093034655
60	0xbcf757dc	-0.030193262
61	0xbdf15bc8	-0.11785084
62	0xbda20d2c	-0.079126686
63	0xbe3dd50d	-0.18538304
64	0xbcdbbfbe	-0.026824828
65	0x3e34a380	0.17640495
66	0x3cfb756e	0.030695643
67	0x3e1946e2	0.14968446
68	0x3e090a91	0.13382937
69	0x3e38c302	0.1804314
70	0x3e14db56	0.14536795
71	0x3e5264a7	0.20546208
72	0x3d13375c	0.035941467
73	0x3b5b3f5d	0.0033454516
74	0x3d8e96c2	0.069623485
75	0x3e02326a	0.12714544
76	0xbca45553	-0.020060217
77	0xbc1a5cef	-0.009421571
78	0x3e4ceceb	0.20012252
79	0xbd0a46d9	-0.03375897
80	0xbca6eafa	-0.020375717
81	0x3c73ce92	0.014880793
82	0x3d06f84c	0.032951638
83	0x3baf5679	0.0053508845
84	0x3dc73d74	0.09728518
85	0x3e32a0d3	0.17444162
86	0xbd2c646f	-0.04208797
87	0x3d8b806a	0.068116024
88	0xbc925809	-0.017864244
89	0x3d70b675	0.058767755
90	0xbc513fbd	-0.012771544
91	0x3e40930a	0.18806091
92	0x3d087bb8	0.033321112
93	0xbcad4c95	-0.021154681
94	0x3e5fec94	0.21867591
95	0x3be80731	0.0070809354
96	0x3e37724b	0.17914693
97	0x3e597213	0.21234922
98	0x3dd67e9d	0.10473368
99	0x3c04f601	0.0081152925
100	0xbc9d2dc8	-0.01918687
101	0x3d1afaa0	0.03783667
102	0x3e0d9ea8	0.13830054
103	0x3d977e2e	0.07397114
104	0x3e05799f	0.13034676
105	0x3df209a9	0.11818249
106	0xbc075c00	-0.008261681
107	0x3df30284	0.11865714
108	0xbc321f14	-0.010871667
109	0x3d22c916	0.03974255
110	0x3d80f703	0.06297114
111	0xbc016a12	-0.007898824
112	0x3d902da2	0.07039954
113	0x3e362d12	0.1779063
114	0x3dc3cfb4	0.095611006
115	0xbc843b69	-0.01614161
116	0x3e4b80fe	0.19873425
117	0x3e43e9c9	0.1913215
118	0xbd7988e0	-0.06092155
119	0x3e2c5b6d	0.16831751
120	0x3db2af13	0.08724799
121	0x3df714e2	0.1206453
122	0x3e440463	0.19142298
123	0x3c4e8ddf	0.012607067
124	0x3c23f6ed	0.010007602
125	0x3d3b1a5e	0.045679443
126	0x3d087eb7	0.03332397
127	0x3c46818f	0.01211585
128	0x3caf04ee	0.021364655
129	0x3b4898d9	0.0030608682
130	0xbcdb20d5	-0.026749054
131	0xbdbae919	-0.09126491
132	0x3d25780a	0.04039768
133	0xbbf1f7b2	-0.007384264
134	0xbdb73712	-0.08946051
135	0xbc2d3c22	-0.010573419
136	0x3d8f42f7	0.069951944
137	0xbcde0bc0	-0.027105212
138	0x3c166585	0.009179478
139	0x3ca147e7	0.019687606
140	0xbd016586	-0.03159096
141	0xbe1a8d10	-0.15092874
142	0xbd2cf9b1	-0.04223031
143	0xbd909530	-0.07059705
144	0x3d311120	0.043229222
145	0xbcb4b8e1	-0.022060813
146	0xbbc05448	-0.005869422
147	0xbbf08eb3	-0.00734123
148	0x3ce7e769	0.028308587
149	0xbd02137d	-0.031756867
150	0xbd883027	-0.06649809
151	0x3badca1d	0.005303635
152	0xbdab2bf5	-0.083579935
153	0xbdb34be5	-0.0875471
154	0xbccb4e4f	-0.024817614
155	0xbd91acba	-0.07113023
156	0xbd9ae605	-0.07563404
157	0xbc565773	-0.013082373
158	0xbd8b895e	-0.0681331
159	0x3c2abd7c	0.010421153
160	0xbda615ea	-0.081096485
161	0xbe0982d6	-0.13428816
162	0x3d31424e	0.043276124
163	0x3d8719f7	0.06596749
164	0xbd9f53f5	-0.077796854
165	0xbb86b4cf	-0.0041109095
166	0xbe1d240d	-0.15345784
167	0xbd75e1ac	-0.06002967
168	0xbd51abe9	-0.051189337
169	0x3cd4d2fd	0.025979513
170	0x3b607c95	0.0034253944
171	0xbc831e6d	-0.01600572
172	0x3d74d559	0.059773777
173	0x3c5c58ad	0.013448876
174	0xbd0afab9	-0.033930514
175	0xbdc6849e	-0.096932635
176	0xbce8453e	-0.02835333
177	0xbdfa3dcd	-0.12218819
178	0xbbd71b4e	-0.0065645343
179	0x3d94125d	0.07230065
180	0x3c716360	0.0147331655
181	0x3c0b7998	0.008512877
182	0x3c6477b9	0.01394456
183	0xbdecce26	-0.11562757
184	0x3d8c107d	0.068390824
185	0xbdce40b6	-0.100709364
186	0xbd3cb73b	-0.04607318
187	0xbd17f1d3	-0.037095856
188	0x3beb012e	0.0071717715
189	0x3c08819b	0.008331682
190	0xbda3c5e1	-0.07996727
191	0x3d459f0c	0.048247382
192	0xbcd0c106	-0.025482666
193	0xbdc73400	-0.09726715
194	0x3bc8a7c1	0.0061235134
195	0x3ccaf39b	0.024774363
196	0xbe02bcbc	-0.12767309
197	0xbe16db00	-0.1473198
198	0xbe085b19	-0.13316001
199	0xbdaf5cd8	-0.085626304
200	0xbcd045dd	-0.025423938
201	0xbd7fe89a	-0.062477686
202	0xbd1640b5	-0.036682803
203	0xbdfe603d	-0.124207
204	0xbe15cbc2	-0.14628509
205	0xbe604d9a	-0.21904603
206	0xba9531b5	-0.0011382612
207	0xbab09f65	-0.0013475238
208	0x3cdd8586	0.027041208
209	0xbc2723b2	-0.0102013815
210	0x3bb99d81	0.005664528
211	0xbe2a41e2	-0.16626695
212	0x3d4c74c1	0.049916033
213	0xbd876af7	-0.06612199
214	0x3c25285d	0.010080424
215	0xbe2efda9	-0.17088951
216	0xbd95b2c8	-0.073094904
217	0xbc723f41	-0.014785589
218	0xbd8fd5a9	-0.07023174
219	0x3d0f4f4e	0.03498774
220	0x3b213ea8	0.0024603996
221	0x3d65de38	0.056120127
222	0xbca5ebf6	-0.020254117
223	0xbd6add5a	-0.057340004
224	0xbd56b3c4	-0.05241753
225	0x3e0ea6e0	0.13930845
226	0xbce19269	-0.027535634
227	0xbdbbb6b5	-0.09165708
228	0xbdbcdf1f	-0.092222445
229	0xbd84383b	-0.064560376
230	0x3c20f181	0.009823204
231	0xbda06d86	-0.0783339
232	0xbe1b2207	-0.15149699
233	0xbe62c56f	-0.22145627
234	0x3d8ae616	0.06782167
235	0x3d95954b	0.07303866
236	0x3c6739c6	0.014112895
237	0xbe5e1091	-0.21686007
238	0xbdb648d6	-0.08900611
239	0xbdb3d859	-0.087814994
240	0x3bec22cf	0.007206298
241	0x3d6bf0a7	0.05760255
242	0x3c5a2d34	0.013316441
243	0xbd227531	-0.039662544
244	0xbdcabcfd	-0.09899328
245	0xbe088a79	-0.13334073
246	0x3b439b93	0.0029847368
247	0xbdaf37c6	-0.0855556
248	0xbdb6e5e0	-0.08930564
249	0xbe029b35	-0.1275452
250	0x3c7c4ac0	0.015398681
251	0xbe0b8ffa	-0.13629141
252	0x3d3628dd	0.044472564
253	0xbe364078	-0.1779803
254	0xbe3da3a7	-0.1851946
255	0xbe47be04	-0.19506079

gru1.weight_hh_l0 f4 [192, 64]
0	0xbc7c2c80	-0.015391469
1	0x3bc28305	0.005936029
2	0xbe37e2ac	-0.17957562
3	0xbe5baf4a	-0.21453586
4	0xbe01a80f	-0.12661766
5	0x3e2cd02d	0.16876288
6	0xbe08b5f4	-0.1335066
7	0x3db6cf24	0.08926228
8	0xbe04860e	-0.12941763
9	0x3b830324	0.003998177
10	0xbd8c9383	-0.06864073
11	0xbc856f37	-0.016288383
12	0x3e0ff11c	0.1405682
13	0xbdbf20f2	-0.09332456
14	0xbca61bca	-0.020276923
15	0x3d34a85f	0.044105884
16	0xbdba16dc	-0.09086391
17	0xbc344d7c	-0.011004802
18	0x3e236a07	0.15958415
19	0x3beb15dc	0.0071742367
20	0xbd159352	-0.03651745
21	0xbd684c5b	-0.056713443
22	0xbd6b2775	-0.057410676
23	0xbde1a43c	-0.11017653
24	0x3c1a0042	0.0093994755
25	0xbd1730bf	-0.036911722
26	0xbe0771c1	-0.13226987
27	0xbd845383	-0.06461241
28	0xbcb51d59	-0.02210872
29	0x3c985931	0.018597217
30	0xbb87e28d	-0.00414688
31	0xbe488337	-0.19581304
32	0x3e01052f	0.12599634
33	0xbe511766	-0.20419082
34	0x3ce10f38	0.027473077
35	0x3da2db6e	0.07952009
36	0xbe27dede	-0.16393611
37	0xbe192150	-0.14954114
38	0x3cae2734	0.021258928
39	0xbd07c798	-0.03314933
40	0xbcb6a988	-0.022297636
41	0x3de95b0b	0.11394318
42	0xbdb2e8b1	-0.087357886
43	0xbc1c908d	-0.009555948
44	0x3e2091cd	0.15680619
45	0xbcef0a1d	-0.029179627
46	0xbcb9358c	-0.022608541
47	0xbd46b7f6	-0.048515283
48	0x3e6322a3	0.22181182
49	0x3c9fb173	0.019493794
50	0x3e22545c	0.15852493
51	0x3e159b51	0.1461003
52	0x3de0df08	0.1098004
53	0xbe5a5681	-0.21322061
54	0x3dbfc219	0.09363193
55	0x3c81ccfa	0.01584481
56	0xbdf5299f	-0.11970829
57	0xbe56653b	-0.20937054
58	0xbc1762cf	-0.009239866
59	0xbc452e8d	-0.012035024
60	0xbe02406f	-0.12719892
61	0x3e431137	0.19049536
62	0xbe3c93cc	-0.18415755
63	0xbca08ddb	-0.019598892
64	0xbd1af759	-0.037833545
65	0x3da0a003	0.0784302
66	0x3d9e08dd	0.07716534
67	0xbbec8935	-0.007218505
68	0x3e07a9a2	0.13248304
69	0xbe1449be	-0.14481255
70	0x3d905bed	0.070487835
71	0x3cb4cbd2	0.022069845
72	0x3d95d6fa	0.07316394
73	0xbc59d14a	-0.013294527
74	0x3ccd8608	0.025088325
75	0xbca05ad1	-0.019574555
76	0xbe34b599	-0.17647399
77	0x3bb337b2	0.005469286
78	0x3e2d9aa0	0.16953516
79	0x3cf93d4d	0.030424738
80	0x3d37738b	0.044787925
81	0x3d5cb25a	0.053881027
82	0xbda06470	-0.07831657
83	0xbc6bc862	-0.014391037
84	0x3cc6cf5c	0.024268799
85	0x3cd4c2c1	0.025971772
86	0x3d68100d	0.056655932
87	0x3d40548d	0.046955634
88	0x3db69663	0.08915403
89	0xbb0081ec	-0.001960869
90	0x3e059e37	0.13048635
91	0x3e0e8708	0.13918698
92	0xbd00ac3b	-0.03141425
93	0xbc02019c	-0.007934954
94	0x3c193566	0.00935111
95	0x3c7bddbc	0.01537269
96	0x3cb9354b	0.02260842
97	0x3d019b3c	0.031642184
98	0xbdb6401c	-0.08898947
99	0xbcb52406	-0.022111904
100	0x3bf4bd5a	0.0074688615
101	0x3e3ad756	0.18246207
102	0xbce14e07	-0.027503027
103	0x3df87a68	0.12132722
104	0xbdc7c672	-0.09754647
105	0xbe34d404	-0.17659003
106	0x3e01ae39	0.12664117
107	0xbb79fae8	-0.0038143937
108	0xbd0d89f7	-0.0345554
109	0x3e15c17e	0.14624593
110	0x3da0f32e	0.07858883
111	0xbd02e808	-0.031959563
112	0xbe25fdb1	-0.16210057
113	0x3e154d55	0.14580281
114	0xbe400734	-0.18752748
115	0x3aadee89	0.0013269942
116	0xbe3346a3	-0.17507415
117	0xb9c235fb	-0.00037042782
118	0xbdf0c5e8	-0.117564976
119	0xbd15f8fd	-0.036614407
120	0xbb585f1e	-0.0033015679
121	0x3d8b6e57	0.06808155
122	0x3c716fd9	0.014736139
123	0xbc75bb50	-0.014998272
124	0x3c3b239e	0.011422066
125	0xbca41f62	-0.020034496
126	0x3e5bcde2	0.21465257
127	0xbd56f63f	-0.052480932
128	0x3d0a68c7	0.03379133
129	0xbdb908b1	-0.09034861
130	0x3c96a03d	0.018386954
131	0x3d2ab038	0.04167196
132	0xbd4f5cf1	-0.050625745
133	0x3cc0bfa6	0.023528885
134	0x3aeae08c	0.0017919703
135	0xbae7ad13	-0.0017675482
136	0xbca62c98	-0.020284936
137	0x3d95d11a	0.073152736
138	0x3dcef748	0.10105759
139	0x3c0cdc5e	0.0085974615
140	0xbd1ad62a	-0.0378019
141	0x3b91c576	0.004448588
142	0xbd7eb522	-0.06218446
143	0xbd124d4e	-0.035718255
144	0x3d8f9b23	0.07012012
145	0xbd76f5da	-0.060293056
146	0x3dfc62c9	0.12323529
147	0xbdbf8ce4	-0.09353045
148	0xbca247d2	-0.019809637
149	0xbd99b612	-0.0750543
150	0xbdfb3a02	-0.122669235
151	0xbd87ca4e	-0.066303834
152	0xbdafa5e2	-0.085765615
153	0x3d800dc9	0.06252629
154	0xbc07b1f6	-0.008282175
155	0xbe040ff0	-0.12896705
156	0x3c23abec	0.00998972
157	0x3dc1b2e3	0.09457948
158	0xbd4f1b56	-0.05056318
159	0xbdca07cc	-0.098647684
160	0x3c2f6697	0.010705612
161	0x3d90b81a	0.070663646
162	0xbd78486d	-0.060615946
163	0x3da977b1	0.082747824
164	0xbdb3f63f	-0.08787202
165	0xbdfda8a6	-0.12385683
166	0xbce33460	-0.027734935
167	0x3ce3c398	0.027803227
168	0xbd5b71a1	-0.05357516
169	0x3c3c30e8	0.0114862695
170	0xbd9b08a9	-0.07570011
171	0xbde1ced7	-0.1102578
172	0x3bf37da3	0.0074307485
173	0x3ce51c65	0.027967641
174	0x3c4678ab	0.01211373
175	0x3d715c33	0.05892582
176	0xbc49c1ec	-0.012314301
177	0xbdd7fa51	-0.10545791
178	0x3b162ef4	0.002291617
179	0x3d8b1f11	0.06793035
180	0x3b0e9a51	0.002175946
181	0x3d76f70d	0.0602942
182	0x3c6134ec	0.013745528
183	0x3c3f6c05	0.011683469
184	0xbc06bd2d	-0.008223814
185	0xbc10fe48	-0.008849688
186	0xbd442d81	-0.04789496
187	0x3d9de8d7	0.07710426
188	0xbd1e530a	-0.03865341
189	0x3d657292	0.056017466
190	0x3d5bc258	0.053652138
191	0xbbf29125	-0.0074025565
192	0x3dfc8bdb	0.12331363
193	0xbdbd92ef	-0.09256541
194	0xbd767f43	-0.06017996
195	0xbe1db3fa	-0.15400687
196	0xbcb100e0	-0.021606863
197	0xbc4a15c3	-0.01233429
198	0xbd80b543	-0.06284573
199	0x3d1298dc	0.03579031
200	0x3cc1605e	0.023605522
201	0xbd1e626c	-0.03866808
202	0xbe49cc7b	-0.1970691
203	0xbcab0730	-0.02087745
204	0x3e5477bc	0.207488
205	0xbda1ad8a	-0.07894428
206	0xbd4dd62a	-0.05025307
207	0x3d7056f3	0.05867667
208	0xbd909ce4	-0.070611745
209	0x3d976b78	0.07393545
210	0x3d01c1dc	0.03167902
211	0xbe2f91b4	-0.17145425
212	0xbd04baf9	-0.032404874
213	0xbce9fe3e	-0.028563615
214	0xbc9bf604	-0.019038208
215	0xbe3190ec	-0.1734044
216	0xbd062276	-0.03274771
217	0x3d1f2ee2	0.03886307
218	0x3a40ab36	0.0007349731
219	0x3c806b30	0.015676111
220	0x3cafb9f6	0.021450978
221	0x3c6ff6cf	0.014646246
222	0x3dadcac2	0.084859386
223	0x3bfaad45	0.00765005
224	0x3d2e8f30	0.042617023
225	0xbe4556e7	-0.19271432
226	0x3e4029bf	0.18765925
227	0x3c8a95bc	0.016917102
228	0xbda78be8	-0.08180982
229	0xbc0b2743	-0.008493247
230	0xbddac24e	-0.10681592
231	0x3bc5e27c	0.006038962
232	0x3e5d9924	0.2164045
233	0x3e1d9b15	0.1539119
234	0xbd377f7d	-0.044799317
235	0x3cbf407e	0.023346182
236	0x3e44799d	0.19187017
237	0xbe29abe7	-0.16569482
238	0xbc56f70c	-0.013120424
239	0xbc62ba62	-0.013838382
240	0x3c87a5ef	0.016558615
241	0xbbc5dc19	-0.0060382006
242	0x3bbec012	0.0058212364
243	0x3bdb4354	0.0066913757
244	0x3d9d7609	0.07688529
245	0xbe252e4b	-0.1613094
246	0x3dc817b5	0.09770147
247	0x3d4c982f	0.04994982
248	0xbcfe7b15	-0.03106455
249	0xbdbb8a16	-0.09157197
250	0x3c8ee635	0.017443756
251	0xbb097f9b	-0.00209806
252	0xbe47d8dc	-0.19516319
253	0xbb36cbdf	-0.0027892513
254	0xbb8f26e4	-0.00436865
255	0x3d483fe3	0.048889052

gru1.bias_ih_l0 f4 [192]
0	0xbb982863	-0.0046434863
1	0x3e5965a3	0.21230178
2	0xbd6c23ed	-0.05765145
3	0xbd4f289c	-0.050575837
4	0xbe1645c7	-0.14675055
5	0x3d7733de	0.0603522
6	0x3d9ab0bd	0.075532414
7	0x3c88029a	0.016602803
8	0x3c0e92d4	0.008701999
9	0x3bb154e6	0.005411732
10	0x3b8488d7	0.004044633
11	0x3e2ffdf2	0.17186716
12	0x3b086d54	0.0020817118
13	0x3bcdbb3b	0.006278423
14	0x3df72362	0.120672956
15	0x3ccac6e2	0.024753038
16	0xbe3f70ec	-0.1869542
17	0x3daae979	0.083453126
18	0xbe27a321	-0.16370822
19	0x3df9a371	0.12189377
20	0x3da3c942	0.07997371
21	0x3d092797	0.03348502
22	0x3daf55b1	0.08561266
23	0x3b8dd67b	0.0043285466
24	0xbe097a33	-0.13425522
25	0x3df09c34	0.117485434
26	0xbe09597c	-0.13413042
27	0x3caae9bc	0.020863406
28	0xbe55e55b	-0.20888273
29	0x3e26036b	0.16212241
30	0x3e0f4556	0.13991293
31	0x3e307d3f	0.17235278
32	0x3e0188c3	0.12649827
33	0x3d2c50f9	0.04206941
34	0xbc0fbdbe	-0.008773265
35	0x3dd36703	0.10322382
36	0xbddffc36	-0.10936777
37	0x3d063780	0.032767773
38	0x3d9ea5db	0.07746478
39	0xbbb4c6a4	-0.005516844
40	0x3cb86619	0.022509621
41	0x3d887dad	0.06664596
42	0xbdaddfca	-0.0848995
43	0x3e24ed5f	0.16106175
44	0xbbd39f30	-0.0064581856
45	0xbd5303c0	-0.05151725
46	0x3e334253	0.1750577
47	0x3caa570c	0.02079346
48	0x3c7e8081	0.015533567
49	0xbde42ba0	-0.11141133
50	0x3dd78f42	0.10525371
51	0xbe4734b0	-0.19453692
52	0x3e1fa0f5	0.15588744
53	0xbe48731f	-0.19575165
54	0xbbe65e7b	-0.007030306
55	0x3e1640f1	0.1467321
56	0xbdf5ac20	-0.11995721
57	0x3e5eed08	0.21770108
58	0x3dd9009d	0.1059582
59	0xbdc4f0da	-0.09616251
60	0x3e254957	0.16141258
61	0x3de1889c	0.11012384
62	0xbd935d13	-0.07195487
63	0xbde3b920	-0.11119294
64	0x3c437513	0.011929768
65	0xbe3ae93a	-0.18253031
66	0x3dcba742	0.09944011
67	0xbd2351e7	-0.03987303
68	0xbe2586fd	-0.16164775
69	0xbdf39573	-0.118937396
70	0xbde54c53	-0.11196198
71	0x3c716848	0.014734335
72	0x3d6b4007	0.057434108
73	0xbdc5d1dc	-0.09659168
74	0xbe047260	-0.12934256
75	0x3de31c28	0.11089355
76	0x3cd9f237	0.026604755
77	0x3dedf76e	0.11619459
78	0xbe1d925f	-0.15387867
79	0x3c419c58	0.01181706
80	0x3e41d56f	0.18929075
81	0xbcec9ef3	-0.028884387
82	0x3dc2b360	0.09506869
83	0xbdb3f792	-0.08787455
84	0x3d19363f	0.03740525
85	0xbc80c2e2	-0.015717927
86	0x3d048035	0.03234883
87	0x3c3ce772	0.01152979
88	0x3cd8f80b	0.026485464
89	0x3d8cfe55	0.068844475
90	0xbda8b4fd	-0.08237646
91	0xbe02ac4d	-0.1276104
92	0xba20b62c	-0.00061306613
93	0xbde22582	-0.1104231
94	0x3cd493a8	0.025949314
95	0x3e088e9e	0.13335654
96	0x3dcea660	0.10090327
97	0xbe2ae3ca	-0.16688457
98	0xbca64595	-0.020296851
99	0x3cc8f16b	0.02452918
100	0x3d745be9	0.059657965
101	0xbe2f8d23	-0.17143683
102	0xbca67c3a	-0.020322908
103	0xbd82383a	-0.063583806
104	0xbb34fd6b	-0.002761687
105	0xbd2410ab	-0.04005496
106	0x3e29a1b8	0.16565597
107	0xbc178564	-0.009248111
108	0xbd8c8c40	-0.06862688
109	0x3dfe2c37	0.12410777
110	0x3c3acee9	0.01140187
111	0xbd688edd	-0.05677687
112	0x3d71262a	0.058874287
113	0xbdbe93a3	-0.09305503
114	0xbe0a7238	-0.13520133
115	0x3d5eb6ab	0.054373425
116	0xbe5b7cd5	-0.21434338
117	0xbcb7a023	-0.022415226
118	0xbd973b5f	-0.07384371
119	0xbc2ba080	-0.010475278
120	0x3e56d2e7	0.2097889
121	0x3bdf1e15	0.006809006
122	0xbb267be2	-0.002540343
123	0x3dacc7e2	0.08436562
124	0x3e1e0b10	0.15433908
125	0x3e30413e	0.17212388
126	0x3cd46078	0.025924906
127	0x3d2b1dd7	0.041776504
128	0xbe5050b5	-0.20343287
129	0x3e3c3724	0.1838041
130	0xbc0dfb5f	-0.008665889
131	0x3e407861	0.18795921
132	0x3e34187c	0.17587465
133	0xbcae844a	-0.021303315
134	0xbd04e705	-0.03244688
135	0x3d16052a	0.03662602
136	0xbdda9bde	-0.106742606
137	0x3e2a9d4d	0.16661568
138	0x3da69496	0.08133809
139	0x3bdaf7ee	0.0066823876
140	0x3e04583c	0.12924284
141	0x3e40330e	0.18769476
142	0x3dd047af	0.101699226
143	0xbd2890f3	-0.04115386
144	0x3c848e0b	0.016181013
145	0xbdee00d1	-0.116212495
146	0x3d28d1d7	0.041215744
147	0x3e451039	0.1924447
148	0x3e2d3f53	0.16918688
149	0xbdecd97c	-0.11564919
150	0x3e00ff91	0.12597491
151	0x3e303a51	0.17209746
152	0x3dadd937	0.08488696
153	0x3debbde5	0.11510829
154	0xbe012e66	-0.12615356
155	0xbd0ed6e0	-0.03487289
156	0xbdbe0ea1	-0.09280134
157	0xbe44193b	-0.1915025
158	0xbdbd5442	-0.092445865
159	0x3e4c8846	0.19973859
160	0x3cb8d27a	0.0225613
161	0x3e103166	0.14081344
162	0x3cdc76e9	0.02691217
163	0x3d90c6d1	0.07069171
164	0x3e2dde47	0.16979323
165	0xbdf3e688	-0.11909205
166	0x3d92d72c	0.07169947
167	0x3e0f9a99	0.14023818
168	0x3ce74bf1	0.028234454
169	0x3d118875	0.035530526
170	0xbe3c2930	-0.18375087
171	0x3d55751d	0.05211364
172	0x3d2a280f	0.04154211
173	0xbcde4542	-0.027132634
174	0x3da11c7e	0.078667626
175	0xbd37d03e	-0.04487633
176	0x3d3f20bb	0.046662074
177	0x3e4de7d5	0.20107968
178	0xbe3fe281	-0.18738748
179	0xbc08893d	-0.008333501
180	0x3d42a25a	0.04751811
181	0xbd0eeb63	-0.03489245
182	0xbc3d90dc	-0.011570182
183	0xbdb3c8c4	-0.087785274
184	0xbcfeb729	-0.031093197
185	0xbce46fe3	-0.027885383
186	0x3caa9ed7	0.020827694
187	0x3e3faf7f	0.1871929
188	0x3e463a6f	0.19358228
189	0xbb4502ca	-0.0030061477
190	0x3e4a2668	0.19741213
191	0x3e0c6973	0.137121

gru1.bias_hh_l0 f4 [192]
0	0xbe5f6005	-0.21813972
1	0x3da72dcd	0.08163033
2	0x3cbb4330	0.022859186
3	0xbe50174f	-0.20321392
4	0xbc6a3651	-0.014295177
5	0x3db84337	0.08997195
6	0xbb02827a	-0.0019914196
7	0x3e37e750	0.17959332
8	0xbd5747fd	-0.052558888
9	0x3cb0cc5a	0.021581817
10	0x3e19f82a	0.15036073
11	0x3d085ce8	0.033291727
12	0xbe460373	-0.19337253
13	0xbc920ec2	-0.017829303
14	0x3e515924	0.2044416
15	0x3e4d358c	0.20039958
16	0xbd90c572	-0.0706891
17	0x3e4b74c8	0.19868767
18	0xbdddd2b4	-0.10831204
19	0x3e5a2be8	0.21305811
20	0x3d98a631	0.074535735
21	0x3e134093	0.14380102
22	0x3bb7d3fe	0.0056099882
23	0x3e21e3f6	0.15809616
24	0xbdc79a46	-0.09746222
25	0x3e242e4d	0.16033287
26	0xbe401e22	-0.18761495
27	0x3dfdc93c	0.12391898
28	0xbe130392	-0.1435683
29	0x3c26f1d0	0.0101894885
30	0x3e2edca0	0.1707635
31	0x3d759a91	0.05996186
32	0x3e61b112	0.22040203
33	0xbd82ded4	-0.06390157
34	0xbe081ea1	-0.13292934
35	0x3bf7be30	0.007560514
36	0xbe3211b8	-0.17389572
37	0x3dbcb138	0.09213489
38	0x3bf98700	0.00761497
39	0xbe2c779e	-0.16842505
40	0xbe5980fe	-0.21240613
41	0x3deda558	0.116038024
42	0xbd777ce0	-0.060421824
43	0x3e2c9b98	0.1685623
44	0xbe0c663f	-0.13710879
45	0x3cbcdd06	0.023054611
46	0x3c74478a	0.014909634
47	0x3cf50f1e	0.029914435
48	0xbe09e7ad	-0.13467284
49	0x3c059977	0.008154265
50	0x3dc8663a	0.09785123
51	0xbdc64499	-0.09681053
52	0x3da7f3ae	0.08200775
53	0xbe29dcaf	-0.1658809
54	0xbc16a511	-0.009194628
55	0x3dc0d8ea	0.09416373
56	0xbe3c63b8	-0.18397415
57	0x3d0f8f50	0.035048783
58	0x3d3de5ee	0.046361856
59	0xbe475317	-0.1946529
60	0x3e23fdaa	0.16014734
61	0x3dd574ff	0.10422706
62	0xbdb3a17c	-0.08771035
63	0xbe3427f6	-0.17593369
64	0xbd436968	-0.047707945
65	0xbdcd7b0c	-0.10033235
66	0x3db98df8	0.090602815
67	0xbd7f1f4b	-0.062285703
68	0xbdfcd261	-0.12344814
69	0xbe281645	-0.16414745
70	0xbe12a5ba	-0.14321032
71	0x3bd59a12	0.0065186108
72	0xbceefb0b	-0.029172441
73	0xbde192b7	-0.11014312
74	0xbca7aefe	-0.020469185
75	0x3d447b88	0.04796937
76	0x3d1f94de	0.03896033
77	0x3dc921bb	0.09820887
78	0xbdc42ed1	-0.09579242
79	0xbdea9524	-0.114542276
80	0x3ce9e617	0.028552098
81	0xbd8dc586	-0.0692244
82	0x3cfe487e	0.031040426
83	0xbc988cb0	-0.018621773
84	0xbc89f8fa	-0.016842354
85	0xbd07d2f5	-0.03316017
86	0xbdbbb3be	-0.091651425
87	0xbe076a09	-0.13224043
88	0x395dc322	0.00021148895
89	0x3d830daf	0.06399094
90	0xbccadfab	-0.024764856
91	0xbd49c254	-0.04925759
92	0x3dac2abc	0.084065884
93	0xbd27ceea	-0.040968813
94	0xbd02c5eb	-0.03192703
95	0x3e0618eb	0.13095443
96	0xba1c6ef3	-0.00059674605
97	0xbc758ced	-0.014987213
98	0xbd91c1fe	-0.07117079
99	0xbd561bda	-0.052272655
100	0x3d9d9efa	0.07696338
101	0xbdfdd115	-0.12393395
102	0x3e24688f	0.16055511
103	0x3c70a928	0.0146887675
104	0xbcc7ba10	-0.024380714
105	0x3b7c95c1	0.0038541409
106	0x3ca318c8	0.019909278
107	0xbd03c39a	-0.032168962
108	0xbdfe58c8	-0.124192774
109	0x3e009357	0.12556206
110	0xbce2bd0b	-0.027678033
111	0x3b9bf4ac	0.004759392
112	0x3e358eb6	0.17730221
113	0xbd966dab	-0.07345136
114	0xbd363c78	-0.04449126
115	0x3df1214b	0.11773928
116	0xbd00f4fc	-0.031483635
117	0x3d7667a2	0.060157426
118	0xbd9c17ad	-0.07621703
119	0xbdec45eb	-0.11536773
120	0x3e1e4af3	0.15458278
121	0x3d6c9321	0.0577575
122	0xbd4fd64f	-0.05074149
123	0x3ccdde14	0.02513031
124	0x3dd5f264	0.10446623
125	0x3e17876b	0.14797752
126	0x3e0b5043	0.13604836
127	0xbd377565	-0.04478969
128	0xbdad082a	-0.08448823
129	0x3e1ccb77	0.1531199
130	0xbe2ef79a	-0.1708664
131	0x3c2c356a	0.010510782
132	0x3d4b34c1	0.049610857
133	0x3e5a48f6	0.21316895
134	0xbd98c475	-0.07459346
135	0x3e2ef508	0.1708566
136	0xbd8d926b	-0.06912693
137	0xbc3e6049	-0.011619636
138	0x3e279d1c	0.16368526
139	0xbd830dd2	-0.063991204
140	0x3cbf6971	0.023365708
141	0x3e3fbb77	0.18723856
142	0x3e37de76	0.17955956
143	0xbe3a2437	-0.18177877
144	0xbe2a88fd	-0.1665382
145	0xbde056c2	-0.10954048
146	0x3d877c9e	0.06615566
147	0x3e610518	0.219746
148	0x3deaa043	0.11456349
149	0xbdde7b8c	-0.108634084
150	0x3e4fa4c4	0.20277697
151	0x3cc90e78	0.024543032
152	0x3cf69c24	0.03010375
153	0x3e547d01	0.2075081
154	0xbd0527fc	-0.032508835
155	0xbe1be6d7	-0.15224777
156	0xbdb8a10a	-0.09015091
157	0xbdd592ae	-0.104283676
158	0xbe147b7e	-0.14500234
159	0x3da06d99	0.07833404
160	0x3e1ef707	0.15523921
161	0x3e27bf23	0.16381507
162	0x3d60dbe9	0.054897223
163	0x3e330368	0.17481768
164	0x3afda46d	0.0019351371
165	0xbe3785f4	-0.17922193
166	0x3e2c14d2	0.16804817
167	0x3d899f23	0.06719806
168	0x3c828d22	0.015936438
169	0x3d9f5378	0.07779592
170	0xbd89aa5e	-0.06721948
171	0x3e0f9c7e	0.14024541
172	0x3dd34fff	0.103179924
173	0xbddba3dd	-0.10724614
174	0x3e2df9bf	0.16989802
175	0xbe52d804	-0.20590216
176	0x3d1b72c4	0.037951246
177	0x3debdaeb	0.11516365
178	0xbd916fcd	-0.071014024
179	0x3db17640	0.086651325
180	0x3e4d2389	0.20033087
181	0xbd052bcc	-0.03251247
182	0x3c017277	0.007900826
183	0xbe5d2195	-0.21594842
184	0xbca20a55	-0.019780317
185	0xbddc9926	-0.10771398
186	0xbd9b2b2b	-0.07576593
187	0x3d590e92	0.05299241
188	0x3de043aa	0.10950406
189	0x3e1c3984	0.15256315
190	0x3d84e331	0.06488646
191	0x3d00b72e	0.031424694

gru2.weight_ih_l0 f4 [192, 64]
0	0xbd5082a0	-0.050905824
1	0xbe1b11ef	-0.1514356
2	0xbe584c25	-0.21122797
3	0x3c728cc4	0.014804069
4	0xbe5e2817	-0.2169498
5	0x3da0ac75	0.078453936
6	0xbe516f62	-0.20452645
7	0xbe11f8a7	-0.1425501
8	0xbc6b6a2c	-0.014368575
9	0xbcf82694	-0.030291833
10	0xbe0162f0	-0.12635398
11	0xbdb499a5	-0.08818368
12	0x3d9bf915	0.07615868
13	0xbe2e1853	-0.17001466
14	0xbe4c5b9b	-0.1995682
15	0xbdaea167	-0.08526879
16	0xbe199f8b	-0.15002267
17	0x3d6fad8d	0.05851512
18	0x3e46fb58	0.19431818
19	0xbce223e5	-0.027605006
20	0xbd3bf7de	-0.04589068
21	0xbe00cd58	-0.12578332
22	0xbd8d7605	-0.06907276
23	0xbe54b1f5	-0.2077101
24	0xbe344344	-0.17603785
25	0x3e2e326c	0.17011422
26	0xbd9e1134	-0.07718125
27	0xbdbe8c6b	-0.09304126
28	0xbd912848	-0.07087761
29	0x3e55f94b	0.20895879
30	0x3ddb006a	0.10693438
31	0xbe605f78	-0.21911418
32	0x3e0fa28a	0.14026847
33	0xbe4b2eb4	-0.19842035
34	0x3ddd9e70	0.10821235
35	0x3cf022dd	0.0293135
36	0xbe22729b	-0.15864031
37	0xbd202bde	-0.039104335
38	0xbc32f757	-0.010923228
39	0xbda14e95	-0.078763165
40	0xbc172a8b	-0.009226452
41	0x3e0d4b96	0.13798365
42	0xbe20ecf5	-0.15715392
43	0xbe29d7f7	-0.1658629
44	0x3d3bc656	0.045843445
45	0x3ca01bc7	0.019544495
46	0x3ca4a6db	0.020099094
47	0xbdc30a8d	-0.09523497
48	0xbb33f999	-0.0027462004
49	0xbc2cd17a	-0.01054799
50	0x3cec2566	0.028826427
51	0x3e301e89	0.17199148
52	0xbb941794	-0.0045194123
53	0xbdb3c155	-0.087771095
54	0x3ccf52e2	0.025308076
55	0xbb164cf8	-0.002293406
56	0x3c809d3d	0.015699977
57	0xbd1143dc	-0.035465106
58	0xbe1fecc1	-0.15617658
59	0xbdd74eb9	-0.10513062
60	0xbe25abef	-0.16178869
61	0x3dca4bc9	0.09877736
62	0xbe308dac	-0.17241544
63	0xbdafa2b1	-0.08575953
64	0x3c78f11e	0.015194206
65	0x3d92e5d8	0.071727455
66	0x3e25edf8	0.16204059
67	0x3cf7747e	0.030206915
68	0x3c925e13	0.017867124
69	0xbd932a52	-0.07185806
70	0x3dbbe547	0.091745906
71	0xbd891623	-0.06693675
72	0x3d3496d7	0.044089165
73	0x3cd23d31	0.025663944
74	0x3d1ef14e	0.038804345
75	0x3dfe4327	0.12415152
76	0xbe41f095	-0.18939431
77	0x3de23152	0.11044563
78	0x3e47a25d	0.1949553
79	0x3d5cc088	0.05389455
80	0x3dfd41d7	0.123660736
81	0x3c5edf51	0.0136030475
82	0xbbcb7f7f	-0.006210267
83	0x3e017cb4	0.12645227
84	0x3d346438	0.04404089
85	0x3ce2f1ed	0.02770325
86	0x3e5c3848	0.21505845
87	0x3d234f2e	0.039870434
88	0xbd551f6d	-0.052031923
89	0x3e2685c3	0.16261964
90	0x3e5b28f7	0.21402346
91	0xbc986f0c	-0.018607639
92	0x3e0928fd	0.13394542
93	0xbd7ec956	-0.062203728
94	0xbcf06fec	-0.029350244
95	0x3e0fc11c	0.14038509
96	0xbda54e4a	-0.08071573
97	0x3d0e1aa4	0.034693375
98	0xbd0a1b87	-0.03371766
99	0xbe3041d5	-0.17212613
100	0x3dba4296	0.090947315
101	0x3e0c2b36	0.13688359
102	0x3e43b797	0.19113003
103	0x3dd0251d	0.10163329
104	0xbd4c30c1	-0.049851183
105	0xbe227d78	-0.15868175
106	0x3d4ce3c3	0.050021898
107	0x3d585daa	0.0528237
108	0xbe47eaf6	-0.19523224
109	0x3bf44b16	0.00745524
110	0x3db57ff7	0.08862298
111	0x3ca79ca6	0.020460438
112	0xbcb495dd	-0.022044117
113	0x3b0cae01	0.002146602
114	0xbbcbd10c	-0.0062199887
115	0xbd453046	-0.04814174
116	0xbdc24c78	-0.094872415
117	0x3d85509d	0.065095164
118	0xbd8b2cff	-0.06795692
119	0xbe0c7e37	-0.13720022
120	0x3e105472	0.14094713
121	0xbba2344a	-0.004950081
122	0x3e59d248	0.21271622
123	0x3e64f107	0.2235757
124	0x3cf0f86c	0.029415332
125	0xbe0c5439	-0.13704003
126	0xbc733813	-0.014844912
127	0xbc9a6700	-0.018847942
128	0x3db90387	0.09033876
129	0xbd7f8929	-0.062386665
130	0xbe155ff5	-0.14587386
131	0xbdcb1603	-0.09916308
132	0xbe50a87a	-0.20376769
133	0x3c85de07	0.016341222
134	0xbd7aeafb	-0.06125925
135	0xbd284890	-0.041084826
136	0x3c9fb2ef	0.019494502
137	0x3e2abe82	0.16674235
138	0xbd8e6ddf	-0.0695455
139	0xbc82fe2c	-0.01599034
140	0x3e2ed006	0.17071542
141	0xbd7502d0	-0.059817135
142	0xbe2c2658	-0.16811502
143	0xbcaab59a	-0.020838547
144	0xbe48f63d	-0.19625182
145	0x3d7cfb4b	0.06176309
146	0x3bda1884	0.0066557545
147	0xbe48c06b	-0.19604652
148	0xbe4ff56a	-0.20308462
149	0xbd85c411	-0.06531537
150	0xbd9ea0b3	-0.07745495
151	0x3cc93e11	0.024565728
152	0xbcc7fc8c	-0.024412416
153	0x3a7fe2a7	0.0009761252
154	0xbe54d736	-0.20785221
155	0xbdc1b686	-0.09458642
156	0xbe33b651	-0.17550017
157	0x3dd0c6a5	0.101941384
158	0x3e2744f5	0.16334899
159	0xbe1f1247	-0.15534316
160	0x3d826b18	0.06368083
161	0x3c97c8d4	0.01852838
162	0x3e48c6a5	0.19607027
163	0x3dde51f6	0.108554766
164	0xbcea7090	-0.028618127
165	0xbe4799f0	-0.19492316
166	0xbda7cb02	-0.081930175
167	0xbcb30b06	-0.021855842
168	0x3cbc6aae	0.023000088
169	0x3a9c0e7c	0.0011906172
170	0xbcdfb6be	-0.027308818
171	0xbe0185fa	-0.12648764
172	0x3e4a1a3f	0.19736575
173	0xbe0d8d9f	-0.13823555
174	0xbd8098b9	-0.062791295
175	0x3dc785bf	0.09742307
176	0x3e24c5d9	0.16091098
177	0xbda99537	-0.082804136
178	0x3df84420	0.12122369
179	0xbc7e331c	-0.015515115
180	0x3c974a30	0.018467993
181	0xbd66b069	-0.05632058
182	0x3e4ead68	0.20183337
183	0x3e096466	0.13417205
184	0xbdfed970	-0.12443817
185	0xbe5f38c7	-0.21799003
186	0x3c8d7c58	0.017271206
187	0xbdbc8fd3	-0.0920712
188	0xbe25eec4	-0.16204363
189	0xbc6d04ed	-0.014466506
190	0xbdbf9b16	-0.09355752
191	0x3d95f19a	0.073214725
192	0xbd1a8bd0	-0.03773099
193	0xbe606741	-0.21914388
194	0xbc726780	-0.014795184
195	0x3cc774bc	0.024347655
196	0xbd5e53aa	-0.054279007
197	0x3d986a39	0.07442135
198	0xbdf787de	-0.120864615
199	0x3d1d7ca3	0.03844894
200	0xbd2c4a71	-0.04206318
201	0xbd5f188d	-0.054466773
202	0xbd22471e	-0.039618604
203	0xbc9347de	-0.017978605
204	0x3d7e5396	0.062091433
205	0xbdd0b8cb	-0.101914965
206	0x3c385f4a	0.011253187
207	0x3cd2f350	0.025750786
208	0xbe274c45	-0.16337688
209	0x3dbf759a	0.093486026
210	0x3e3d0481	0.1845875
211	0x3c4ab4f2	0.012372242
212	0x3cfffe68	0.03124924
213	0x3e089ac6	0.13340291
214	0xbc45e73a	-0.0120790545
215	0xbdf059d6	-0.11735885
216	0xbd6cd366	-0.057818793
217	0xbda3745f	-0.079811804
218	0xbb26ed71	-0.0025471116
219	0x3bc3ddd8	0.0059773736
220	0xbbc4311b	-0.005987299
221	0x3e2e00ec	0.16992539
222	0xbd3829a2	-0.04496158
223	0xbe0b2670	-0.13588881
224	0xbe1ad370	-0.1511972
225	0x3c0ddbed	0.008658391
226	0x3dc33012	0.09530653
227	0xbe03d54b	-0.12874334
228	0xbe0e955e	-0.13924167
229	0xbd435808	-0.047691375
230	0x3cfc8f08	0.030829921
231	0xbd997572	-0.07493104
232	0x3dbfdeea	0.09368689
233	0x3e44d335	0.19221194
234	0xbca9f0ad	-0.020744646
235	0xbccf7f1f	-0.02532917
236	0x3e5125f1	0.2042463
237	0xbd8fc2c1	-0.07019568
238	0xbe458c65	-0.19291838
239	0x3dc34141	0.095339306
240	0x3d0c0fa3	0.0341946
241	0xbd50cd63	-0.050977122
242	0x3c20bb28	0.0098102465
243	0x3e570aa4	0.21000153
244	0x3cef3667	0.029200746
245	0xbdd89714	-0.10575691
246	0x3e116b94	0.14201194
247	0xbc5751d3	-0.013142067
248	0x3a97bf09	0.0011577319
249	0xbddc2b70	-0.107504725
250	0xbe4142dd	-0.18873163
251	0xbd1e506a	-0.038650908
252	0xbe3dd8d0	-0.18539739
253	0x3d0cd919	0.034386728
254	0x3b2547de	0.0025219838
255	0xbcdb8db5	-0.02680097

gru2.weight_hh_l0 f4 [192, 64]
0	0xbe654dd7	-0.22392975
1	0x3e1163eb	0.14198272
2	0x3e477cb3	0.19481163
3	0xbd41cab0	-0.04731244
4	0x3e14c9f4	0.14530164
5	0xbc96747c	-0.018366091
6	0x3cec7e04	0.028868683
7	0xbe2f5b33	-0.17124633
8	0x3d8362cf	0.064153306
9	0xbdeef502	-0.11667825
10	0xbdd9449a	-0.10608788
11	0xbe41e116	-0.1893352
12	0x3e0ce528	0.13759291
13	0x3dc35581	0.09537793
14	0x3c959c7d	0.018263096
15	0x3def53db	0.11685916
16	0xbb2397fd	-0.0024962418
17	0x3e51347b	0.20430176
18	0xbc3757f6	-0.011190405
19	0xbd8e7967	-0.069567494
20	0xbe4430cc	-0.1915924
21	0xbdf2cf2e	-0.11855923
22	0xbc0e9cc9	-0.008704373
23	0xbdbbd8bb	-0.091721974
24	0x3e5255e8	0.20540583
25	0xbda3a623	-0.079906724
26	0x3e0be1fd	0.13660426
27	0xbe65d6a5	-0.22445162
28	0xbd0bc5dd	-0.034124244
29	0xbe34e87f	-0.17666815
30	0xbc403ae7	-0.011732793
31	0x3db892bb	0.090123616
32	0xbe5f480d	-0.21804829
33	0x3df96123	0.121767305
34	0xbe4fb7f1	-0.20285012
35	0x3d319951	0.043359105
36	0xbbba764c	-0.0056903716
37	0x3e29cef8	0.16582859
38	0x3e350280	0.17676735
39	0xbe28ffec	-0.16503876
40	0xbdcf8f6d	-0.10134778
41	0xbe0b2f77	-0.13592325
42	0x3e1e777f	0.15475272
43	0xbd7e9f8f	-0.062163886
44	0x3e2d2805	0.16909797
45	0x3d8fdb77	0.070242815
46	0x3dcd28e0	0.10017562
47	0x3d057973	0.032586526
48	0x3e4374ce	0.19087526
49	0xbb21acdd	-0.0024669685
50	0x3e2a3f9a	0.16625825
51	0xbc62e4da	-0.013848508
52	0x3c22c9d4	0.009935815
53	0x3db8bcfa	0.090204194
54	0x3bef9d95	0.0073124864
55	0x3def9e7e	0.11700152
56	0x3dd57475	0.10422603
57	0xbe0004bf	-0.1250181
58	0x3db4cdc4	0.08828309
59	0xbe1f04c9	-0.15529169
60	0x3dfe65ae	0.124217376
61	0xbdc09af8	-0.09404558
62	0x3e40a9cb	0.18814771
63	0x3e3a2a46	0.18180189
64	0x3c40fdff	0.011779307
65	0xbe31c857	-0.1736158
66	0xbe4c69f4	-0.19962293
67	0xbbfc48dc	-0.007699115
68	0xbe4eaf60	-0.20184088
69	0xbe2469c7	-0.16055976
70	0xbd2ca7e5	-0.042152304
71	0x3da4d8bd	0.08049152
72	0xbe32c20d	-0.17456837
73	0x3dab05e6	0.083507344
74	0x3c9c9649	0.01911463
75	0x3dc8f373	0.09812059
76	0xbd21e57e	-0.0395255
77	0xbd73c6e6	-0.059515856
78	0xbd2d0a89	-0.042246375
79	0xbd81af72	-0.06332292
80	0x3dd74e50	0.10512984
81	0xbe46b8c3	-0.19406419
82	0x3da3a4c6	0.079904124
83	0xbcd155d8	-0.025553629
84	0x3e41a075	0.18908866
85	0x3e246534	0.16054231
86	0x3bfbfc5b	0.007689995
87	0x3e5870d6	0.21136793
88	0xbd7aa350	-0.061190903
89	0x3e56e86b	0.20987098
90	0xbe027c41	-0.12742712
91	0x3e3300fb	0.17480843
92	0x3e3b1e67	0.18273316
93	0x3d5952c3	0.053057443
94	0x3d8f12a2	0.06985976
95	0x3d6046bc	0.054754958
96	0x3e0d5186	0.1380063
97	0x3bf5b694	0.0074985716
98	0x3e59456b	0.21217887
99	0xbc8e2ab3	-0.017354345
100	0xbe518af1	-0.20463158
101	0xbe4d0d63	-0.20024638
102	0xbe0723f0	-0.13197303
103	0x3de5f3a4	0.112281114
104	0x3e5cf6b9	0.21578492
105	0x3bdb8c2c	0.0067000594
106	0x3c879553	0.016550696
107	0xbc79c6e1	-0.01524517
108	0xbe23e825	-0.16006525
109	0xbc747a03	-0.014921668
110	0xbe199c5d	-0.15001054
111	0xbe4c042a	-0.19923463
112	0xbca5f501	-0.020258429
113	0x3d652dd8	0.055951923
114	0xbcd32404	-0.02577401
115	0x3e275748	0.16341889
116	0x3e038059	0.1284193
117	0xbe19e599	-0.15028991
118	0xbe5d1ffb	-0.21594231
119	0x3ceb0839	0.028690444
120	0xbd48ed77	-0.04905459
121	0x3d702b0d	0.058634806
122	0xbe01f48b	-0.12690942
123	0x3bf34b37	0.007424738
124	0x38cbbe51	9.7152435e-05
125	0x3e0ed8da	0.1394991
126	0xbe62fd8c	-0.22167033
127	0xbd3afcb5	-0.045651156
128	0xbddff4f3	-0.10935392
129	0x3b93fe57	0.0045164037
130	0x3b9f0c51	0.004853763
131	0xbda1d91c	-0.079027385
132	0x3d9119d3	0.07085004
133	0x3e01a044	0.12658793
134	0x3ccc2318	0.024919078
135	0xbdf498e1	-0.11943222
136	0x3e5b3fc1	0.21411039
137	0xbc0659ef	-0.008200153
138	0xbd2773aa	-0.04088179
139	0xbd06aa9a	-0.032877542
140	0x3c20a35f	0.009804576
141	0x3ddc8be6	0.10768871
142	0x3ca506ee	0.020144906
143	0x3c496a7e	0.012293456
144	0x3c149232	0.009068059
145	0x3e65a0f1	0.22424676
146	0xbe3043cd	-0.17213364
147	0xbd16751b	-0.036732774
148	0xbdc6ceb6	-0.09707396
149	0x3cac5b7d	0.021039719
150	0xb9c1fcc7	-0.00037000162
151	0x3c339392	0.0109604765
152	0x3c4a8c0e	0.012362493
153	0xbe5bc4b1	-0.2146175
154	0x3e5f6065	0.21814115
155	0xbe0ffc0a	-0.14060989
156	0xbdf5ea93	-0.12007632
157	0xbd09119d	-0.033464063
158	0xbd5788fd	-0.052620877
159	0xbd8a6cf6	-0.06759064
160	0xbd1f1c81	-0.038845543
161	0x3d414ca0	0.047192216
162	0xbdfbbb00	-0.12291527
163	0xbdc467bc	-0.09590098
164	0x3e027aec	0.12742203
165	0x3c3c73d2	0.011502223
166	0x3d5fe413	0.054660868
167	0xbe2b56e1	-0.1673236
168	0xbe07c559	-0.13258876
169	0xbdf52acd	-0.11971054
170	0x3e4a3d90	0.19750047
171	0xbd59a278	-0.053133458
172	0xbb88c2a9	-0.004173596
173	0x3e26d6f4	0.16292936
174	0x3bff1795	0.0077847936
175	0x3c173500	0.009228945
176	0x3e654110	0.223881
177	0xbdd44ffc	-0.10366818
178	0x3e429164	0.19000775
179	0xbe1d8c81	-0.15385629
180	0xbd5674b6	-0.052357398
181	0x3d776b70	0.060405195
182	0x3d446e17	0.047956552
183	0x3d89cf62	0.06729008
184	0x3dbabb7f	0.09117793
185	0xbd4b1867	-0.04958382
186	0x3e2edb61	0.17075874
187	0x3c686d4f	0.014186217
188	0x3db102e9	0.08643133
189	0xbdd3fddf	-0.103511564
190	0x3e0f87e9	0.1401669
191	0x3dd385ce	0.103282556
192	0xbe582c4d	-0.2111065
193	0x3c9bdbdb	0.019025734
194	0xbcbedee1	-0.023299636
195	0xbdc9c943	-0.09852841
196	0xbc66c248	-0.014084406
197	0x3de4a78d	0.1116477
198	0x3aa33cce	0.0012454034
199	0xbc570e95	-0.013126035
200	0x3e3a3b08	0.18186581
201	0xbe3ae8ae	-0.18252823
202	0x3ddb2104	0.106996566
203	0xbd8ca40d	-0.06867228
204	0x3e501fb8	0.203246
205	0x3e250859	0.16116466
206	0x3d33c3a5	0.043887753
207	0x3e0638f4	0.13107663
208	0x3d879860	0.0662086
209	0x3e44331f	0.19160126
210	0x3b43d636	0.0029882318
211	0xbc81ac25	-0.015829155
212	0xbe2b9b8e	-0.16758558
213	0x3ccd4923	0.025059288
214	0xbc2e9b26	-0.010657107
215	0xbddb3c3b	-0.107048474
216	0x3d45e6bc	0.04831575
217	0xbc93b4f3	-0.01803062
218	0x3dbf680d	0.09346018
219	0x3dc07237	0.09396785
220	0x3d638350	0.05554515
221	0xbe40ab9a	-0.18815461
222	0xbdf19398	-0.117957294
223	0x3cc67e59	0.02423017
224	0xbd871244	-0.06595281
225	0xbcd2538a	-0.0256746
226	0x3c9a9539	0.018869983
227	0xbd5e52ac	-0.05427806
228	0x3de51490	0.111855626
229	0x3a74b2bf	0.00093344966
230	0x3d350f47	0.044204023
231	0xbe036dc1	-0.12834837
232	0xbd21e072	-0.03952069
233	0xbdb19213	-0.086704396
234	0x3d1a669a	0.037695505
235	0xbe16f82e	-0.1474311
236	0x3e04b210	0.1295855
237	0x3d751310	0.059832633
238	0x3bb6c49d	0.0055776373
239	0xbcf71111	-0.030159505
240	0x3dee16da	0.11625452
241	0xbd8ecbe3	-0.06972482
242	0xbd231a45	-0.039819974
243	0xbca4e0fe	-0.020126816
244	0xbd6e1b51	-0.05813152
245	0x3c31ad19	0.010844492
246	0x3aac24d3	0.0013133533
247	0xbde2ac08	-0.110679686
248	0xbd8614f0	-0.06546962
249	0xbce35dec	-0.027754746
250	0x3d4711d3	0.048600983
251	0xbc867b4b	-0.016416213
252	0x3bffafe7	0.0078029516
253	0xbcce5d5f	-0.025191007
254	0x3dd241d7	0.10266464
255	0x3dcf27ed	0.10115037
