good_model/LeVoiceFNN/LeVoice-170001.pth (torch, 843087 bytes, 14 tensors)

tf.weight f4 [128, 40]
0.03797139 0.093501695 0.16490252 0.041902453 -0.04518056 -0.035790727 -0.024254384 -0.042500477
-0.044609886 -0.008051105 0.07167443 0.07332068 0.030241584 0.011703617 -0.0492518 0.02307093
0.04774215 0.055544738 0.12635116 0.056585692 0.07138431 -0.0742394 -0.29816216 -0.38405207
-0.17662995 0.053443234 0.215479 0.19341314 0.15914588 0.115099676 0.19319904 -0.056154326
-0.04758194 -0.07589769 -0.05328988 -0.049445316 -0.07930465 -0.09422873 -0.21748424 -0.2937261
-6.484e-42 -5.806e-42 -5.148e-42 -6.854e-42 -2.503e-42 -2.456e-42 -5.398e-42 -2.274e-42
-4.76e-42 -3.805e-42 -3.788e-42 -3.917e-42 -5.542e-42 -3.258e-42 -5.6e-42 -4.56e-42
-6.85e-42 -6.88e-42 -6.309e-42 -2.371e-42 -6.07e-42 -4.225e-42 -4.348e-42 -6.066e-42
-3.325e-42 -5.402e-42 -5.99e-42 -1.925e-42 -4.159e-42 -5.153e-42 -6.568e-42 -5.318e-42
-4.561e-42 -4.878e-42 -3.709e-42 -5.097e-42 -6.034e-42 -3.632e-42 -5.765e-42 -3.664e-42
-0.045657434 0.042979106 0.021076953 0.025511406 0.025497412 0.051218953 0.075843684 0.021253787
0.03624169 -0.04945571 -0.2695083 -0.66087955 -0.84352535 -1.0356708 -0.96026164 -0.81181085
-0.66338396 -0.36029238 -0.07421129 0.13190156 0.22311692 0.17089501 0.061717097 0.012408628
0.03711902 0.09608824 0.07367369 0.0016463767 0.06728777 0.08156419 0.022378618 0.0019566128
-0.022720572 -0.049444497 0.080340125 0.04729674 0.059439234 0.045793623 -0.042341378 -0.24608304
-3.87e-43 -1.586e-42 -6.66e-42 -6.183e-42 -5.381e-42 -5.602e-42 -4.079e-42 -5.892e-42
-5.336e-42 -2.45e-42 -6.267e-42 -4.851e-42 -5.38e-42 -2.302e-42 -6.32e-42 -1.537e-42
-8.17e-43 -6.292e-42 -5.125e-42 2.2e-44 -5.004e-42 -5.353e-42 -2.829e-42 -4.187e-42
-6.428e-42 -2.877e-42 -1.55e-42 -4.226e-42 -1.121e-42 -3.219e-42 -4.278e-42 -6.705e-42
-1.637e-42 -3.82e-42 -2.049e-42 -3.331e-42 -4.634e-42 -3.449e-42 -1.983e-42 -3.062e-42
0.58298045 0.47885498 0.648461 0.3391421 -0.11473147 -0.6607946 -0.49311766 -0.0632663
0.061359495 0.2020143 0.17950544 0.109707564 0.10774217 0.10706853 0.061162174 0.08643919
0.09395562 0.09126545 0.048616726 0.017202578 0.06329302 0.05875706 0.0471425 -0.070552446
-0.012696943 -0.07207903 -0.008525491 0.0667334 -0.003787569 0.020426875 0.013040889 -0.007028548
-0.031018712 -0.035318997 0.08171555 0.05018753 0.04881169 0.067517154 -0.037484087 -0.08756736
-0.003142663 -0.0008129551 -0.006227302 0.0009596607 -0.008626398 -0.006757232 -0.0077477847 -0.008978793
-0.022089383 -0.01610303 -0.0123269735 -0.007939296 -0.00034682336 -0.0071900506 -0.0007998367 0.0019779685
-0.012255419 -0.00985389 -0.0013468354 0.019301914 -0.00071624084 -0.0065078447 0.0007054407 0.008649566
-0.015887972 0.0061168117 0.009862356 -0.016421165 -0.016802728 0.0111548845 -0.010835578 -0.013974708
-0.01042935 -0.0057427655 -0.004038101 -0.0034867031 -0.0025063707 -6.797947e-05 -0.002163721 -0.0037814758
-8.04e-43 -6.59e-42 -3.712e-42 -2.706e-42 -4.65e-42 -4.13e-42 -1.886e-42 -6.816e-42
-2.919e-42 -2.257e-42 -2.835e-42 -2.728e-42 -3.835e-42 -3.604e-42 -4.502e-42 -2.605e-42
00000000: e387 1b3d d17d bf3d 35dc 283e e8a1 2b3d
00000010: 400f 39bd 4c99 12bd 21b1 c6bc fb14 2ebd
00000020: dbb8 36bd c8e8 03bc 0bca 923d 2729 963d
00000030: 33bd f73c 87c0 3f3c 41bc 49bd 3fff bc3c
00000040: 468d 433d e182 633d 3362 013e 66c6 673d
00000050: f031 923d d40a 98bd b6a8 98be 79a2 c4be
00000060: 7bde 34be 4be7 5a3d 87a6 5c3e 180e 463e
00000070: 23f7 223e 61b9 eb3d f8d5 453e 1402 66bd
00000080: 48e5 42bd 4070 9bbd 7d46 5abd 2c87 4abd
00000090: 7a6a a2bd fefa c0bd 30b4 5ebe 4463 96be
000000a0: 1312 0080 2f10 0080 5a0e 0080 1b13 0080
000000b0: fa06 0080 d906 0080 0c0f 0080 5706 0080
000000c0: 450d 0080 9b0a 0080 8f0a 0080 eb0a 0080
000000d0: 730f 0080 1509 0080 9c0f 0080 b60c 0080
000000e0: 1813 0080 2e13 0080 9611 0080 9c06 0080
000000f0: ec10 0080 c70b 0080 1f0c 0080 e910 0080
00000100: 4509 0080 0f0f 0080 b310 0080 5e05 0080
00000110: 980b 0080 5d0e 0080 4f12 0080 d30e 0080
00000120: b70c 0080 990d 0080 570a 0080 350e 0080
00000130: d210 0080 200a 0080 1210 0080 370a 0080
00000140: 4a03 3bbd dc0a 303d 93a9 ac3c 4cfd d03c
00000150: f3df d03c f7ca 513d ef53 9b3d 6c1c ae3c
00000160: 2b72 143d 1292 4abd fefc 89be 672f 29bf
00000170: 47f1 57bf dc90 84bf b5d3 75bf d6d2 4fbf
00000180: 88d3 29bf 3e78 b8be 17fc 97bd 3411 073e
00000190: c378 643e 1aff 2e3e 11cb 7c3d 8f4d 4b3c
000001a0: 1d0a 183d e9c9 c43d 3be2 963d 3ccb d73a
000001b0: 2cce 893d 200b a73d 5d53 b73c 843a 003b
000001c0: 7e20 babc 5086 4abd 5d89 a43d 3aba 413d
000001d0: 8e76 733d 1892 3b3d 276e 2dbd 31fd 7bbe
000001e0: 1401 0080 6c04 0080 9112 0080 3c11 0080
000001f0: 000f 0080 9e0f 0080 5f0b 0080 6d10 0080
00000200: e00e 0080 d406 0080 7811 0080 860d 0080
00000210: ff0e 0080 6b06 0080 9e11 0080 4904 0080
00000220: 4702 0080 8a11 0080 490e 0080 1000 0000
00000230: f30d 0080 ec0e 0080 e307 0080 ac0b 0080
00000240: eb11 0080 0508 0080 5204 0080 c80b 0080
00000250: 2003 0080 f908 0080 ed0b 0080 b112 0080
00000260: 9004 0080 a60a 0080 b605 0080 4909 0080
00000270: eb0c 0080 9d09 0080 8705 0080 8908 0080
00000280: 353e 153f 7b2c f53e 8a01 263f 09a4 ad3e
00000290: 55f8 eabd d629 29bf eb79 fcbe c391 81bd
000002a0: 1854 7b3d d6dc 4e3e 46d0 373e 5cae e03d
000002b0: eda7 dc3d bf46 db3d 3085 7a3d 0807 b13d
000002c0: ce6b c03d 61e9 ba3d 5522 473d 6cec 8c3c
000002d0: c59f 813d 3eab 703d 7e18 413d cd7d 90bd
000002e0: d706 50bc 2c9e 93bd 80ae 0bbc 85ab 883d
000002f0: dd38 78bb 4356 a73c 74a9 553c bc4f e6bb
00000300: f41a febc a7aa 10bd 7b5a a73d 7191 4d3d
00000310: c4ee 473d 6f46 8a3d ea88 19bd 8456 b3bd
00000320: 23f5 4dbb 7e1c 55ba 650e ccbb bd91 7b3a
00000330: bc55 0dbc c56b ddbb 21e1 fdbb ca1b 13bc
00000340: cbf4 b4bc 80ea 83bc 13f7 49bc d213 02bc
00000350: d8d5 b5b9 849a ebbb 22ac 51ba cea0 013b
00000360: f4ca 48bc 3672 21bc 4c88 b0ba 0c1f 9e3c
00000370: 1cc2 3bba c23f d5bb 53ed 383a e9b6 0d3c
00000380: 7e27 82bc 896f c83b b895 213c ae85 86bc
00000390: e0a5 89bc fac2 363c b587 31bc 2cf6 64bc
000003a0: dddf 2abc cf2d bcbb 0c52 84bb 2c81 64bb
000003b0: ec41 24bb 3390 8eb8 37cd 0dbb a3d2 77bb
000003c0: 3e02 0080 5f12 0080 590a 0080 8b07 0080
000003d0: f60c 0080 830b 0080 4205 0080 0013 0080
000003e0: 2308 0080 4b06 0080 e707 0080 9b07 0080
000003f0: b10a 0080 0c0a 0080 8d0c 0080 4307 0080

tf.bias f4 [128]
0.012463189 -6.014e-42 0.0058257696 -5.157e-42 0.016411409 -0.0030257537 -2.046e-42 0.004879517
0.0087637 0.004172219 0.01119452 0.012234996 -6.729e-42 -4.63e-42 0.03948274 0.04681091
-2.857e-42 -5.738e-42 -3.898e-42 -6.644e-42 -5.399e-42 -1.902e-42 -3.722e-42 -4.776e-42
-5.066e-42 -3.159e-42 -0.010909776 0.012544101 -6.103e-42 -7.006e-42 -0.033249933 -5.265e-42
-5.675e-42 -0.013743256 -0.002085468 -5.178e-42 -1.487e-42 -6.349e-42 -6.02e-42 -6.652e-42
-5.988e-42 -4.051e-42 -4.309e-42 -5.31e-42 -3.442e-42 -6.35e-42 -0.017142817 0.016643763
-0.03166607 -3.678e-42 -3.709e-42 -3.439e-42 -1.557e-42 -0.011276951 0.017148696 0.008455607
-4.982e-42 -4.312e-42 -2.766e-42 -5.965e-42 0.0035435252 -0.0031017696 0.010495528 -1.626e-42
-2.625e-42 -4.282e-42 -4.508e-42 -4.79e-42 -0.019326286 -6.153e-42 -2.284e-42 -2.145e-42
0.009690101 -0.0051274304 0.00498745 -4.804e-42 -4.592e-42 -5.653e-42 -6.537e-42 -4.905e-42
-3.747e-42 0.019390825 -6.435e-42 -6.665e-42 0.040646404 0.01902493 0.00940477 -3.379e-42
0.015754487 0.008257791 0.006413359 -5.475e-42 -6.12e-42 -2.794e-42 -0.008050769 -6.819e-42
-4.913e-42 -3.585e-42 -4.753e-42 -3.025e-42 0.042877357 -2.626e-42 -2.479e-42 0.008395613
0.036635324 0.009528648 -0.015157676 -0.008653646 -6.952e-42 -6.707e-42 -6.635e-42 -1.829e-42
-4.644e-42 0.009834463 0.0048300936 -4.009e-42 -3.307e-42 -5.843e-42 -2.253e-42 0.0066469493
-0.0075703897 -0.00070435676 -4.567e-42 -1.669e-42 -2.11e-42 -3.87e-42 0.012999556 -4.9e-42
00000000: 6732 4c3c c410 0080 19e6 be3b 600e 0080
00000010: 3871 863c b94b 46bb b405 0080 5be4 9f3b
00000020: 9f95 0f3c 1cb7 883b 3869 373c 4b75 483c
00000030: c212 0080 e80c 0080 a7b8 213d ccbc 3f3d
00000040: f707 0080 ff0f 0080 de0a 0080 8512 0080
00000050: 0d0f 0080 4d05 0080 600a 0080 500d 0080
00000060: 1f0e 0080 ce08 0080 ebbe 32bc c685 4d3c
00000070: 0311 0080 8813 0080 1531 08bd ad0e 0080
00000080: d20f 0080 652b 61bc 59ac 08bb 6f0e 0080
00000090: 2504 0080 b311 0080 c810 0080 8b12 0080
000000a0: b110 0080 4b0b 0080 030c 0080 cd0e 0080
000000b0: 9809 0080 b411 0080 186f 8cbc 8058 883c
000000c0: 48b4 01bd 410a 0080 570a 0080 9609 0080
000000d0: 5704 0080 f6c2 38bc 6c7b 8c3c 6389 0a3c
000000e0: e30d 0080 050c 0080 b607 0080 a110 0080
000000f0: 7d3a 683b 0f47 4bbb 6ff5 2b3c 8804 0080
00000100: 5107 0080 f00b 0080 910c 0080 5a0d 0080
00000110: 2952 9ebc 2711 0080 5e06 0080 fb05 0080
00000120: 3bc3 1e3c 0104 a8bb c36d a33b 640d 0080
00000130: cd0c 0080 c20f 0080 3912 0080 ac0d 0080
00000140: 720a 0080 82d9 9e3c f011 0080 9412 0080
00000150: d87c 263d 2cda 9b3c 7716 1a3c 6b09 0080
00000160: 8e0f 813c b04b 073c 2827 d23b 430f 0080
00000170: 0f11 0080 ca07 0080 5fe7 03bc 0213 0080
00000180: b20d 0080 fe09 0080 400d 0080 6f08 0080
00000190: 2ba0 2f3d 5207 0080 e906 0080 c18d 093c
000001a0: ec0e 163d 0c1e 1c3c e757 78bc 06c8 0dbc
000001b0: 6113 0080 b212 0080 7f12 0080 1905 0080
000001c0: f20c 0080 ba20 213c c345 9e3b 2d0b 0080
000001d0: 3809 0080 4a10 0080 4806 0080 a7ce d93b
000001e0: 0811 f8bb 95a4 38ba bb0c 0080 a704 0080
000001f0: e205 0080 ca0a 0080 17fc 543c a90d 0080

gru1.weight_ih_l0 f4 [384, 128]
0.0174712 5.744e-42 -0.005795856 -4.2e-43 0.007456006 -0.0028414524 -0.00031000221 0.055610675
0.075697325 0.025908615 0.05021954 0.012260085 -6.848e-42 1.463e-42 -0.0136665655 0.066276506
-1.097e-42 4.982e-42 -5.216e-42 4.713e-42 8.66e-43 -1.833e-42 -0.00031000393 6.728e-42
2.639e-42 -3.771e-42 -2.202914e-05 0.06788031 5.056e-42 -2.9e-42 -0.0013803609 0.0003100001
-4.134e-42 0.002845602 0.005351184 4.554e-42 -4.707e-42 -4.29e-42 -1.596e-42 0.0003100016
-2.98e-43 7.72e-43 5.273e-42 -3.812e-42 -6.824e-42 2.407e-42 0.00018736414 0.24109131
-0.0019155507 2.514e-42 1.938e-42 -1.532e-42 1.362e-42 -0.010107783 0.02461503 0.0023865232
-3.415e-42 5.658e-42 -0.00030999415 -3.66e-42 0.060130637 -0.0011612797 0.042416144 0.0003100005
-6.12e-43 -0.00030999808 8.18e-43 -3.311e-42 -0.00024122077 -0.0003099944 6.436e-42 -0.00031000588
0.012438044 0.039631274 0.0037114006 5.586e-42 2.646e-42 -4.725e-42 -5.068e-42 5.957e-42
-0.00031000626 0.052466337 -2.985e-42 -3.77e-42 -0.0005103305 0.026499182 -0.008941966 -4.697e-42
0.103043385 0.030552862 0.06375441 -4.62e-42 1.595e-42 0.00030999404 -2.4886416e-11 -0.00031000297
-3.062e-42 3.649e-42 5.304e-42 -1.647e-42 0.007467946 2.314e-42 4.015e-42 0.021783546
0.013111953 -0.00089599536 -0.0055080606 1.4114629e-08 -1.889e-42 4.13e-42 2.929e-42 2.489e-42
-5.457e-42 0.0029078189 0.017984178 -6.18e-43 -6.681e-42 -6.576e-42 -4.153e-42 0.22564681
-6.645e-42 3.7287286e-05 4.951e-42 -0.0003099951 -1.633e-42 -2.52e-42 -0.003126642 -2.361e-42
0.033498183 1.064e-42 -0.0019629246 -5.325e-42 -0.015070402 8.8749344e-05 -0.00031000638 0.016366478
0.015717164 0.0043003066 -0.01493736 -0.003198674 3.28e-42 -3.796e-42 -0.001776962 0.008649392
3.181e-42 -0.00030999398 0.00030999762 -0.00030999578 -1.75e-43 -5.787e-42 -0.00031000195 -0.00030999933
3.168e-42 3.848e-42 -1.578306e-05 0.023826541 6.764e-42 0.00031000204 -1.3190147e-05 -0.00030999773
4.247e-42 0.0011731663 0.00043275222 -2.138e-42 0.00031000355 0.00031000355 3.084e-42 -6.802e-42
0.0003100063 -2.108e-42 -6.157e-42 -0.00031000603 0.00030999404 6e-43 -8.092001e-05 -0.018542478
-0.0011794929 -0.00031000347 2.814e-42 -0.00031000428 1.666e-42 -0.0015555394 0.0043768734 0.00066745025
-2.392e-42 -1.04e-42 0.00030999773 6.42e-43 -0.016459135 -2.023863e-05 -0.003621188 -0.00031000463
2.83e-42 0.0003100058 5.43e-42 -1.75e-43 -0.0001848172 -0.00031000428 -0.00031000204 -0.00030999453
0.007243465 0.02031409 0.02244591 2.463e-42 -3.778e-42 1.44e-43 -3.42e-43 -1.906e-42
0.0003100051 -0.003089528 6.163e-42 4.571e-42 0.0094208345 -0.0014513704 0.017052567 -2.8e-44
0.03247408 0.0024744696 -0.0059182537 2.64e-42 0.00030999657 -0.00031000355 -5.281165e-07 -0.00031000254
-1.736e-42 4.652e-42 -0.00030999523 4.74e-42 0.024665847 0.0003100063 -3.589e-42 0.009984609
-0.015313115 0.015292821 -0.00035989986 1.2106859e-08 3.19e-42 -1.476e-42 -0.0003099954 4.572e-42
0.00030999412 0.007866717 -0.008482272 -4.352e-42 6.756e-42 2.14e-43 6.041e-42 0.07573318
4.12e-42 -0.00036651912 -5.91e-42 0.00030999727 2.738e-42 -0.00030999625 0.006303945 -1.048e-42
00000000: c31f 8f3c 0310 0000 2aeb bdbb 2c01 0080
00000010: 8351 f43b a937 3abb cb87 a2b9 05c8 633d
00000020: 3307 9b3d 4e3e d43c 01b3 4d3d 86de 483c
00000030: 1713 0080 1404 0000 bbe9 5fbc fabb 873d
00000040: 0f03 0080 e30d 0000 8a0e 0080 230d 0000
00000050: 6a02 0000 1c05 0080 0688 a2b9 c112 0000
00000060: 5b07 0000 830a 0080 38cb b8b7 d504 8b3d
00000070: 180e 0000 1608 0080 3aed b4ba 8287 a239
00000080: 860b 0080 487d 3a3b fc58 af3b b20c 0000
00000090: 1f0d 0080 f50b 0080 7304 0080 b687 a239
000000a0: d500 0080 2702 0000 b30e 0000 a00a 0080
000000b0: 0613 0080 b606 0000 2e77 4439 a4e0 763e
000000c0: 3713 fbba 0207 0000 6705 0000 4504 0080
000000d0: cc03 0000 1d9b 25bc 76a5 c93c 3767 1c3b
000000e0: 8509 0080 c60f 0000 b686 a2b9 340a 0080
000000f0: 8b4b 763d 1536 98ba 8dbc 2d3d 9087 a239
00000100: b501 0080 3d87 a2b9 4802 0000 3b09 0080
00000110: 35f0 7cb9 be86 a2b9 f111 0000 4988 a2b9
00000120: f0c8 4b3c 6754 223d f83a 733b 920f 0000
00000130: 6007 0000 2c0d 0080 210e 0080 9b10 0000
00000140: 5688 a2b9 f1e6 563d 5208 0080 820a 0080
00000150: b3c7 05ba d014 d93c 5381 12bc 180d 0080
00000160: 6908 d33d ff49 fa3c ac91 823d e10c 0080
00000170: 7204 0000 b286 a239 3ae7 daad e587 a2b9
00000180: 8908 0080 2c0a 0000 c90e 0000 9704 0080
00000190: acb5 f43b 7306 0000 310b 0000 6873 b23c
000001a0: 84d3 563c 3be1 6aba f67c b4bb cb7c 7232
000001b0: 4405 0080 830b 0000 2a08 0000 f006 0000
000001c0: 360f 0080 1b91 3e3b 8e53 933c b901 0080
000001d0: a012 0080 5512 0080 940b 0080 f50f 673e
000001e0: 8612 0080 eb64 1c38 cd0d 0000 d786 a2b9
000001f0: 8d04 0080 0607 0080 59e8 4cbb 9506 0080
00000200: 6435 093d f702 0000 69a4 00bb d80e 0080
00000210: d9e9 76bc f11e ba38 5a88 a2b9 fe12 863c
00000220: 48c1 803c 96e9 8c3b d4bb 74bc d8a0 51bb
00000230: 2509 0000 950a 0080 f3e8 e8ba 2eb6 0d3c
00000240: de08 0000 b086 a2b9 2d87 a239 ee86 a2b9
00000250: 7d00 0080 2210 0080 c287 a2b9 6887 a2b9
00000260: d508 0000 ba0a 0000 dd65 84b7 e12f c33c
00000270: db12 0000 c587 a239 404b 5db7 3187 a2b9
00000280: d70b 0000 eec4 993a 05e3 e239 f605 0080
00000290: f987 a239 f987 a239 9908 0000 f612 0080
000002a0: 5788 a239 e005 0080 2a11 0080 4e88 a2b9
000002b0: b286 a239 ac01 0000 99b3 a9b8 65e6 97bc
000002c0: 3799 9aba f687 a2b9 d807 0000 1288 a2b9
000002d0: a504 0000 3ee3 cbba e06b 8f3b d4f7 2e3a
000002e0: ab06 0080 e602 0080 3187 a239 ca01 0000
000002f0: 4fd5 86bc 21c6 a9b7 7451 6dbb 1e88 a2b9
00000300: e407 0000 4688 a239 230f 0000 7d00 0080
00000310: 7dcb 41b9 1288 a2b9 c587 a2b9 c386 a2b9
00000320: 975a ed3b bc69 a63c 7ce0 b73c de06 0000
00000330: 880a 0080 6700 0000 f400 0080 5005 0080
00000340: 2e88 a239 ae79 4abb 2e11 0000 be0c 0000
00000350: d859 1a3c e93b beba d3b1 8b3c 1400 0080
00000360: 8a03 053d b62a 223b e9ed c1bb 5c07 0000
00000370: 0987 a239 f987 a2b9 e4c3 0db5 d687 a2b9
00000380: d704 0080 f80c 0000 db86 a2b9 370d 0000
00000390: 0810 ca3c 5788 a239 010a 0080 7c96 233c
000003a0: dce3 7abc be8e 7a3c f1b0 bcb9 87fe 4f32
000003b0: e408 0000 1d04 0080 e186 a2b9 bf0c 0000
000003c0: b586 a239 67e3 003c 3af9 0abc 220c 0080
000003d0: d512 0000 9900 0000 d710 0000 ff19 9b3d
000003e0: 7c0b 0000 5d29 c0b9 7a10 0080 2187 a239
000003f0: a207 0000 fe86 a2b9 5391 ce3b ec02 0080

gru1.weight_hh_l0 f4 [384, 128]
0.057767086 0.15290001 -0.13953263 0.07772782 0.014756085 -0.077717334 0.0036304286 0.009639207
-0.018690044 0.13957995 -0.013708637 0.0135727925 0.13941176 0.0593645 0.102036014 0.16316092
-0.13904655 -0.1778067 0.009301542 -0.09660983 -0.018040748 0.028704321 -0.18990684 0.012923092
-0.13968688 -0.066450626 0.045875236 -0.017747996 0.13952549 -0.018130891 -0.14894995 0.0027821548
0.15102981 -0.013516837 -0.038732965 0.13625856 0.18628657 -0.07584672 -0.017852886 -0.082107164
0.055249345 -0.144018 -0.012236461 0.13923237 -0.076510094 -0.069444425 0.18529123 -0.023167878
-0.13925019 0.053154547 -0.08186631 -0.083073735 -0.1394128 -0.15082434 -0.07575163 -0.0023231264
0.004846074 -0.13953896 0.034325235 -0.05727391 0.07637451 0.005457688 0.15651144 0.050633855
0.13899995 0.06881558 -0.08217135 0.13930729 0.0017088386 0.0078049554 0.014572784 -0.0046675163
0.15698625 0.13940468 -0.008797005 0.004462804 0.1699876 0.0044897324 0.012298298 -0.004273324
0.015108922 -0.06460564 0.054853283 -0.12725173 0.00020611526 -0.008241436 -0.20085661 0.0025132722
0.05528272 -0.000849687 0.16589661 0.0054488676 -0.033073984 -0.13936797 -0.032504056 0.020571865
0.13954279 0.15583734 0.03309758 0.047176145 -0.00656779 0.0040414953 -0.06061018 0.15455404
-0.010389412 -0.0088732615 -0.1527365 0.07453636 -0.026218629 -0.05444149 0.0058064265 0.095046096
0.13965136 -0.07356577 0.06640574 -0.10169676 0.059675686 -0.0008796301 0.2144354 0.009691267
-0.0013875196 -0.13971178 -0.0071798745 -0.14306717 -0.021773564 0.10029048 0.0023749948 -0.027552748
0.008394851 -0.0500311 -0.03152132 0.03651419 0.24559878 -0.025295544 0.012804526 0.0020051957
-0.030498413 0.03153947 0.038528614 0.09045669 0.03154497 0.012030972 -0.1856504 -0.07106108
-0.017383017 0.21838805 -0.032710977 0.010631929 -0.041848257 0.0055328743 -0.046781525 -0.014415075
-0.020714737 -0.015281733 0.0615883 -0.016221955 0.031972602 0.016134 0.02826434 -0.024642682
-0.0011842179 0.14116877 0.10819743 0.010865092 0.024251614 0.048235927 0.00087287225 -0.027899295
0.10227108 -0.07315121 -0.0042021014 0.030507494 0.19206089 -0.08246974 -0.005570546 0.10397143
-0.018793067 -0.017988613 0.022810332 -0.03245108 -0.030969648 -0.0012989998 -0.0051061907 -0.033820283
0.008508607 -0.03210148 0.024363628 -0.00557856 0.22726764 -0.020764943 0.025481073 0.030072337
0.028409291 0.024822807 -0.054423336 0.029995821 -0.0035262234 -0.00091673504 -0.003577526 -0.17908682
0.088552 0.029922476 -0.09234872 0.0008431723 0.1460446 -0.03417328 -0.0065715252 -0.0019358571
0.007125054 -0.007717571 -0.003223284 0.24785864 0.0076097916 0.009555979 -0.4797196 -0.002869857
-0.025433676 -0.02726979 -0.035020906 0.010884339 -0.024661452 -0.032128543 -0.071170546 0.0129669495
0.03201766 0.053553812 -0.021495478 0.005990803 -0.16888425 -0.008957664 -0.044811334 0.07540436
0.009182327 -3.34674e-05 -0.31815296 0.01004198 -0.11293 0.006099236 -0.0071352366 -0.11057526
0.033288 -0.08576907 -0.06794879 -0.031652745 0.039610542 0.036898915 -0.043246854 -0.002914798
-0.018108413 -0.03227793 -0.4309404 -0.04334525 -0.54380244 -0.0316232 -0.014166236 -0.025491117
00000000: 2e9d 6c3d d291 1c3e a4e1 0ebe c32f 9f3d
00000010: 82c3 713c 442a 9fbd 7cec 6d3b c4ed 1d3c
00000020: dd1b 99bc 0cee 0e3e 319a 60bc 6b60 5e3c
00000030: f5c1 0e3e 3128 733d 42f8 d03d a813 273e
00000040: 3862 0ebe f612 36be 7f65 183c 60db c5bd
00000050: 31ca 93bc 5325 eb3c f076 42be 60bb 533c
00000060: 140a 0fbe 4417 88bd ace7 3b3d 3f64 91bc
00000070: c5df 0e3e 3c87 94bc 5686 18be d054 363b
00000080: 8fa7 1a3e b975 5dbc 75a6 1ebd 5d87 0b3e
00000090: e8c1 3e3e 8655 9bbd 3740 92bc cd27 a8bd
000000a0: 234d 623d 7479 13be 707b 48bc ee92 0e3e
000000b0: 53b1 9cbd e138 8ebd fcbc 3d3e 90ca bdbc
000000c0: 9a97 0ebe 95b8 593d 86a9 a7bd 9022 aabd
000000d0: 3bc2 0ebe b271 1abe ac23 9bbd 983f 18bb
000000e0: d1cb 9e3b 4de3 0ebe 9e98 0c3d 0c98 6abd
000000f0: 3d6a 9c3d 68d6 b23b 8944 203e 7265 4f3d
00000100: 0156 0e3e 2fef 8c3d 7449 a8bd 92a6 0e3e
00000110: 1cfb df3a b6c0 ff3b b0c2 6e3c f7f1 98bb
00000120: 01c1 203e 1ac0 0e3e 5021 10bc b73c 923b
00000130: 3b11 2e3e 9b1e 933b cd7e 493c 3d07 8cbb
00000140: 698b 773c f64f 84bd d6ad 603d 474e 02be
00000150: a520 5839 1707 07bc 5bad 4dbe b6b5 243b
00000160: 2270 623d 88bd 5eba cde0 293e 6a8c b23b
00000170: 9678 07bd 7ab6 0ebe f922 05bd 5486 a83c
00000180: 4ee4 0e3e d393 1f3e 5491 073d c63b 413d
00000190: 9e36 d7bb 856e 843b 6142 78bd 6a43 1e3e
000001a0: 5a38 2abc 2861 11bc f566 1cbe 85a6 983d
000001b0: 73c8 d6bc 0afe 5ebd d643 be3b 87a7 c23d
000001c0: c400 0f3e a7a9 96bd bcff 873d 6446 d0bd
000001d0: 7e6e 743d fa96 66ba f494 5b3e 1fc8 1e3c
000001e0: 6fdd b5ba 9b10 0fbe 2745 ebbb 3380 12be
000001f0: 795e b2bc 1865 cd3d cda5 1b3b 4db6 e1bc
00000200: 8f8a 093c 69ed 4cbd 801c 01bd e78f 153d
00000210: 3f7e 7b3e 9a38 cfbc 13ca 513c 9a69 033b
00000220: cfd7 f9bc 882f 013d 2ed0 1d3d 5b41 b93d
00000230: 4c35 013d 8e1d 453c 231b 3ebe 7988 91bd
00000240: d466 8ebc 1ea1 5f3e f2fb 05bd 8b31 2e3c
00000250: 1469 2bbd 1d4d b53b fc9d 3fbd 352d 6cbc
00000260: f4b1 a9bc 3c60 7abc 0344 7c3d e8e3 84bc
00000270: b4f5 023d 732b 843c 9e8a e73c 73df c9bc
00000280: c237 9bba 8c8e 103e 9d96 dd3d 8003 323c
00000290: 52ab c63c 0993 453d 77d1 643a 108d e4bc
000002a0: 8073 d13d 4dd0 95bd c8b1 89bb daea f93c
000002b0: 9cab 443e e5e5 a8bd 2089 b6bb f9ee d43d
000002c0: ebf3 99bc db5c 93bc bcdc ba3c 6ceb 04bd
000002d0: 0fb4 fdbc 3343 aaba d551 a7bb 2387 0abd
000002e0: af67 0b3c d77c 03bd 3b96 c73c 5acc b6bb
000002f0: d9b8 683e 3e1b aabc afbd d03c 435a f63c
00000300: 9aba e83c 3359 cb3c 01eb 5ebd ccb9 f53c
00000310: 3618 67bb 0c51 70ba ed74 6abb 8962 37be
00000320: c05a b53d fb1f f53c 5321 bdbd 5608 5d3a
00000330: b78c 153e 48f9 0bbd f355 d7bb 96bc fdba
00000340: 4979 e93b aee3 fcbb bb3d 53bb a8ce 7d3e
00000350: 8f5b f93b ae90 1c3c cf9d f5be 3614 3cbb
00000360: 495a d0bc e564 dfbc 1572 0fbd 3a54 323c
00000370: d006 cabc 3899 03bd ddc1 91bd 5473 543c
00000380: f324 033d 3e5b 5b3d 4917 b0bc 7f4e c43b
00000390: feef 2cbe 2ac3 12bc 178c 37bd 9a6d 9a3d
000003a0: 7971 163c 595f 0cb8 f2e4 a2be 1e87 243c
000003b0: d847 e7bd 1adc c73b b4ce e9bb 4875 e2bd
000003c0: ff58 083d b2a7 afbd bc28 8bbd 4fa6 01bd
000003d0: aa3e 223d 5123 173d 9d23 31bd 3206 3fbb
000003e0: 1858 94bc dd35 04bd 38a4 dcbe ca8a 31bd
000003f0: a336 0bbf 5487 01bd 8019 68bc bfd2 d0bc

gru1.bias_ih_l0 f4 [384]
-0.16357565 -0.050288144 0.080265984 -0.232325 -0.024510464 0.024037598 -0.057788018 -0.046335895
-0.04021502 0.0798721 0.107896626 0.021628842 0.07953812 -0.041694384 0.09805655 0.030433014
0.06783505 0.061581228 -0.033345178 -0.23093387 0.071849234 -0.060309775 0.07638737 -0.04418197
0.07065969 0.08531548 0.13481794 0.011968186 0.078636035 0.119217835 0.05468976 0.109851494
0.054261845 -0.00803779 0.11148469 0.04606005 -0.222376 0.09144135 -0.057989266 0.040183347
-0.003728665 0.08533465 -0.05401521 0.07848843 0.059856772 -0.0068142586 -0.36415848 0.13572477
0.0688888 0.08802484 -0.097208545 0.034199666 0.07795309 0.06818292 -0.046328 -0.18257982
-0.046990562 0.07837913 0.0972722 -0.03406781 0.05864816 0.10876667 -0.21963802 -0.16637713
0.07549632 0.052919388 0.04009227 0.07661965 -0.047848478 -0.22230983 -0.06844939 0.117741756
0.058094326 0.07567109 0.05876456 -0.05665286 0.1462985 -0.16840488 -0.056964282 -0.05374571
-0.05131119 0.115223564 0.02712185 0.07802452 -0.044389386 -0.048469342 -0.15329903 -0.049122933
-0.07371762 -0.06540834 0.08294268 -0.06783171 -0.0429682 0.07757123 0.113922775 -0.17269188
0.079754956 0.033230297 -0.03577647 -0.081106514 0.07497647 -0.044622187 -0.10545323 0.043525305
0.053156417 -0.07287652 0.14583012 0.14842324 0.11908195 -0.07712696 -0.050328597 0.021781888
0.08161556 0.1503179 0.09928773 -0.21920931 0.052256305 -0.027912818 -0.3642171 -0.07216053
-0.06503454 0.08054251 0.05926757 -0.03158305 0.11880238 0.046058163 -0.049093753 -0.06469361
-0.116524786 0.0943341 -0.0171335 -0.12797059 -0.088351674 -0.013469175 0.0014627413 0.010000057
-0.013023935 -0.011808595 0.14149468 0.081210725 -0.014469811 -0.011487973 -0.014334598 -0.20814808
0.009079034 -0.11009618 -0.025749128 -0.08834729 -0.12635241 0.009959953 -0.0049355007 0.0070038694
0.020571856 0.1474307 -0.13695402 -0.01989892 -0.013361501 -0.11256628 0.11413018 -0.10618965
0.080860406 -0.10816948 -0.14369051 0.0103074405 -0.12698545 -0.11130225 0.0039682207 -0.1582528
-0.11770139 0.009953015 -0.00092577684 -0.011965041 -0.015293983 -0.10573666 -0.1521142 -0.1330968
0.010037939 0.1817325 -0.0005953014 -0.034027126 -0.010126906 0.06382115 0.014889525 -0.11162349
0.0052812654 -0.010592679 -0.10629347 0.002041492 -0.07485137 0.12777458 -0.100279115 -0.074992284
-0.005964042 -0.19285028 -0.12168624 -0.008646815 0.00087624317 -0.094606385 -0.00082510815 0.16435461
0.076631054 -0.005435457 -0.11705641 -0.0027129953 -0.15323342 -0.08977157 0.012484103 0.008457005
0.005465347 0.19857872 0.077320635 0.17622173 0.0058461432 -0.001712467 -0.09476445 0.0068644877
0.06388064 0.011404107 0.15060255 -0.0028789465 -0.010992387 -0.012544425 -0.1174573 -0.069033355
-0.014104315 -0.15213144 -0.02441472 0.022380278 -0.089155 0.009481369 -0.08360836 0.041453402
-0.11842375 -0.021234669 0.18091832 -0.050266165 -0.11712991 0.00878496 0.009309457 -0.10999287
-0.018224329 -0.13617934 0.03314979 -0.14678824 -0.15675509 -0.017477604 -0.13135707 -0.0051423395
-0.004371846 -0.016472781 -0.057691004 0.047364928 -0.12852846 0.1193067 0.005656373 -0.0048747575
00000000: 6080 27be f1fa 4dbd 7e62 a43d 9be6 6dbe
00000010: 2bca c8bc 7fea c43c 21b3 6cbd b5ca 3dbd
00000020: 81b8 24bd fc93 a33d e8f8 dc3d f82e b13c
00000030: e2e4 a23d bbc7 2abd dfd1 c83d a84e f93c
00000040: 1aed 8a3d 993c 7c3d f494 08bd ee79 6cbe
00000050: b125 933d 6207 77bd fb70 9c3d 27f8 34bd
00000060: 07b6 903d e2b9 ae3d b70d 0a3e 3616 443c
00000070: ee0b a13d 7b28 f43d 5f02 603d d2f9 e03d
00000080: ab41 5e3d efb0 03bc 1652 e43d 77a9 3c3d
00000090: 89b6 63be 9a45 bb3d 2786 6dbd 4b97 243d
000000a0: 9e5c 74bb efc3 ae3d 0e3f 5dbd 8bbe a03d
000000b0: 602c 753d 254a dfbb fb72 babe 6ffb 0a3e
000000c0: 9215 8d3d 5e46 b43d 4615 c7bd f314 0c3d
000000d0: dfa5 9f3d 7da3 8b3d 6ec2 3dbd 34f6 3abe
000000e0: 2d79 40bd 3d85 a03d a636 c73d b08a 0bbd
000000f0: 0e39 703d 0fc1 de3d cae8 60be c45e 2abe
00000100: d19d 9a3d 00c2 583d cb37 243d c3ea 9c3d
00000110: c4fc 43bd 30a5 63be 322f 8cbd 9722 f13d
00000120: 51f4 6d3d 72f9 9a3d 1bb3 703d d40c 68bd
00000130: 46cf 153e 5472 2cbe 6153 69bd 7624 5cbd
00000140: af2b 52bd 55fa eb3d a42e de3c 52cb 9f3d
00000150: a5d1 35bd ca87 46bd 6cfa 1cbe 2135 49bd
00000160: 43f9 96bd cff4 85bd dadd a93d 5aeb 8abd
00000170: 6cff 2fbd aadd 9e3d 5850 e93d 24d6 30be
00000180: 9156 a33d 7e1c 083d 598a 12bd 2c1b a6bd
00000190: 438d 993d c1c5 36bd ddf7 d7bd 9747 323d
000001a0: 8bba 593d 4940 95bd 7e54 153e 43fc 173e
000001b0: 3de1 f33d bdf4 9dbd 5c25 4ebd ee6f b23c
000001c0: 0f26 a73d f0ec 193e 5e57 cb3d 6878 60be
000001d0: b50a 563d 6ca9 e4bc aa7a babe e6c8 93bd
000001e0: d430 85bd 79f3 a43d 8dc2 723d 3a5d 01bd
000001f0: aa4e f33d 7ca7 3c3d 8816 49bd 157e 84bd
00000200: 8ca4 eebd 3d32 c13d 8e5b 8cbc b90a 03be
00000210: b9f1 b4bd d1ad 5cbc 74b9 bf3a 47d7 233c
00000220: 5862 55bc d678 41bc fbe3 103e cf51 a63d
00000230: c912 6dbc 0d38 3cbc a9db 6abc c524 55be
00000240: 3bc0 143c 1b7a e1bd d6ef d2bc 6def b4bd
00000250: 8762 01be 122f 233c fbb9 a1bb b780 e53b
00000260: 4f86 a83c 13f8 163e ad3d 0cbe 0f03 a3bc
00000270: 32ea 5abc 2689 e6bd 15bd e93d f679 d9bd
00000280: 249a a53d f687 ddbd 9b23 13be 8ae0 283c
00000290: 7908 02be 6ff2 e3bd d907 823b 060d 22be
000002a0: 6d0d f1bd f811 233c d5af 72ba 0509 44bc
000002b0: 9d93 7abc 768c d8bd d3c3 1bbe 874a 08be
000002c0: 2b76 243c 1618 3a3e 000e 1cba 0760 0bbd
000002d0: 53eb 25bc aab4 823d 32f3 733c db9a e4bd
000002e0: 770e ad3b ea8c 2dbc 64b0 d9bd 8dca 053b
000002f0: ad4b 99bd 57d7 023e 235f cdbd 8e95 99bd
00000300: 036e c3bb 8b7a 45be a336 f9bd 5fab 0dbc
00000310: afb3 653a fec0 c1bd 124c 58ba 934c 283e
00000320: bef0 9c3d eb1b b2bb 45bb efbd 82cc 31bb
00000330: 39e9 1cbe 28da b7bd 208a 4c3c 408f 0a3c
00000340: a716 b33b 3858 4b3e 485a 9e3d 7873 343e
00000350: 0191 bf3b dc74 e0ba dd13 c2bd 7fef e03b
00000360: dad3 823d 4bd8 3a3c 8e37 1a3e b5ac 3cbb
00000370: 6a19 34bc 2287 4dbc 748d f0bd 5c61 8dbd
00000380: c915 67bc 58c8 1bbe 6101 c8bc d856 b73c
00000390: e696 b6bd be57 1b3c dc3a abbd 0bcb 293d
000003a0: 2788 f2bd 54f4 adbc a742 393e e5e3 4dbd
000003b0: cee1 efbd cbee 0f3c b186 183c f143 e1bd
000003c0: 304b 95bc 9972 0bbe 13c8 073d a84f 16be
000003d0: 6884 20be 312d 8fbc 7882 06be 1281 a8bb
000003e0: b441 8fbb edf1 86bc 674d 6cbd ba01 423d
000003f0: f79c 03be 1257 f43d 1959 b93b 6ebc 9fbb

gru1.bias_hh_l0 f4 [384]
-0.16357504 -0.050287094 0.080265984 -0.232325 -0.024511678 0.024037598 -0.057788018 -0.046335895
-0.04021502 0.0798721 0.107896626 0.021628842 0.07953812 -0.041695118 0.09805655 0.029878153
0.06783505 0.061581228 -0.033345178 -0.23093387 0.071849234 -0.060309775 0.07638737 -0.04418197
0.07065969 0.08531548 0.13481794 0.011968186 0.078636035 0.119217835 0.05468976 0.109851494
0.054261845 -0.00803779 0.11148469 0.04606005 -0.22242257 0.09144135 -0.057989266 0.040186837
-0.0038506964 0.08533465 -0.05401521 0.07848843 0.059856772 -0.0068088607 -0.36415848 0.13572477
0.0688888 0.08802484 -0.097208545 0.034199666 0.07795309 0.06818292 -0.046328027 -0.18257912
-0.046990562 0.07837913 0.0972722 -0.03406781 0.05864816 0.10876667 -0.21963802 -0.16637713
0.07549632 0.05288307 0.04009227 0.07661965 -0.047848478 -0.22230983 -0.06844939 0.11774173
0.058094326 0.07567109 0.058763422 -0.05665286 0.1462985 -0.16840488 -0.056964282 -0.05374571
-0.05131119 0.11522349 0.02712185 0.07802452 -0.044389386 -0.048469342 -0.15328555 -0.049122933
-0.07371762 -0.06540834 0.08294268 -0.06783171 -0.0429682 0.07757123 0.113922775 -0.17269188
0.079754956 0.033255193 -0.03577647 -0.081106514 0.07497647 -0.044622187 -0.10782013 0.043525305
0.053144842 -0.07287652 0.14583012 0.14842324 0.11908195 -0.07712696 -0.050328597 0.021696493
0.08161556 0.1503179 0.09928773 -0.21917492 0.052245215 -0.027912818 -0.3642171 -0.07216053
-0.06503454 0.08054251 0.05926757 -0.03158305 0.11880238 0.046058163 -0.049093753 -0.06469361
-0.116524786 0.094323866 -0.0171335 -0.12797059 -0.088351674 -0.013469175 0.0014627413 0.010000057
-0.013023935 -0.011808595 0.14104693 0.081210695 -0.014469811 -0.011487973 -0.014332461 -0.20814808
0.009079034 -0.11009618 -0.025749128 -0.08834729 -0.12635241 0.009959953 -0.0049355007 0.0070038694
0.020571856 0.14743444 -0.13695402 -0.01989892 -0.013361501 -0.11256628 0.11394469 -0.10618965
0.080860406 -0.10816948 -0.14369051 0.0103074405 -0.12698545 -0.11130225 0.0039682207 -0.1582528
-0.11770139 0.009953493 -0.00092577684 -0.011965041 -0.015293983 -0.10573666 -0.1521142 -0.1330968
0.010037939 0.18027641 -0.0005953014 -0.034027126 -0.010126906 0.06382115 0.014889525 -0.11162349
0.0052812654 -0.010592679 -0.10629347 0.002041492 -0.07485137 0.12782846 -0.100279115 -0.074992284
-0.005964042 -0.19285028 -0.12168624 -0.008646815 0.00087624317 -0.094606385 -0.00082510815 0.16446505
0.07662849 -0.005435457 -0.11705641 -0.0027129953 -0.15323342 -0.08977157 0.012484103 0.008457005
0.005465347 0.19721524 0.07732099 0.17622265 0.0058461432 -0.001712467 -0.09476445 0.0068644877
0.06389218 0.011404107 0.14832146 -0.0028789465 -0.010992387 -0.012544425 -0.1174573 -0.069033355
-0.014104315 -0.15213144 -0.02441472 0.022380278 -0.089155 0.009481369 -0.08360836 0.041453473
-0.11842375 -0.021234669 0.18107687 -0.05032596 -0.11712991 0.00878496 0.009309457 -0.10999287
-0.018224329 -0.13617934 0.033149723 -0.14678824 -0.15675509 -0.017477604 -0.13135707 -0.0051423395
-0.004371846 -0.016472781 -0.057691004 0.047365 -0.12852846 0.11930679 0.005656373 -0.0048747575
00000000: 3780 27be d7f9 4dbd 7e62 a43d 9be6 6dbe
00000010: b7cc c8bc 7fea c43c 21b3 6cbd b5ca 3dbd
00000020: 81b8 24bd fc93 a33d e8f8 dc3d f82e b13c
00000030: e2e4 a23d 80c8 2abd dfd1 c83d 07c3 f43c
00000040: 1aed 8a3d 993c 7c3d f494 08bd ee79 6cbe
00000050: b125 933d 6207 77bd fb70 9c3d 27f8 34bd
00000060: 07b6 903d e2b9 ae3d b70d 0a3e 3616 443c
00000070: ee0b a13d 7b28 f43d 5f02 603d d2f9 e03d
00000080: ab41 5e3d efb0 03bc 1652 e43d 77a9 3c3d
00000090: bec2 63be 9a45 bb3d 2786 6dbd f49a 243d
000000a0: f75b 7cbb efc3 ae3d 0e3f 5dbd 8bbe a03d
000000b0: 602c 753d dd1c dfbb fb72 babe 6ffb 0a3e
000000c0: 9215 8d3d 5e46 b43d 4615 c7bd f314 0c3d
000000d0: dfa5 9f3d 7da3 8b3d 75c2 3dbd 05f6 3abe
000000e0: 2d79 40bd 3d85 a03d a636 c73d b08a 0bbd
000000f0: 0e39 703d 0fc1 de3d cae8 60be c45e 2abe
00000100: d19d 9a3d eb9b 583d cb37 243d c3ea 9c3d
00000110: c4fc 43bd 30a5 63be 322f 8cbd 9322 f13d
00000120: 51f4 6d3d 72f9 9a3d eab1 703d d40c 68bd
00000130: 46cf 153e 5472 2cbe 6153 69bd 7624 5cbd
00000140: af2b 52bd 4bfa eb3d a42e de3c 52cb 9f3d
00000150: a5d1 35bd ca87 46bd e3f6 1cbe 2135 49bd
00000160: 43f9 96bd cff4 85bd dadd a93d 5aeb 8abd
00000170: 6cff 2fbd aadd 9e3d 5850 e93d 24d6 30be
00000180: 9156 a33d 9936 083d 598a 12bd 2c1b a6bd
00000190: 438d 993d c1c5 36bd cdd0 dcbd 9747 323d
000001a0: 68ae 593d 4940 95bd 7e54 153e 43fc 173e
000001b0: 3de1 f33d bdf4 9dbd 5c25 4ebd d8bc b13c
000001c0: 0f26 a73d f0ec 193e 5e57 cb3d 646f 60be
000001d0: 14ff 553d 6ca9 e4bc aa7a babe e6c8 93bd
000001e0: d430 85bd 79f3 a43d 8dc2 723d 3a5d 01bd
000001f0: aa4e f33d 7ca7 3c3d 8816 49bd 157e 84bd
00000200: 8ca4 eebd df2c c13d 8e5b 8cbc b90a 03be
00000210: b9f1 b4bd d1ad 5cbc 74b9 bf3a 47d7 233c
00000220: 5862 55bc d678 41bc 9b6e 103e cb51 a63d
00000230: c912 6dbc 0d38 3cbc b3d2 6abc c524 55be
00000240: 3bc0 143c 1b7a e1bd d6ef d2bc 6def b4bd
00000250: 8762 01be 122f 233c fbb9 a1bb b780 e53b
00000260: 4f86 a83c 0ef9 163e ad3d 0cbe 0f03 a3bc
00000270: 32ea 5abc 2689 e6bd d55b e93d f679 d9bd
00000280: 249a a53d f687 ddbd 9b23 13be 8ae0 283c
00000290: 7908 02be 6ff2 e3bd d907 823b 060d 22be
000002a0: 6d0d f1bd fa13 233c d5af 72ba 0509 44bc
000002b0: 9d93 7abc 768c d8bd d3c3 1bbe 874a 08be
000002c0: 2b76 243c 619a 383e 000e 1cba 0760 0bbd
000002d0: 53eb 25bc aab4 823d 32f3 733c db9a e4bd
000002e0: 770e ad3b ea8c 2dbc 64b0 d9bd 8dca 053b
000002f0: ad4b 99bd 77e5 023e 235f cdbd 8e95 99bd
00000300: 036e c3bb 8b7a 45be a336 f9bd 5fab 0dbc
00000310: afb3 653a fec0 c1bd 124c 58ba 8769 283e
00000320: 66ef 9c3d eb1b b2bb 45bb efbd 82cc 31bb
00000330: 39e9 1cbe 28da b7bd 208a 4c3c 408f 0a3c
00000340: a716 b33b cbf2 493e 785a 9e3d b673 343e
00000350: 0191 bf3b dc74 e0ba dd13 c2bd 7fef e03b
00000360: e7d9 823d 4bd8 3a3c 95e1 173e b5ac 3cbb
00000370: 6a19 34bc 2287 4dbc 748d f0bd 5c61 8dbd
00000380: c915 67bc 58c8 1bbe 6101 c8bc d856 b73c
00000390: e696 b6bd be57 1b3c dc3a abbd 1ecb 293d
000003a0: 2788 f2bd 54f4 adbc 376c 393e 9822 4ebd
000003b0: cee1 efbd cbee 0f3c b186 183c f143 e1bd
000003c0: 304b 95bc 9972 0bbe 01c8 073d a84f 16be
000003d0: 6884 20be 312d 8fbc 7882 06be 1281 a8bb
000003e0: b441 8fbb edf1 86bc 674d 6cbd cd01 423d
000003f0: f79c 03be 1e57 f43d 1959 b93b 6ebc 9fbb

gru2.weight_ih_l0 f4 [384, 128]
0.0031227055 -0.0011011518 0.044736233 0.002917486 -0.0007752142 0.00028655023 -0.000870138 -0.0002944965
-0.003307478 -0.044724286 0.0069454224 0.0062978864 -0.044753864 0.004665436 -0.0090177255 0.011659798
0.04171127 0.03038818 -0.0011032987 -0.0042063375 -0.018790703 0.003468081 0.036429413 -0.00027504482
0.04279774 -0.0017713389 -0.00042109756 -0.008880638 -0.04506012 -0.017082717 0.031149691 -0.0057557835
-0.04134648 0.01927114 -0.0004520718 -0.03512882 0.004778019 0.0007512719 -0.00040849712 0.0039902604
0.0037412145 0.022811562 0.00023139792 -0.04453367 0.0027368057 0.01052639 0.0056806 0.008024758
0.04202173 0.004032785 -0.001506214 0.002376502 0.044609714 0.041564662 0.0029596621 0.0050223046
0.000997242 0.0449145 0.0049595106 -0.0051205144 0.0042002643 -0.0002438335 -0.00066450925 -0.0030103184
-0.044028476 0.0029751346 0.017709438 -0.044396445 -0.0026693596 0.0006091794 -0.0034056746 -0.01592371
0.0014228051 -0.04443916 0.0016991453 -0.0007984931 -0.00045731754 0.0040958575 -0.00022404945 -0.00048755537
8.777979e-05 -0.0032076372 0.0076247836 0.04222535 0.0006823919 0.0007749929 -0.009557591 0.00063911674
0.0046916297 -0.0018535152 -0.014456391 0.0006984498 -0.0013137668 0.045131966 -0.0075335293 0.0033267161
-0.044841733 0.0084717395 0.00513653 -0.009317105 0.004783293 0.0006760623 -0.0063738055 -0.0011589329
-0.010019042 0.00035512983 0.0035665464 -0.010330374 -0.009911415 0.0023105962 0.000664623 -0.001430931
-0.045065757 -0.011042523 -0.012365039 -0.0031699399 -0.0029208083 0.002989503 0.0029955495 -0.003841255
0.006688245 0.044861693 -0.010634311 0.005131272 -0.01676785 -0.0035522971 0.0006736649 0.00031287898
-0.0021950381 0.00033484053 0.046438716 -0.008277468 -0.010470736 0.021063566 -0.0018077488 0.00022824429
-0.004124801 -0.046490967 0.004213673 0.0036687145 -0.04647075 -0.018381324 0.0010957964 0.0046941
0.045377284 0.0123697575 -0.0029469987 -7.884454e-06 -0.026150972 -0.0029868076 0.03118475 0.0011081903
0.045933414 0.011846547 -0.010720941 0.01026583 -0.046443664 -0.02517471 0.033494998 0.002779609
-0.045580182 0.020241193 0.0003432358 -0.040621355 0.00027564238 0.007548458 3.093618e-05 0.0029939301
-0.00093784725 0.025193742 -0.0006912967 -0.046433937 0.009339561 0.010343524 -0.00069800287 -0.0024949582
0.045504723 -0.01089887 0.015637415 0.02321528 0.046364598 0.04569161 0.019697197 0.0042849383
0.0006878791 0.046425063 -0.002770348 0.0009824792 0.006477208 -0.006219901 -0.0038465122 -0.0033369076
-0.0461685 -0.026350262 -0.011284373 -0.04628719 -0.00035393878 -0.013294526 -0.0014834373 -0.034799505
-0.0027011405 -0.046278503 0.012792335 -0.0008699614 -0.01596891 0.005107404 -0.0018430565 -0.00037114683
-0.0037669076 0.0013781129 0.0062243277 0.055880602 0.001149173 -0.0025804737 0.021502692 0.00088864105
-0.0005571593 0.0055156364 -0.0304429 0.001855916 0.00086010067 0.046364434 0.022713644 0.0036659348
-0.04646338 -0.006713817 -0.0020758146 0.0023939025 0.019860093 0.0012175881 0.008562092 -0.006898137
-0.021204863 -0.00057121925 0.0057197465 -0.022715282 0.011449503 -0.0025078752 0.0009106665 0.0045960625
-0.046535373 0.0031241528 -0.043010335 0.0047079856 -0.0011000275 0.00478423 -0.0013354801 0.0024128004
-0.009676481 0.046539694 -0.0128724715 0.00058614736 0.01247968 -0.0119891735 0.0014595409 0.0029004563
00000000: 4ea6 4c3b 8654 90ba 573d 373d 4b33 3f3b
00000010: bf37 4bba 1f3c 9639 f919 64ba a766 9ab9
00000020: 46c2 58bb d030 37bd 6d96 e33b 805e ce3b
00000030: d44f 37bd 84e0 983b 15bf 13bc bd08 3f3c
00000040: 70d9 2a3d a2f0 f83c 909c 90ba 51d5 89bb
00000050: f6ee 99bc be48 633b 0237 153d e433 90b9
00000060: af4c 2f3d 452c e8ba c2c6 dcb9 1880 11bc
00000070: f690 38bd 0ef1 8bbc a32d ff3c 039b bcbb
00000080: ed5a 29bd 83de 9d3c 0d04 edb9 3de3 0fbd
00000090: ee90 9c3b 01f1 443a 8e2b d6b9 bbc0 823b
000000a0: 2a2f 753b 50df ba3c 68a3 7239 f068 36bd
000000b0: fb5b 333b e176 2c3c 5424 ba3b 467a 033c
000000c0: fa1e 2c3d 7425 843b 286c c5ba 16bf 1b3b
000000d0: adb8 363d b53f 2a3d e4f6 413b 2592 a43b
000000e0: e4b5 823a 44f8 373d 6483 a23b fdc9 a7bb
000000f0: 5fa2 893b 8fad 7fb9 7632 2eba c348 45bb
00000100: 3457 34bd 7afa 423b 6213 913c 0cd9 35bd
00000110: 6cf0 2ebb 56b1 1f3a bd31 5fbb 7172 82bc
00000120: 6b7d ba3a d605 36bd dbb5 de3a f751 51ba
00000130: 1fc4 efb9 8b36 863b d1ee 6ab9 939e ffb9
00000140: 6a16 b838 3937 52bb 52d9 f93b 7df4 2c3d
00000150: 8ce2 323a e528 4b3a 7197 1cbc 668a 273a
00000160: 3ebc 993b a6f1 f2ba 80da 6cbc 2c18 373a
00000170: b332 acba 4cdc 383d d3db f6bb 0905 5a3b
00000180: f7ab 37bd 0dcd 0a3c 5650 a83b c5a6 18bc
00000190: 2cbd 9c3b c639 313a 5bdb d0bb 56e7 97ba
000001a0: e826 24bc b830 ba39 b8bc 693b bb40 29bc
000001b0: 7d63 22bc 5f6d 173b 183a 2e3a 148e bbba
000001c0: df96 38bd b3eb 34bc bc96 4abc c4be 4fbb
000001d0: 086b 3fbb 8aeb 433b fb50 443b 91bd 7bbb
000001e0: 1129 db3b e5c0 373d 883b 2ebc 3b24 a83b
000001f0: bb5c 89bc a8cd 68bb e398 303a e809 a439
00000200: a1da 0fbb 898d af39 8636 3e3d 389e 07bc
00000210: 738d 2bbc 808d ac3c fcf1 ecba dc54 6f39
00000220: 5729 87bb 506d 3ebd da12 8a3b d16e 703b
00000230: 1d58 3ebd 6e94 96bc d3a0 8f3a f7d0 993b
00000240: 88dd 393d 86aa 4a3c 6f22 41bb 7947 04b7
00000250: 903a d6bc 51be 43bb 2977 ff3c b240 913a
00000260: ad24 3c3d 0518 423c e3a6 2fbc 0332 283c
00000270: b63b 3ebd 323b cebc 0d32 093d 1a2a 363b
00000280: 49b2 3abd dcd0 a53c 54f4 b339 9462 26bd
00000290: 1884 9039 0e59 f73b 78c1 0138 d035 443b
000002a0: ddd9 75ba 1b63 ce3c 2338 35ba 8331 3ebd
000002b0: f504 193c e277 293c 2efa 36ba 7482 23bb
000002c0: 2963 3a3d 2d91 32bc 091a 803c f92d be3c
000002d0: cee8 3d3d 2027 3b3d 045c a13c ab68 8c3b
000002e0: c952 343a 3528 3e3d ba8e 35bb 88c6 803a
000002f0: c23e d43b 50d0 cbbb c415 7cbb 05b0 5abb
00000300: 2e1b 3dbd 81dc d7bc 17e2 38bc a397 3dbd
00000310: dc90 b9b9 49d1 59bc e56f c2ba ed89 0ebd
00000320: 9e05 31bb 878e 3dbd f196 513c 1f0e 64ba
00000330: 3bd1 82bc 035c a73b b792 f1ba 7c96 c2b9
00000340: 39de 76bb cca1 b43a 72f5 cb3b 0fe3 643d
00000350: d99f 963a 2a1d 29bb 6a26 b03c b1f3 683a
00000360: 540e 12ba 83bc b43b 6363 f9bc 3542 f33a
00000370: 6178 613a a2e8 3d3d f711 ba3c 2e40 703b
00000380: 6350 3ebd 94ff dbbb 640a 08bb 05e3 1c3b
00000390: a2b1 a23c 7a97 9f3a 0448 0c3c c409 e2bb
000003a0: d2b5 adbc e0bd 15ba b66c bb3b 6615 babc
000003b0: b296 3b3c 2a5b 24bb cbb9 6e3a 919a 963b
000003c0: e09b 3ebd 96be 4c3b 9b2b 30bd 7245 9a3b
000003d0: cc2e 90ba 08c5 9c3b 470b afba 1320 1e3b
000003e0: 1a8a 1ebc 68a0 3e3d 0fe7 52bc afa7 193a
000003f0: 9277 4c3c 3d6e 44bc 114e bf3a 9515 3e3b

gru2.weight_hh_l0 f4 [384, 128]
-0.022640828 0.013754657 0.00557695 0.025902124 0.034743868 -0.01098368 0.0063527725 0.044124205
0.012798106 0.044122268 0.02993794 -0.043940324 -0.017420335 -0.013623735 -0.04169719 0.020036425
-0.0014570709 -0.0019141035 0.036475543 0.001048724 0.0070609925 0.0071618096 0.00817588 -0.001086243
0.0104702655 -0.012415878 0.0028445122 -0.019315232 0.016547382 -0.0025203924 -0.044100374 0.017880648
-0.0018666828 -0.04403217 0.0033391146 0.00083547767 0.007749786 -0.0096114855 0.004430482 0.033454236
-0.01694379 -0.007306912 0.015846249 -0.009337829 -0.037478555 0.014983754 0.044098474 0.043992754
-0.02268306 -0.0040951967 -0.008974063 -0.04414373 -0.0028014483 0.013321568 0.0014821714 -0.04309758
0.00048507276 -0.014197278 0.044024073 -0.0011287994 -0.0005043492 -0.044111382 -0.01826767 -0.010855497
0.003549082 0.0036080761 0.043884847 -0.043824315 -0.0034877697 0.0017465741 0.007341014 -0.018781824
-0.012683614 0.013605318 0.02220241 -0.016487181 -0.04404194 -0.003943126 -0.024083933 0.015053569
-0.013394551 -0.005243326 0.0006778075 0.02078369 0.04400177 -0.012472856 -0.025081206 -0.008041503
-0.0041552205 0.009690499 0.044031765 -0.026878428 -0.044091698 -0.0204711 0.00809027 0.0010469205
0.002672753 -0.033350993 -0.044098705 0.01424255 0.011090109 0.0027692756 -0.0028347888 0.013014617
-0.0022512476 -0.0112435045 -0.04402643 0.00334338 0.04410215 -0.0031339542 0.003796828 0.014597484
0.015916856 0.02760986 0.023228882 -0.043965954 0.00024957635 0.0012755378 0.044109546 0.0107397325
-0.0032870984 0.011685063 0.03743831 0.01979225 -0.023384925 0.0053183055 0.044114605 -0.006666323
-0.04550892 0.0019666292 -0.0068531446 0.04270627 0.03946258 -0.007834279 -0.0060778446 0.04580838
0.015138765 0.045811377 -0.018030347 -0.045769073 -0.0012053875 -0.0058419337 -0.007879151 0.05442215
0.009922435 -0.012095193 -0.0031075634 -0.0049460027 -0.012987564 -0.012471837 0.024298038 0.006608455
0.024345217 0.0049730963 0.010938215 -0.016851014 0.020917583 0.04841762 -0.04580042 0.00529777
0.018635463 -0.04578983 0.036290947 0.0063210838 -0.0030668646 0.020458324 -0.0018281351 -0.03207009
-0.00931391 -0.0061391 -0.022522815 0.033325218 -0.024123866 0.01264709 0.04580477 0.045781154
-0.03541889 -0.02337386 0.01680223 -0.045810845 -0.009084466 -0.015059876 -0.03872796 -0.00429094
0.013372889 -0.041652527 0.04578552 0.040847268 -0.0094039105 -0.045804136 -0.0030875665 0.0055774767
-0.0043690787 0.027877897 0.045761548 -0.045746084 0.010444075 -0.017535206 0.010755047 -0.0044136327
0.009634161 -0.0001919724 0.00076177414 -0.044494547 -0.045797464 0.014336444 -0.013530748 0.0098063275
-0.019581918 0.015529782 -0.020698702 -0.017303698 0.04579249 -0.0024706346 -0.009805007 -0.039985467
-0.006818969 -0.020604262 0.0457908 -0.045609538 -0.045800563 0.017039824 0.014299493 -0.0038306487
0.0102216825 -0.012508454 -0.045801897 -0.013445085 -0.01432876 0.014886737 -0.012789223 -0.004586819
0.018852036 -0.050897975 -0.045784768 0.026853167 0.045798372 0.023439296 -0.01973893 0.05275194
0.016223539 0.03274563 0.018804602 -0.045769263 -0.01191431 0.0009400949 0.045804285 0.0092994105
0.039390057 -0.013612068 -0.00021216385 -0.018871132 -0.031899627 0.0019731976 0.045812704 0.0008975588
00000000: 4279 b9bc 365b 613c d9be b63b b130 d43c
00000010: 964f 0e3d e5f4 33bc eb2a d03b 95bb 343d
00000020: 26af 513c 8db9 343d 6940 f53c c5fa 33bd
00000030: 17b5 8ebc 1636 5fbc acca 2abd 6e23 a43c
00000040: 30fb beba a8e2 faba 6167 153d 5775 893a
00000050: e65f e73b 9dad ea3b 20f4 053c 4460 8eba
00000060: 7a8b 2b3c f76b 4bbc ff6a 3a3b fa3a 9ebc
00000070: 608e 873c 2b2d 25bb 98a2 34bd 707a 923c
00000080: 7bab f4ba 145b 34bd 0cd5 5a3b f503 5b3a
00000090: ebf1 fd3b 7e79 1dbc 942d 913b 4f07 093d
000000a0: b4cd 8abc d26e efbb fecf 813c b2fd 18bc
000000b0: 1d83 19bd 6b7e 753c 9aa0 343d bf31 343d
000000c0: d3d1 b9bc 0031 86bb f307 13bc 0ed0 34bd
000000d0: 8198 37bb b542 5a3c 6b45 c23a 1787 30bd
000000e0: 5d51 fe39 b39b 68bc 9652 343d 39f4 93ba
000000f0: 4d36 04ba 23ae 34bd 15a6 95bc 41db 31bc
00000100: b797 683b 7975 6c3b 99c0 333d 2081 33bd
00000110: 1193 64bb 4ded e43a e48c f03b 57dc 99bc
00000120: efce 4fbc d7e8 5e3c d4e1 b53c 2010 87bc
00000130: 5265 34bd 5735 81bb ab4b c5bc 3fa3 763c
00000140: d274 5bbc 35d0 abbb e4ae 313a 8f42 aa3c
00000150: 333b 343d f35a 4cbc 1a77 cdbc 82c0 03bc
00000160: 8428 88bb e6c4 1e3c a75a 343d 2630 dcbc
00000170: 7f99 34bd 02b3 a7bc 0d8d 043c d338 893a
00000180: 5b29 2f3b 0d9b 08bd d8a0 34bd 9659 693c
00000190: 4ab3 353c bc7c 353b ddc7 39bb 433b 553c
000001a0: ab89 13bb ad36 38bc 0f55 34bd 9c1c 5b3b
000001b0: 75a4 343d 0763 4dbb 34d4 783b 492a 6f3c
000001c0: 1164 823c 132e e23c 7f4a be3c a515 34bd
000001d0: 92d9 8239 f22f a73a 36ac 343d b4f5 2f3c
000001e0: 5c6c 57bb b572 3f3c ea58 193d 5b23 a23c
000001f0: be91 bfbc 2e45 ae3b 84b1 343d 2c71 dabb
00000200: 9067 3abd 90e2 003b 5890 e0bb c5ec 2e3d
00000210: 84a3 213d 595b 00bc a828 c7bb 91a1 3b3d
00000220: 9508 783c b6a4 3b3d 61b4 93bc 5a78 3bbd
00000230: 18fe 9dba b16d bfbb 8e17 01bc c3e9 5e3d
00000240: b591 223c eb2a 46bc 43a8 4bbb 1412 a2bb
00000250: cbc9 54bc ad56 4cbc ae0c c73c bd8b d83b
00000260: 9f6f c73c 5bf5 a23b 3336 333c 230b 8abc
00000270: 5a5b ab3c 8e51 463d 3999 3bbd ea98 ad3b
00000280: 66a9 983c 1e8e 3bbd d1a5 143d 1821 cf3b
00000290: 73fd 48bb 3798 a73c 099e efba ed5b 03bd
000002a0: 5f99 18bc 812a c9bb c481 b8bc 0680 083d
000002b0: 6a9f c5bc bd35 4f3c c89d 3b3d 0585 3b3d
000002c0: 6613 11bd 8a7a bfbc d5a4 893c 27a4 3bbd
000002d0: 03d7 14bc b3bd 76bc 36a1 1ebd 039b 8cbb
000002e0: f619 5b3c d79b 2abd 9989 3b3d 774f 273d
000002f0: dc12 1abc 1e9d 3bbd c558 4abb 44c3 b63b
00000300: 7d2a 8fbb 3060 e43c 7670 3b3d 3f60 3bbd
00000310: a01d 2b3c fea5 8fbc f035 303c 3ca0 90bb
00000320: 9ad8 1d3c 334c 49b9 ccb1 473a ea3f 36bd
00000330: 1f96 3bbd 68e3 6a3c 12b0 5dbc b8aa 203c
00000340: 426a a0bc a070 7e3c 5390 a9bc 7cc0 8dbc
00000350: e890 3b3d 5fea 21bb 2ea5 20bc cdc7 23bd
00000360: a871 dfbb 45ca a8bc 228f 3b3d 11d1 3abd
00000370: 5f99 3bbd 1a97 8b3c 6c48 6a3c 9f0b 7bbb
00000380: d878 273c 42f0 4cbc c59a 3bbd c648 5cbc
00000390: 2dc3 6abc 80e7 733c e489 51bc 074d 96bb
000003a0: 966f 9a3c 657a 50bd cf88 3bbd 2cfb db3c
000003b0: 1397 3b3d c403 c03c 89b3 a1bc 6b12 583d
000003c0: 3ae7 843c 4820 063d 1c0c 9a3c 8d78 3bbd
000003d0: 3d34 43bc b370 763a 469d 3b3d 8e5c 183c
000003e0: 7857 213d 2705 5fbc 4d78 5eb9 a297 9abc
000003f0: 2fa9 02bd c350 013b 1aa6 3b3d 274a 6b3a
