script/train/checkpoint/LeVoice-4700.pth (torch, 225531 bytes, 14 tensors)

tf.weight f4 [64, 39]
-0.3819552 -0.94603765 -0.93654263 -0.99409115 -0.73214984 -0.6379217 -0.23939031 -0.22289805
-0.030156806 0.15604869 0.042974986 -0.11931241 -0.147232 -0.17727469 -0.15128444 -0.07262686
-0.09243139 -0.10521316 -0.12975453 -0.25273427 -0.2875719 -0.13783175 -0.14327477 -0.17535649
-0.35673892 -0.3151267 -0.17306922 -0.35547563 -0.69008195 -0.44480917 -0.028472425 -0.0033872635
-0.0048138546 -0.00074614695 0.005710403 -0.0128617175 -0.0044668894 -0.0035289638 -0.0015371254 3.300389e-17
-2.4003712e-06 -4.8630936e-06 -0.00026197074 -0.00010912453 -0.00744148 -0.0028954407 -8.0882046e-08 -3.161359e-11
-2.5940924e-20 -3.31465e-40 -1.36004e-40 -3.6821e-40 -1.1588e-40 5.43164e-40 6.14657e-40 2.94976e-40
-5.07249e-40 -3.53364e-40 -5.762e-40 -4.95649e-40 -6.06673e-40 -2.02269e-40 -3.86826e-40 -2.43122e-40
-2.05133e-40 -1.99905e-40 -7.04723e-40 -9.20492e-38 -2.802779e-33 2.5055027e-09 -0.004871355 -0.0048782397
-0.0048821475 0.0049155075 0.004913593 -0.004887921 0.0049112937 -0.004889386 -0.5290607 -0.043298453
-0.1026704 1.0122393 0.25487038 0.043145996 -0.463173 -0.56641054 -0.2225384 -0.16996339
-0.028723383 0.025204994 -0.068974845 -0.06257565 -0.05235729 -0.09143549 -0.17326003 -0.16338448
-0.21075341 -0.21760316 -0.13060047 -0.008361826 -0.063310154 0.004110639 0.04380434 -0.03993381
-0.030326586 -0.015856577 -0.027386632 -0.03873729 -0.0012158415 0.0013962218 0.0065682484 0.0071589286
0.0039230282 0.0009312952 -0.004750756 0.00064165227 -0.006028751 0.03789964 0.069480084 0.14398184
-0.40235686 -0.70604724 -0.8615107 -0.099884175 0.3532023 0.21743971 0.3589167 0.24614362
-0.059034407 0.059814766 0.12983571 0.16135919 0.15123674 0.23559481 0.1760288 0.19391175
0.13411748 -0.018664172 0.12892817 0.09146554 -0.034312807 -0.24481586 -0.026477402 0.06131256
-0.034452777 -0.13526681 -0.051380396 0.0006980201 0.0019700024 0.0022944799 0.0021226197 0.0019991263
0.0019915747 0.001785228 -0.0069733527 0.0018293771 -7.204793e-39 -2.8192083e-16 2.7924098e-23 -7.3124556e-16
-1.3594924e-12 -2.7196106e-13 -2.6971914e-13 -2.96041e-40 -1.57116e-40 4.9802e-40 4.81258e-40 -5.6755e-40
-1.98665e-40 1.9076e-40 3.22671e-40 -2.063e-42 1.714e-41 4.71516e-40 -1.90373e-40 -2.6763e-41
2.82017e-40 6.5461e-40 -9.4879e-41 5.2877e-41 -4.27896e-40 2.4615e-40 3.87882e-40 -3.1917e-41
-5.80332e-40 -3.39393e-40 0.0059476257 -0.0048956857 0.00489838 -0.0049028415 0.004897073 0.0048972857
0.004897317 0.0048975796 0.00489761 -0.16303413 0.6118268 0.37886596 1.134043 -0.32622015
0.07258075 -0.6555621 0.11059393 0.008455313 -0.35752693 0.23950487 -0.004698188 0.29688796
0.6133895 0.7805564 0.5129493 0.47302195 0.59347534 0.71877193 0.89450854 0.16615617
-0.54497665 -0.5539991 -0.390321 -0.6133062 -0.37551323 -0.18073495 0.016673116 0.0072014113
-0.04220841 0.0015607474 0.00034455082 0.0035984274 0.0018152394 0.004285707 0.007379302 -0.0028889824
-0.00756458 -0.004347679 -0.44911528 1.5789462 1.9121331 1.609764 1.0715929 0.29065448
-0.29860786 -0.4695246 -0.46470326 -0.82912564 -0.40021768 -0.24058262 -0.19075182 -0.16034174
0.027663387 -0.105939195 -0.101605184 0.19315937 0.2980422 0.24354257 -0.060628884 0.11571361
00000000: a28f c3be 862f 72bf 42c1 6fbf c27c 7ebf
00000010: 2c6e 3bbf d64e 23bf bc22 75be 633f 64be
00000020: 680b f7bc 3acb 1f3e 8a06 303d 115a f4bd
00000030: fcc3 16be 7f87 35be 4fea 1abe 64bd 94bd
00000040: ab4c bdbd ff79 d7bd 5fde 04be 6366 81be
00000050: a03c 93be c423 0dbe 9fb6 12be a790 33be
00000060: 7ca6 b6be 4958 a1be 0f39 31be e700 b6be
00000070: 36a9 30bf 07be e3be 013f e9bc dafc 5dbb
00000080: 8abd 9dbb 1399 43ba 551e bb3b f4b9 52bc
00000090: fc5e 92bb 3046 67bb 5f79 c9ba 1e34 1824
000000a0: 1016 21b6 a82d a3b6 1e59 89b9 c9d9 e4b8
000000b0: a9d7 f3bb 6fc1 3dbb 60b1 adb3 bd09 0bae
000000c0: 4e01 f59e fd9b 0380 207b 0180 6b02 0480
000000d0: 0743 0180 1fea 0500 6ab1 0600 4636 0300
000000e0: 0186 0580 09d9 0380 3646 0680 ab65 0580
000000f0: 289b 0680 d833 0280 5036 0480 baa5 0280
00000100: d43b 0280 412d 0280 7bac 0780 ee94 fa81
00000110: 84d8 6889 452d 2c31 e39f 9fbb a4d9 9fbb
00000120: 6cfa 9fbb 4412 a13b 3502 a13b da2a a0bb
00000130: ebee a03b 2437 a0bb 8670 07bf b859 31bd
00000140: dc44 d2bd 0f91 813f 5f7e 823e dbb9 303d
00000150: 0325 edbe 4800 11bf 1be1 63be e20a 2ebe
00000160: 4d4d ebbc b47a ce3c af42 8dbd aa27 80bd
00000170: 9974 56bd 8842 bbbd 146b 31be 434e 27be
00000180: becf 57be 5dd3 5ebe 21bc 05be 0a00 09bc
00000190: c1a8 81bd 8ab2 863b 2e6c 333d a291 23bd
000001a0: 766f f8bc a7e5 81bc ee59 e0bc feaa 1ebd
000001b0: df5c 9fba 6e01 b73a 763a d73b 7295 ea3b
000001c0: bf8c 803b 2a22 743a 3bac 9bbb 8e34 283a
000001d0: d48c c5bb a73c 1b3d 934b 8e3d fa6f 133e
000001e0: b801 cebe 83bf 34bf f78b 5cbf 1390 ccbd
000001f0: efd6 b43e 84a8 5e3e eec3 b73e 130d 7c3e
00000200: 10ce 71bd 5400 753d a7f3 043e 583b 253e
00000210: cedd 1a3e c43f 713e e540 343e cd90 463e
00000220: 1856 093e 9be5 98bc bf05 043e 4952 bb3d
00000230: 968b 0cbd 02b1 7abe 23e7 d8bc e122 7b3d
00000240: 5b1e 0dbd 6283 0abe 4074 52bd 56fb 363a
00000250: 281b 013b fc5e 163b a61b 0b3b c603 033b
00000260: 1485 023b 50fe e93a b980 e4bb b6c7 ef3a
00000270: 0874 4e80 2c84 a2a5 5c08 071a 66c4 52a6
00000280: e054 bfab b819 99aa a0d6 97aa 3e39 0380
00000290: fab5 0180 476c 0500 8d3d 0500 192e 0680
000002a0: cc29 0280 c313 0200 7a83 0300 c005 0080
000002b0: c82f 0000 6522 0500 af12 0280 9b4a 0080
000002c0: 2612 0300 c920 0700 7c08 0180 6693 0000
000002d0: cda8 0480 2bae 0200 4239 0400 f958 0080
000002e0: bb51 0680 17b2 0380 4de4 c23b fd6b a0bb
000002f0: 9782 a03b 04a8 a0bb a077 a03b 6979 a03b
00000300: ac79 a03b e07b a03b 217c a03b 6bf2 26be
00000310: aea0 1c3f b8fa c13e 5228 913f 5406 a7be
00000320: 37a5 943d ebd2 27bf 127f e23d 2788 0a3c
00000330: c50d b7be c440 753e 42f3 99bb b301 983e
00000340: 1807 1d3f 8bd2 473f a550 033f ef2f f23e
00000350: 00ee 173f 7001 383f 83fe 643f d824 2a3e
00000360: 9783 0bbf e3d2 0dbf 27d8 c7be a301 1dbf
00000370: 4543 c0be 9512 39be 0f96 883c d1f9 eb3b
00000380: bae2 2cbd fe91 cc3a d4a4 b439 98d3 6b3b
00000390: 54ed ed3a 1e6f 8c3b 12ce f13b 1555 3dbb
000003a0: 4ce0 f7bb fa76 8ebb 70f2 e5be e91a ca3f
000003b0: c7c0 f43f bf0c ce3f f529 893f aad0 943e
000003c0: 21e3 98be 8765 f0be 96ed edbe 9441 54bf
000003d0: 55e9 ccbe 4a5b 76be 7254 43be a030 24be
000003e0: 549e e23c a6f6 d8bd 6116 d0bd 92cb 453e
000003f0: fd98 983e 3963 793e fe55 78bd 42fb ec3d

tf.bias f4 [64]
0.156436 -0.0038288366 -0.0054594898 0.28871265 -0.0165463 0.028991217 -0.008622054 -0.013957088
-0.0053189974 -0.017200401 -0.089458 0.4052934 -0.08137288 -0.082230195 -0.0014822381 -0.026626037
-0.00086354895 -0.05971422 -0.00059120514 0.063316464 0.057357997 -0.014316481 -0.052436836 -0.017681161
-0.039290972 0.02675853 0.119748734 -0.006796093 -0.005610199 0.034516122 -0.043755524 -0.0010899585
-0.048403192 -0.0075190286 -0.00038514953 0.012730863 0.05105558 0.004552534 0.49073097 0.14533111
-0.042990554 -0.024152689 -0.030104326 0.10714059 -0.06947958 0.12654659 0.07983955 0.08921086
-0.024878718 0.12070368 -0.0037592286 -0.0061727995 -4.047677e-05 0.061330996 0.06369976 0.016276274
0.14770192 0.026969586 0.12153609 0.38293114 -0.09075307 0.08581921 -0.0015325667 0.061892293
00000000: c230 203e 38ed 7abb 85e5 b2bb 25d2 933e
00000010: 1b8c 87bc fd7e ed3c 8443 0dbc 45ac 64bc
00000020: fc4a aebb dbe7 8cbc c235 b7bd 9e82 cf3e
00000030: d3a6 a6bd 4e68 a8bd a847 c2ba d91e dabc
00000040: ca5f 62ba e696 74bd 1bfb 1aba 10ac 813d
00000050: 38f0 6a3d ac8f 6abc 02c8 56bd 15d8 90bc
00000060: 92ef 20bd b434 db3c d33e f53d c3b1 debb
00000070: c3d5 b7bb c760 0d3d fe38 33bd f0dc 8eba
00000080: 6d42 46bd 2f62 f6bb e5ed c9b9 1c95 503c
00000090: a81f 513d 6c2d 953b 1741 fb3e aed1 143e
000000a0: dd16 30bd dcdb c5bc 599d f6bc 876c db3d
000000b0: 4f4b 8ebd 6e95 013e eb82 a33d 2fb4 b63d
000000c0: 74ce cbbc 7e33 f73d 645d 76bb 3245 cabb
000000d0: 9ac5 29b8 3636 7b3d 0575 823d d255 853c
000000e0: 2c3f 173e 52ef dc3c eae7 f83d 8d0f c43e
000000f0: bfdc b9bd fbc1 af3d 68e0 c8ba c682 7d3d

gru1.weight_ih_l0 f4 [192, 64]
0.06595559 2.2457e-41 0.01416578 -0.021258466 6.98603e-40 0.054274656 -0.17133124 -4.37817e-40
-2.92436e-40 -1.2990083e-29 -2.5898954e-20 -0.13166514 -0.00047829762 9.346083e-39 -3.65282e-40 -4.3782023e-08
5.38956e-40 6.52342e-40 1.1517123e-07 0.08250664 0.07887461 -0.025801755 -2.3868858e-23 -0.000885941
9.132268e-05 -0.03693125 -0.0039285985 5.336996e-13 -5.63208e-40 0.07058392 -0.06840003 -6.68313e-40
-0.005839887 1.10383e-40 -1.5226926e-27 0.0435697 0.05368617 -0.0048714024 -0.05628084 0.0003314307
-2.7853084e-10 9.2398885e-37 1.0839996e-12 0.09021297 0.0047838264 0.08674884 0.088045515 0.0892233
0.00028558247 0.08743788 -5.801794e-06 5.313821e-07 4.93993e-40 -0.04484038 0.08309415 -0.021818161
0.084818244 -0.019187598 0.0063724443 -0.09727865 1.3539273e-05 0.095476486 -3.48605e-40 0.080671705
0.0226698 -5.08774e-40 0.0012838185 -0.020214833 1.6752501e-19 0.0009171325 -0.057248816 6.91699e-40
2.35979e-40 1.0403529e-08 -2.6167616e-19 -0.26248813 -1.2363361e-07 -9.4796e-41 2.50966e-40 -1.7792677e-15
6.3585e-40 -3.284e-41 0.0014296841 0.0476035 0.041863143 -0.07751367 -6.19095e-40 -1.60024e-05
0.0033230763 -0.04880155 -0.0334202 -1.389628e-27 3.38287e-40 -0.0017564599 -0.037316706 2.69821e-40
0.02320078 3.9443496e-23 0.0019012077 -0.016677355 -0.0025717467 -0.00205995 -0.36305523 -0.012093475
3.3146e-41 4.6323223e-12 -0.002434142 0.05594064 0.01310889 0.056715578 0.054677077 0.056140073
-0.000119109194 0.056313872 6.817151e-13 3.6041605e-08 -0.0066955374 -0.068236776 0.047941744 0.022363734
0.053796265 -0.07965475 -0.0165466 -0.24441326 2.1329288e-07 0.010116278 5.65053e-40 0.046037808
-0.026516352 4.93501e-40 0.04388043 -0.015426938 1.061e-42 0.049225666 0.14309487 -3.87762e-40
6.2045e-41 -6.336421e-32 -5.85633e-40 0.04935125 -8.575462e-07 -2.9050688e-21 -6.28007e-40 1.7623236e-15
-5.32762e-40 1.2159928e-25 -6.734929e-07 -0.004911149 -0.0052457694 -0.0063413894 0.015391341 1.6194652e-05
0.0002201083 -0.04527352 -0.007009359 -2.61677e-40 1.022524e-05 0.047777012 0.049211603 2.66975e-40
-0.0014810804 -0.0031900988 -0.0023309183 0.05008957 0.073104024 -0.037259057 -0.029800141 -0.016529677
-1.68673e-40 6.2363e-41 0.0058190273 -0.0056799552 0.00905632 -0.008302083 -0.0045157773 -0.004688765
3.0263147e-05 -0.0075430553 -8.492729e-11 1.1304716e-12 -0.0011074154 0.053888977 -0.0048211627 -0.00979204
-0.011672465 0.06918483 -0.02812031 0.03771692 3.337892e-17 0.047744345 -1.71742e-40 -0.0052320943
-0.03654415 -6.01643e-40 0.017521236 -0.14171055 5.08125e-40 -0.009412942 -0.063546374 -4.9353e-40
-5.7926e-40 -6.25411e-40 7.0823736e-10 -0.16515313 -0.00028177787 1.92754e-40 -4.88784e-40 -3.0374203e-10
-6.22988e-40 -1.11601e-05 1.15622664e-10 0.0017263375 0.003264217 -0.008481538 2.75783e-40 1.0750861e-07
-0.0050899796 -0.08239426 -0.06165391 -1.2602165e-17 -0.00016740107 0.009460255 -0.05553169 3.51142e-40
-0.014892135 -4.0049e-41 -0.0003795055 -0.028639339 -0.0069587333 -0.021702616 -0.15468839 -0.09047546
-0.0018199468 5.341e-41 3.722598e-20 -0.012528601 0.027710913 -0.019510794 -0.0033420324 -0.006152185
-5.5903e-05 -0.017382054 -1.8413004e-10 -0.0024702488 0.005549321 -0.045086674 0.0016388115 -0.028837375
-0.02660136 -0.070913784 -0.052486364 -0.1628012 0.0032370286 -0.023078168 -1.55513e-40 0.002241537
00000000: b913 873d 9a3e 0000 9617 683c 3c26 aebc
00000010: 6c9b 0700 1a4f 5e3d 7571 2fbe 75c4 0480
00000020: 312f 0380 2fbc 838f d49b f49e 3ad3 06be
00000030: 05c4 fab9 14c5 6500 42fa 0380 d80a 3cb3
00000040: 64de 0500 771a 0700 0e54 f733 3ef9 a83d
00000050: 0389 a13d 345e d3bc 6ed8 e699 7e3e 68ba
00000060: 7e84 bf38 3945 17bd 79bb 80bb 1c39 162b
00000070: ff21 0680 4d8e 903d 5115 8cbd fc46 0780
00000080: 865c bfbb b433 0100 c047 f192 2476 323d
00000090: 08e6 5b3d 49a0 9fbb bd86 66bd e0c3 ad39
000000a0: bb1f 99af 6435 9d03 348f 982b 94c1 b83d
000000b0: a5c1 9c3b 60a9 b13d 3551 b43d b5ba b63d
000000c0: 3bba 9539 a212 b33d 08ad c2b6 4da4 0e35
000000d0: 0d61 0500 8caa 37bd 442d aa3d 00bc b2bc
000000e0: 30b5 ad3d 4f2f 9dbc f0cf d03b 073a c7bd
000000f0: bc26 6337 2d89 c33d c5cb 0380 3537 a53d
00000100: 04b6 b93c 418a 0580 cd45 a83a 9499 a5bc
00000110: 54c7 4520 b86b 703a bc7d 6abd 2d88 0700
00000120: d091 0200 34bb 3232 6277 9aa0 d864 86be
00000130: 26c0 04b4 4108 0180 97bb 0200 b235 00a7
00000140: 7eec 0600 8b5b 0080 3d64 bb3a e3fb 423d
00000150: b078 2b3d 7dbf 9ebd c9bd 0680 e43c 86b7
00000160: f8c7 593b 22e4 47bd 9fe3 08bd 0232 dc92
00000170: 02af 0300 0439 e6ba 67d9 18bd 27f0 0200
00000180: 900f be3c afbc 3e1a f231 f93a f39e 88bc
00000190: c08a 28bb 3a00 07bb 60e2 b9be b623 46bc
000001a0: 665c 0000 40fc a22c 2086 1fbb 0322 653d
000001b0: abc6 563c 984e 683d 12f5 5f3d 22f3 653d
000001c0: 43ca f9b8 60a9 663d c0e2 3f2b 2acc 1a33
000001d0: 3d66 dbbb b9bf 8bbd 905e 443d 2634 b73c
000001e0: 7959 5c3d 0822 a3bd bc8c 87bc 7847 7abe
000001f0: 8005 6534 bfbe 253c 2327 0600 2492 3c3d
00000200: d238 d9bc ae5f 0500 f7bb 333d 45c1 7cbc
00000210: f502 0000 daa0 493d 7687 123e ec38 0480
00000220: f5ac 0000 be80 a48b 8260 0680 8924 4a3d
00000230: 2032 66b5 3480 5b9d a1d6 0680 44fa fd26
00000240: 20cd 0580 5a88 1616 14ca 34b5 b4ed a0bb
00000250: b4e4 abbb 6ecb cfbb f72b 7c3c c0d9 8737
00000260: dfcc 6639 ba70 39bd c4ae e5bb 73d9 0280
00000270: 128d 2b37 d4b1 433d 1b92 493d 38e8 0200
00000280: d020 c2ba fa10 51bb 52c2 18bb b92a 4d3d
00000290: 90b7 953d f49c 18bd 6d1f f4bc 3f69 87bc
000002a0: 31d6 0180 d8ad 0000 8aad be3b eb1e babb
000002b0: f660 143c 7605 08bc 16f9 93bb 36a4 99bb
000002c0: 9ddd fd37 bc2b f7bb d0c1 baae 8819 9f2b
000002d0: b226 91ba b0ba 5c3d d8fa 9dbb cb6e 20bc
000002e0: de3d 3fbc c7b0 8d3d 905c e6bc 0f7d 1a3d
000002f0: e0ee 1924 938f 433d bfde 0180 fd71 abbb
00000300: 52af 15bd 238d 0680 b288 8f3c 921c 11be
00000310: 7288 0500 be38 1abc 9a24 82bd c35f 0580
00000320: be4e 0680 64cf 0680 c6ad 4230 e71d 29be
00000330: 96bb 93b9 5219 0200 8852 0580 e4fb a6af
00000340: a3c8 0680 443c 3bb7 c641 fe2e 4646 e23a
00000350: 79ec 553b 26f6 0abc c500 0300 7cdf e633
00000360: d8c9 a6bb 52be a8bd cf88 7cbd 0b78 68a3
00000370: 6288 2fb9 2fff 1a3c 3375 63bd d7d2 0300
00000380: 24fe 73bc a46f 0080 5ef8 c6b9 0c9d eabc
00000390: 1606 e4bb afc9 b1bc a266 1ebe 334b b9bd
000003a0: 488b eeba e394 0000 73cb 2f1f c344 4dbc
000003b0: ff01 e33c 1ad5 9fbc 0006 5bbb 4598 c9bb
000003c0: 6479 6ab8 cf64 8ebc 0074 4aaf e6e3 21bb
000003d0: 14d7 b53b ceac 38bd 64cd d63a 5c3c ecbc
000003e0: 18eb d9bc 3f3b 91bd f1fb 56bd 5cb5 26be
000003f0: 5424 543b 6d0e bdbc 82b1 0180 c0e6 123b

gru1.weight_hh_l0 f4 [192, 64]
0.3057324 0.1835509 -0.11971598 0.04865021 -0.034707632 0.19729036 -0.21564735 -0.032523744
-0.12337259 -0.021178205 0.45944077 -0.091376066 -0.100860104 -0.12958966 0.16232026 0.010461746
-0.10657616 0.08397686 -0.1814233 0.06380146 0.20372787 -0.06951556 -0.29704624 -0.1880436
-0.12091498 0.29748878 -0.2344535 -0.15107945 0.01524315 -0.008788922 0.2409895 0.09638493
0.05184026 0.011763079 -0.08219962 -0.2718645 -0.007880487 -0.07371978 -0.015347827 -0.37085554
0.087877825 0.3211474 0.017275624 -0.023800364 -0.059030876 -0.054535843 0.26263258 0.01488206
-0.033011794 -0.007061811 -0.110932216 0.010706238 0.00915529 -0.03252704 0.07559825 -0.2593066
-0.30094847 -0.039640356 0.25612217 0.094542176 -0.08038645 -0.058027912 0.04687898 -0.09990771
0.016648987 0.11771137 -0.132187 0.024521302 -0.27806637 0.096052825 -0.19692086 0.17256808
0.059811015 0.16341211 -0.10981937 -0.1065482 0.24309318 0.0095810685 -0.11041632 -0.022406334
0.08737566 0.10558533 -0.08324539 0.104594834 -0.05411576 -0.121719174 -0.006306341 0.0028091795
-0.25391516 0.013445596 0.13132174 -0.3083261 0.0131994495 0.12848495 0.17835702 -0.12582012
0.18120857 -0.11904398 -0.20259637 -0.2647341 -0.32931566 0.05523336 -0.01345458 -0.0026204046
-0.14155038 0.060184415 -0.11265043 -0.11452584 -0.14240932 0.0955433 0.2678592 0.09673207
-0.1264737 -0.073098816 -0.06251828 0.20545664 -0.008257612 0.031844687 0.040237416 0.0013038451
0.07849045 -0.12226582 0.07311228 0.003121998 0.18767215 -0.10338343 -0.13190977 0.099643774
-0.06031762 -0.19010228 0.07360171 0.062092446 -0.053570867 -0.16048238 0.025639435 0.1406034
0.07463384 0.122417614 -0.09725239 0.009251983 0.082854375 0.081789665 -0.13073236 0.02318911
0.026373822 0.022395967 0.21537969 0.19442879 -0.06758645 -0.016937982 0.14736985 0.07655943
0.12734805 -0.075354055 0.11367117 -0.029389108 -0.016148943 0.02787273 -0.19988348 0.016099881
-0.06498681 -0.2514049 0.03747881 0.009986222 0.102135286 -0.07501219 0.07163495 0.09265041
0.063508086 0.032320827 0.009244727 0.031669423 -0.01895696 -0.06006325 -0.26333517 0.05405132
0.030240085 0.15051948 0.19129565 -0.026060436 0.029429354 0.111729346 0.049990438 0.2366692
0.14208056 0.121961236 -0.25218886 -0.026724711 0.057859715 0.03252487 0.054299302 -0.023939228
0.06209286 -0.044681683 0.18891285 0.059523642 -0.12356137 -0.0491468 -0.0341622 -0.049139638
0.13554503 -0.0012793005 -0.081032574 -0.025152573 -0.030019509 -0.07179086 0.027638713 0.004802115
0.16283138 0.03376664 -0.042758428 -0.022464737 -0.0107206525 -0.050319545 0.14832133 -0.060705066
0.07465116 0.035920125 -0.021406028 -0.15263015 -0.052139852 0.035388336 0.17099433 -0.005138346
0.03442962 0.02923904 -0.3284585 0.06854533 0.08372202 0.011325341 -0.013953569 -0.100393824
-0.12653488 0.10121521 0.13929631 -0.33097526 0.03951193 -0.017914068 0.17642641 0.00970869
-0.33188203 0.004653576 0.22095741 -0.0016051803 0.014427919 -0.091520615 0.061899606 -0.07181797
0.061331786 0.1762917 0.090828046 0.021942452 -0.05270294 0.052751485 -0.008730344 -0.0123316385
00000000: f588 9c3e c4f4 3b3e a72d f5bd 7145 473d
00000010: 9729 0ebd 7c06 4a3e a9d2 5cbe 9e37 05bd
00000020: c5aa fcbd ea7d adbc d23b eb3e 6023 bbbd
00000030: be8f cebd 27b3 04be 4837 263e be67 2b3c
00000040: 9a44 dabd 0ffc ab3d 08c7 39be 57aa 823d
00000050: 0a9e 503e 2d5e 8ebd 7216 98be 808e 40be
00000060: 46a2 f7bd 7350 983e 9414 70be 92b4 1abe
00000070: 68be 793c 69ff 0fbc f4c5 763e 7665 c53d
00000080: 7456 543d eeb9 403c 4658 a8bd d331 8bbe
00000090: 281d 01bc 65fa 96bd 7475 7bbc c7e0 bdbe
000000a0: 4af9 b33d 6f6d a43e 9c85 8d3c fbf8 c2bc
000000b0: 5cca 71bd fa60 5fbd c777 863e e2d3 733c
000000c0: 6037 07bd c466 e7bb 6e30 e3bd 3869 2f3c
000000d0: 1200 163c 133b 05bd 41d3 9a3d d6c3 84be
000000e0: eb15 9abe ed5d 22bd 7222 833e 549f c13d
000000f0: a7a1 a4bd adae 6dbd 2c04 403d 6a9c ccbd
00000100: 7563 883c a912 f13d 075c 07be e6e0 c83c
00000110: b75e 8ebe 58b7 c43d 9fa5 49be b0b5 303e
00000120: 65fc 743d 8155 273e fae8 e0bd f135 dabd
00000130: 6bed 783e eaf9 1c3c f421 e2bd 7d8d b7bc
00000140: 03f2 b23d 1f3d d83d 8f7c aabd d135 d63d
00000150: 7da8 5dbd e747 f9bd 6ca5 cebb 361a 383b
00000160: 2b01 82be eb4a 5c3c 3579 063e ebdc 9dbe
00000170: 8142 583c 8f91 033e 39a3 363e fdd6 00be
00000180: bd8e 393e 55cd f3bd 6c75 4fbe 3a8b 87be
00000190: 109c a8be 603c 623d 9970 5cbc 18bb 2bbb
000001a0: 95f2 10be ef83 763d 45b5 e6bd 868c eabd
000001b0: c0d3 11be 35ac c33d d724 893e 771b c63d
000001c0: 5282 01be d5b4 95bd 9609 80bd 3a63 523e
000001d0: ef4a 07bc 936f 023d fdcf 243d c8e5 aa3a
000001e0: 9abf a03d 8166 fabd e4bb 953d 6f9a 4c3b
000001f0: 212d 403e b1ba d3bd 5b13 07be 0912 cc3d
00000200: 9c0f 77bd 2caa 42be 7ebc 963d a654 7e3d
00000210: 206d 5bbd 7e55 24be cb09 d23c 56fa 0f3e
00000220: a0d9 983d 16b6 fa3d 432c c7bd a195 173c
00000230: 8eaf a93d 5781 a73d b4de 05be 17f7 bd3c
00000240: ea0d d83c bf77 b73c 7e8c 5c3e 5718 473e
00000250: c46a 8abd 86c1 8abc 1fe8 163e 31cb 9c3d
00000260: 8767 023e 3a53 9abd 6ecc e83d 6dc1 f0bc
00000270: ca4a 84bc 5a55 e43c 41ae 4cbe e6e3 833c
00000280: ce17 85bd 25b8 80be 6183 193d 409d 233c
00000290: 4e2c d13d fe9f 99bd 58b5 923d 80bf bd3d
000002a0: 8710 823d d862 043d 3277 173c ccb7 013d
000002b0: a04b 9bbc e204 76bd ded3 86be eb64 5d3d
000002c0: 0eba f73c c721 1a3e 02e3 433e b27c d5bc
000002d0: d415 f13c 5bd2 e43d c6c2 4c3d 6959 723e
000002e0: 917d 113e d0c6 f93d e61e 81be c8ed dabc
000002f0: 4ffe 6c3d cc38 053d f268 5e3d 331c c4bc
00000300: 1555 7e3d 2404 37bd 5f72 413e 10cf 733d
00000310: be0d fdbd 284e 49bd aaed 0bbd a546 49bd
00000320: 51cc 0a3e 34ae a7ba 68f4 a5bd c50c cebc
00000330: 79eb f5bc 1607 93bd 956a e23c 0f5b 9d3b
00000340: 45bd 263e e34e 0a3d 7623 2fbd f807 b8bc
00000350: ada5 2fbc de1b 4ebd 8ce1 173e e0a5 78bd
00000360: b5e2 983d fb20 133d b25b afbc 144b 1cbe
00000370: 9990 55bd 5cf3 103d 2319 2f3e 925f a8bb
00000380: 1306 0d3d b686 ef3c b62b a8be 7e61 8c3d
00000390: 7376 ab3d ec8d 393c 839d 64bc 479b cdbd
000003a0: 5c92 01be ec49 cf3d b1a3 0e3e 9775 a9be
000003b0: 43d7 213d 86c0 92bc 20a9 343e 3311 1f3c
000003c0: 71ec a9be 067d 983b a942 623e ea64 d2ba
000003d0: 1463 6c3c 296f bbbd 718a 7d3d 4d15 93bd
000003e0: 0a37 7b3d d085 343e 0e04 ba3d a8c0 b33c
000003f0: 0adf 57bd f111 583d b709 0fbc a40a 4abc

gru1.bias_ih_l0 f4 [192]
-0.05762692 -0.14076874 0.07575923 -0.34096685 -0.09666446 0.23894998 -0.06346887 -0.20911965
-0.44056764 -0.11739906 0.03981913 -0.048887905 -0.11942313 -0.3120651 -0.065639146 -0.12759906
-0.006286565 -0.27910715 0.28476182 -0.23940693 -0.46503568 -0.22659752 0.16039598 -0.026204223
-0.32071367 -0.115347885 0.13137917 0.12437602 -0.18130296 -0.09649695 0.34392416 0.025221989
-0.09145797 0.34476802 0.12432171 -0.051909998 -0.1895346 0.022381736 -0.3591691 0.13508074
-0.0790906 -0.060847353 -0.318117 0.13869143 -0.25426123 -0.34787276 -0.27525875 -0.25659195
0.140798 -0.3451228 0.09343461 -0.21633442 -0.07675449 -0.11947408 -0.3796015 -0.31682476
0.10517402 0.1045329 -0.2769882 -0.24775258 0.110770755 -0.18835865 -0.29977635 -0.08757927
0.15932468 -0.2888272 0.09648214 -0.004970961 -0.032115817 0.24216157 0.22490138 0.05831867
-0.13674283 -0.014040115 0.02639756 -0.05668558 0.049844977 -0.09272415 0.057998084 -0.10554241
0.07850334 -0.02365674 0.1172024 -0.073351525 -0.38996458 -0.008793695 -0.06517091 0.63759446
-0.16588983 0.021651853 -0.081030786 0.15065184 -0.14642473 0.13393931 0.18393755 -0.036504753
0.4665143 0.3787551 0.35947096 0.21902233 -0.34153545 0.058301937 -0.0061816797 0.005798473
-0.071452536 -0.14793228 -0.009394501 -0.09345288 0.06874962 -0.1329187 -0.038810495 0.06602402
-0.08034781 -0.0065138917 0.42235747 -0.01268553 0.13001019 -0.1252892 -0.06325369 -0.27605516
0.5526086 0.630475 -0.43798274 -0.16903557 0.17002553 0.07227849 0.020880627 0.81828773
-0.060837314 0.31509292 -0.43293777 -0.06863964 -0.13577169 0.07625155 -0.21550657 -0.030085811
-0.60051423 -0.13469094 0.5687426 -0.13871112 -0.057739656 -0.19291525 0.022790903 -0.06694019
0.08118648 -0.023552861 -0.15436032 -0.103536785 0.5715224 -0.010312555 -0.47322562 0.1821314
-0.049852155 0.08153615 -0.07246265 -0.05145762 0.2002168 -0.17030317 -0.07134798 0.049288522
-0.1804182 -0.48844805 0.28953025 -0.2164891 -0.22054446 -0.11675534 -0.39298025 -0.109077655
0.08264111 -0.15263453 0.10966724 0.7300081 -0.10032187 -0.30449665 0.16856934 -0.17186736
0.7278471 0.23798044 -0.49180272 0.21394293 -0.46580705 0.41332054 0.27033082 -0.3950653
0.11153609 0.062355842 0.27724823 0.18162867 -0.21685861 0.11926165 0.08905692 0.16681416
00000000: 350a 6cbd ae25 10be a827 9b3d 3593 aebe
00000010: 04f8 c5bd 4eaf 743e f8fb 81bd 7623 56be
00000020: 1592 e1be eb6e f0bd 6219 233d af3e 48bd
00000030: 1d94 f4bd ffc6 9fbe d16d 86bd 54a9 02be
00000040: 88ff cdbb 22e7 8ebe 4dcc 913e 1727 75be
00000050: 2819 eebe 2e09 68be d83e 243e 3daa d6bc
00000060: 9534 a4be 833b ecbd 4388 063e dbb8 fe3d
00000070: 7ca7 39be 31a0 c5bd d416 b03e 589e ce3c
00000080: 514e bbbd 6f85 b03e 619c fe3d 949f 54bd
00000090: 5c15 42be e759 b73c 03e5 b7be 9b52 0a3e
000000a0: 41fa a1bd 133b 79bd 3be0 a2be 2005 0e3e
000000b0: 872e 82be 611c b2be b7ee 8cbe 0560 83be
000000c0: 5a2d 103e f0b3 b0be a55a bf3d c586 5dbe
000000d0: 7531 9dbd d4ae f4bd 215b c2be db36 a2be
000000e0: 7a65 d73d 5815 d63d 66d1 8dbe dab2 7dbe
000000f0: c7db e23d 17e1 40be 497c 99be c35c b3bd
00000100: 0226 233e 29e1 93be 6e98 c53d 71e3 a2bb
00000110: e08b 03bd 34f9 773e 8c4c 663e 8fdf 6e3d
00000120: 5006 0cbe 8308 66bc b23f d83c 242f 68bd
00000130: 3f2a 4c3d 29e6 bdbd 668f 6d3d 9e26 d8bd
00000140: 5cc6 a03d c8cb c1bc d007 f03d 5339 96bd
00000150: 70a9 c7be 6e13 10bc 5378 85bd 6439 233f
00000160: 06df 29be 3a5f b13c 78f3 a5bd 7a44 1a3e
00000170: 5df0 15be 6327 093e 205a 3c3e 0286 15bd
00000180: f6da ee3e 30ec c13e 940c b83e 6447 603e
00000190: bcdd aebe 03ce 6e3d b08f cabb 1e01 be3b
000001a0: b555 92bd 8f7b 17be 65eb 19bc 3964 bfbd
000001b0: 9acc 8c3d d71b 08be c1f7 1ebd 9a37 873d
000001c0: 658d a4bd 7c72 d5bb 3d3f d83e f8d6 4fbc
000001d0: 6421 053e d04b 00be 278b 81bd 1a57 8dbe
000001e0: c277 0d3f cf66 213f 463f e0be a917 2dbe
000001f0: 2c1b 2e3e bf06 943d d90d ab3c 4e7b 513f
00000200: 8c30 79bd dc53 a13e 05aa ddbe f192 8cbd
00000210: bc07 0bbe c629 9c3d c1ad 5cbe 8576 f6bc
00000220: 4dbb 19bf 6cec 09be 1d99 113f 4a0a 0ebe
00000230: 6b80 6cbd 938b 45be fdb3 ba3c f017 89bd
00000240: 1945 a63d eef1 c0bc a210 1ebe 180b d4bd
00000250: 4b4f 123f fef5 28bc a14a f2be a780 3a3e
00000260: c631 4cbd 6dfc a63d 4c67 94bd 3ac5 52bd
00000270: a205 4d3e f463 2ebe e41e 92bd c3e2 493d
00000280: 8cbf 38be dd15 fabe 4f3d 943e 52af 5dbe
00000290: 68d6 61be 6c1d efbd b534 c9be 1b64 dfbd
000002a0: be3f a93d 3a4c 1cbe 3899 e03d d0e1 3a3f
000002b0: 8d75 cdbd fce6 9bbe 719d 2c3e fffd 2fbe
000002c0: 3054 3a3f 25b1 733e 91cd fbbe db13 5b3e
000002d0: 437e eebe c09e d33e cd68 8a3e 0046 cabe
000002e0: 096d e43d d768 7f3d 7bf3 8d3e defc 393e
000002f0: 2f10 5ebe 743f f43d 7963 b63d 55d1 2a3e

gru1.bias_hh_l0 f4 [192]
-0.057631284 -0.14075978 0.07575795 -0.34096685 -0.096767806 0.2389375 -0.06347109 -0.20911826
-0.44056758 -0.11740053 0.039818443 -0.048888505 -0.11942255 -0.31205255 -0.06562704 -0.12759216
-0.006304477 -0.2790758 0.28475863 -0.23941113 -0.4650355 -0.22659743 0.16039887 -0.026203237
-0.3207161 -0.115358315 0.13138105 0.124376744 -0.18130071 -0.096500464 0.34392327 0.025220167
-0.091450885 0.34476835 0.12432128 -0.051910195 -0.18953331 0.0223132 -0.35917374 0.13507557
-0.07908571 -0.060854793 -0.31812608 0.1386909 -0.2542603 -0.34787032 -0.27538994 -0.2565903
0.14079335 -0.3451224 0.093435906 -0.2163348 -0.076838546 -0.119470865 -0.37962782 -0.31684318
0.10517394 0.1045327 -0.27704883 -0.24777263 0.11077648 -0.18835607 -0.29976445 -0.08757937
0.15876685 -0.28882697 0.09646074 -0.004970958 -0.032115832 0.24216296 0.22490124 0.05831859
-0.1367502 -0.0140401535 0.026397616 -0.056685522 0.049845017 -0.092554785 0.05799806 -0.1055424
0.07850326 -0.023656696 0.11721469 -0.07335942 -0.38996464 -0.008793727 -0.06517085 0.62993556
-0.16588977 0.021651842 -0.08100399 0.15062813 -0.1464247 0.1339395 0.18312712 -0.036504738
0.46651548 0.37875676 0.35946894 0.21911864 -0.3415354 0.058302104 -0.0061817644 0.005879189
-0.07145268 -0.14793223 -0.009394739 -0.09345297 0.06874955 -0.1329198 -0.038810402 0.066024005
-0.08034778 -0.006545283 0.42235515 -0.012685548 0.13012892 -0.12528928 -0.06325266 -0.2760542
0.5521705 0.6304697 -0.43798268 -0.16903555 0.17002548 0.072278485 0.020876633 0.818278
-0.16441034 0.25846696 -0.21992378 -0.12046369 0.007888731 -0.031518348 0.06748292 0.00011938671
-0.11462058 -0.22115897 0.448548 -0.01477966 -0.081226915 0.0064591006 0.130652 -0.0602734
-0.2540917 -0.043848284 -0.053065944 -0.014879063 0.086939715 0.14801145 -0.4042377 0.11591066
-0.06995382 -0.011325898 0.055470653 0.048829604 0.18796676 -0.011670139 -0.18254077 0.03487751
-0.10056519 -0.4399971 0.27512974 0.016579624 -0.12139032 -0.060390543 -0.04651704 0.29162723
0.15273868 -0.18589543 0.032245226 0.416735 -0.03205322 -0.0736559 -0.07220072 -0.02890889
0.44129032 0.10079771 -0.26098493 0.1064929 -0.11451361 0.34428483 -0.02314658 0.030371096
0.23381592 0.19488493 0.11409556 -0.06045757 -0.29036358 0.08049917 0.059497442 0.10453274
00000000: c80e 6cbd 5523 10be fc26 9b3d 3593 aebe
00000010: 332e c6bd 08ac 743e 21fd 81bd 1923 56be
00000020: 1392 e1be b06f f0bd aa18 233d 503f 48bd
00000030: cf93 f4bd 5ac5 9fbe 7867 86bd 85a7 02be
00000040: c995 cebb 06e3 8ebe e2cb 913e 3128 75be
00000050: 2219 eebe 2809 68be 9a3f 243e 2ca8 d6bc
00000060: e734 a4be fb40 ecbd c188 063e 3cb9 fe3d
00000070: e5a6 39be 09a2 c5bd b616 b03e 869a ce3c
00000080: 9a4a bbbd 7a85 b03e 289c fe3d c99f 54bd
00000090: 0515 42be 2cca b63c 9fe5 b7be 4051 0a3e
000000a0: b0f7 a1bd e042 79bd 6ce1 a2be fd04 0e3e
000000b0: 682e 82be 0f1c b2be e9ff 8cbe ce5f 83be
000000c0: 222c 103e e2b3 b0be 535b bf3d df86 5dbe
000000d0: 875d 9dbd 24ad f4bd 945e c2be 4539 a2be
000000e0: 6f65 d73d 3d15 d63d 58d9 8dbe 1cb8 7dbe
000000f0: c7de e23d 6ae0 40be ba7a 99be d05c b3bd
00000100: c793 223e 21e1 93be 358d c53d 6be3 a2bb
00000110: e48b 03bd 91f9 773e 834c 663e 79df 6e3d
00000120: 3f08 0cbe ac08 66bc d03f d83c 142f 68bd
00000130: 4a2a 4c3d 5d8d bdbd 608f 6d3d 9d26 d8bd
00000140: 51c6 a03d b0cb c1bc 410e f03d 773d 96bd
00000150: 72a9 c7be 9013 10bc 4b78 85bd 7543 213f
00000160: 02df 29be 345f b13c 6be5 a5bd 433e 1a3e
00000170: 5bf0 15be 7027 093e ad85 3b3e fe85 15bd
00000180: 1edb ee3e 68ec c13e 500c b83e a360 603e
00000190: badd aebe 30ce 6e3d 6690 cabb 36a6 c03b
000001a0: c855 92bd 8c7b 17be 64ec 19bc 4564 bfbd
000001b0: 90cc 8c3d 211c 08be a8f7 1ebd 9837 873d
000001c0: 608d a4bd d079 d6bb ef3e d83e 0bd7 4fbc
000001d0: 8440 053e d54b 00be 9c8a 81bd fa56 8dbe
000001e0: 0c5b 0d3f 7666 213f 443f e0be a817 2dbe
000001f0: 291b 2e3e be06 943d 7905 ab3c ab7a 513f
00000200: 2f5b 28be c855 843e b333 61be abb5 f6bd
00000210: bc3f 013c 6219 01bd 7c34 8a3d 405f fa38
00000220: 32be eabd 7f77 62be 15a8 e53e 6326 72bc
00000230: 4c5a a6bd dda6 d33b a3c9 053e 3ee1 76bd
00000240: 4f18 82be 429a 33bd ad5b 59bd 50c7 73bc
00000250: 730d b23d 5090 173e 3ef8 cebe 9162 ed3d
00000260: f343 8fbd 4290 39bc 3235 633d 8d01 483d
00000270: 5c7a 403e 1c34 3fbc f8eb 3abe b8db 0e3d
00000280: 1ff5 cdbd 4d47 e1be cedd 8c3e fed1 873c
00000290: 7d9b f8bd 135c 77bd a788 3ebd 2a50 953e
000002a0: 8767 1c3e 5f5b 3ebe 9213 043d 4a5e d53e
000002b0: 3d4a 03bd e8d8 96bd f9dd 93bd 56d2 ecbc
000002c0: cef0 e13e 086f ce3d d19f 85be f318 da3d
000002d0: 1d86 eabd 1a46 b03e e69d bdbc cecc f83c
000002e0: 716d 6f3e ea8f 473e efaa e93d 5ba2 77bd
000002f0: 89aa 94be c0dc a43d 97b3 733d 4315 d63d

gru2.weight_ih_l0 f4 [192, 64]
-0.009869097 0.016669553 0.02283169 0.025335487 -0.07218669 0.027925573 -0.046360757 -0.014501962
0.000595788 -0.029748892 -0.02025644 -0.01247551 0.0012360839 -0.009789045 0.0231031 -0.017394906
-0.0051485226 0.006431748 -0.032920998 0.002514098 0.025542803 -0.04939637 0.019144004 -0.0372523
0.039486635 -0.0038472605 0.036313463 -0.0451768 0.0039298795 0.019371182 0.04210611 -0.007326201
0.024499275 0.022452982 -0.085230686 0.017390028 -0.013183719 -0.027213858 -0.026825285 0.024680031
-0.038117275 0.0016497861 0.042908873 -0.08201193 0.00537843 -0.030818604 0.03888481 -0.004273435
-0.08148316 0.03387952 0.017480783 0.030171653 0.004327217 0.0044836774 0.0412675 -0.02778387
0.06384594 0.031556256 0.030422932 -0.010039972 -0.04769659 0.013912741 0.030832421 0.008926645
0.057826128 0.0125251375 0.014019459 -0.016923426 0.029565638 0.06334186 0.030659143 0.028145758
-0.004196198 0.05446623 0.03972669 -0.010364046 0.002588288 0.025303736 -0.010760441 0.054089457
-0.106893204 0.0626511 -0.017272793 0.03347598 0.025041386 -0.01946237 -0.0030851155 0.04356038
0.009209408 0.0403167 -0.08843447 0.03851705 0.029674806 -0.04935956 0.024756609 0.026510986
0.005674414 0.082142346 0.059908845 0.001803589 0.0167523 0.054237142 -0.008554024 -0.067408234
0.016968831 0.05391755 0.033852052 0.048610464 -0.04871538 3.908947e-05 0.00927191 0.016333252
0.049450185 0.0063967016 0.083488256 0.040711883 0.04246471 -1.9983388e-05 0.036113918 -0.02128871
-0.007747265 0.038755745 0.014172382 0.014265319 0.072509095 -0.042838886 -0.028377157 -0.04345579
-0.022640094 -0.018111886 0.020513337 -0.014684924 -0.021931851 -0.035773095 0.02863591 -0.0025597962
0.05253073 0.01849349 0.008833421 -0.0023541017 0.04789706 0.009322069 -0.024650378 0.020816157
0.036999345 -0.033793673 0.04289579 0.005816059 -0.057104256 0.022690212 0.06284707 0.006644552
-0.0020765697 -0.019567221 0.05928556 -0.02397513 -0.0053896513 -0.020792656 -0.059196293 -0.020100202
0.019859232 -0.014580903 -0.038449556 -0.0068307337 -0.0010890884 -0.016655082 0.041800547 0.017649306
-0.0014700156 -0.00819966 -0.012846719 -0.059275415 0.016683422 0.027440477 -0.020604068 -0.023452327
-0.05910894 -0.026137779 0.05745487 -0.009855893 0.0122792 -0.0111016715 -0.023755772 0.03140545
-0.014578324 0.013271683 -0.034056515 -0.028573032 0.03260342 -0.0062875636 -0.009399252 0.033811156
-0.030611489 0.019532047 -0.072718985 -0.014303192 0.013131361 -0.058915444 0.030184522 -0.045185078
-0.042205527 -0.045979727 -0.058690343 -0.024706017 0.004993592 -0.033307698 0.036790565 0.013944535
-0.02462595 -0.04775186 0.014901315 -0.046750147 -0.0010458976 0.029897593 -0.05899907 0.032067753
-0.01845026 -0.0039107837 -0.011731911 0.032628633 -0.0038924078 0.043569885 -0.054880638 -0.011331334
-0.012497431 -0.045303144 0.07201973 0.047192797 -0.023522038 0.072950676 -0.005817186 0.04900461
-0.006160386 -0.056054834 -0.012949287 0.06916799 0.04915008 0.027301623 -0.035127465 -0.06808397
0.07037008 -0.058334656 -0.076074004 -0.0056660534 -0.029070111 -0.02913753 -0.051525626 0.014928277
0.0126822125 -0.09821958 -0.005601758 -0.014181715 0.013066523 0.00961896 -0.042443324 0.062266186
00000000: feb1 21bc 968e 883c 8609 bb3c 5e8c cf3c
00000010: 9ed6 93bd 2cc4 e43c c7e4 3dbd a399 6dbc
00000020: a82e 1c3a f3b3 f3bc d5f0 a5bc 1566 4cbc
00000030: 1804 a23a 3b62 20bc b642 bd3c c37f 8ebc
00000040: f0b4 a8bb 6ac1 d23b 2bd8 06bd 91c3 243b
00000050: 243f d13c d953 4abd e3d3 9c3c de95 18bd
00000060: bdbc 213d 5222 7cbb 6dbd 143d 4f0b 39bd
00000070: 38c6 803b 50b0 9e3c 7577 2c3d a110 f0bb
00000080: b4b2 c83c 51ef b73c 6d8d aebd 8875 8e3c
00000090: 8600 58bc 99ef debc b3c0 dbbc c72d ca3c
000000a0: dc20 1cbd a33d d83a 37c1 2f3d dff5 a7bd
000000b0: 8a3d b03b 4c77 fcbc ae45 1f3d 2c08 8cbb
000000c0: a5e0 a6bd 40c5 0a3d dc33 8f3c 8b2a f73c
000000d0: 54cb 8d3b d0eb 923b 1c08 293d 009b e3bc
000000e0: a9c1 823d 2241 013d 8339 f93c b27e 24bc
000000f0: 805d 43bd 44f2 633c 4694 fc3c 1041 123c
00000100: 17db 6c3d 3c36 4d3c dfb1 653c ffa2 8abc
00000110: a333 f23c 61b9 813d e228 fb3c ef91 e63c
00000120: 4380 89bb fb17 5f3d 74b8 223d f6cd 29bc
00000130: 44a0 293b c849 cf3c 904c 30bc e88c 5d3d
00000140: d3ea dabd 384f 803d ac7f 8dbc 1c1e 093d
00000150: 9823 cd3c 8c6f 9fbc a62f 4abb 5e6c 323d
00000160: 0fe3 163c 2023 253d 221d b5bd 0ec4 1d3d
00000170: 9418 f33c 402d 4abd 5fce ca3c 912d d93c
00000180: 6ff0 b93b 3f3a a83d fa62 753d 6866 ec3a
00000190: 1f3c 893c c427 5e3d 2d26 0cbc 540d 8abd
000001a0: 3802 8b3c a6d8 5c3d 73a8 0a3d c41b 473d
000001b0: c789 47bd 00f4 2338 36e9 173c 50cd 853c
000001c0: 478c 4a3d 6c9b d13b e4fb aa3d 81c1 263d
000001d0: 7aef 2d3d 00a2 a7b7 30ec 133d a965 aebc
000001e0: c5dc fdbb 58be 1e3d 4733 683c 16b9 693c
000001f0: a67f 943d d477 2fbd 3677 e8bc b3fe 31bd
00000200: b877 b9bc 615f 94bc 960b a83c 0999 70bc
00000210: 6daa b3bc cf86 12bd db95 ea3c 41c2 27bb
00000220: 762a 573d a97f 973c 0eba 103c 4647 1abb
00000230: b52f 443d 97bb 183c 97ef c9bc a586 aa3c
00000240: a08c 173d 3c6b 0abd 7fb3 2f3d a494 be3b
00000250: 27e6 69bd d3e0 b93c f7b5 803d 8bba d93b
00000260: 0f17 08bb 704b a0bc 6ad5 723d 7e67 c4bc
00000270: ac9b b0bb 5c55 aabc d077 72bd 2ea9 a4bc
00000280: d4af a23c bde4 6ebc 487d 1dbd 59d4 dfbb
00000290: bebf 8eba 3d70 88bc 0d37 2b3d 4795 903c
000002a0: 8aad c0ba de57 06bc 0b7b 52bc c7ca 72bd
000002b0: acab 883c daca e03c ddc9 a8bc 181f c0bc
000002c0: 371c 72bd e51e d6bc cc55 6b3d 9d7a 21bc
000002d0: b32e 493c c9e3 35bc 779b c2bc 00a3 003d
000002e0: ecd9 6ebc 7971 593c d87e 0bbd fe11 eabc
000002f0: 2a8b 053d e807 cebb 52ff 19bc 917d 0a3d
00000300: f2c4 fabc ac01 a03c b1ed 94bd ef57 6abc
00000310: ec24 573c 5251 71bd 8845 f73c fd13 39bd
00000320: b4df 2cbd 3d55 3cbd 4965 70bd 4664 cabc
00000330: 49a1 a33b a76d 08bd b4b1 163d 9e77 643c
00000340: 5cbc c9bc 7497 43bd a524 743c 157d 3fbd
00000350: 8016 89ba cceb f43c 02a9 71bd 7a59 033d
00000360: 0025 97bc 0826 80bb 3437 40bc 9aa5 053d
00000370: c417 7fbb 5676 323d 85ca 60bd 0fa7 39bc
00000380: 06c2 4cbc ca8f 39bd 157f 933d 3c4d 413d
00000390: 4ab1 c0bc 2a67 953d 189e bebb 0fb9 483d
000003a0: 10dd c9bb c199 65bd 3f29 54bc f2a7 8d3d
000003b0: 9851 493d a7a7 df3c d1e1 0fbd 9c6f 8bbd
000003c0: 301e 903d 52f0 6ebd b0cc 9bbd 4daa b9bb
000003d0: 7124 eebc d4b1 eebc 890c 53bd bb95 743c
000003e0: 0ec9 4f3c 5927 c9bd f48e b7bb 6d5a 68bc
000003f0: f814 563c d898 1d3c 0dd9 2dbd d40a 7f3d

gru2.weight_hh_l0 f4 [192, 64]
-0.014465862 0.025344083 -0.0038527534 -0.010920769 0.012561129 0.0578017 -0.0013645098 -0.023426464
-0.04056456 -0.021887556 0.06358347 0.012930116 0.0064033503 0.018653374 0.008576008 0.0118259
0.025542827 0.027081996 -0.004528205 0.033982296 -0.017938271 0.00013146282 0.005450726 0.044418246
-0.034641303 0.004166045 -0.035471134 0.00060066767 0.08379583 0.06391722 -0.0055711586 0.03142693
-0.045195024 0.011804897 0.023648132 0.0066631804 -0.00041348487 -0.039576836 -0.029292122 0.01606967
-0.02078292 0.018069614 -0.04403398 0.03152117 -0.0091049075 0.02713787 0.028399352 0.016073478
-0.017618857 -0.048649773 0.004443799 0.030759957 0.005145087 -0.053555895 -0.008611047 -0.020236155
-0.015632031 -0.053971376 -0.06259356 -0.030111108 0.023605626 -0.022110501 0.020006584 -0.029977432
0.009827235 0.03364252 0.070507735 0.008415086 0.040669154 -0.0065123276 0.102538764 0.024218278
0.036327727 0.02193469 0.025123518 -0.014047764 0.0026422553 -0.04222931 0.068589814 0.023033006
0.002453213 0.014686494 -0.036776215 0.066677764 0.06436666 -0.020446993 -0.07855701 -0.065653175
-0.038747255 0.018734485 -0.02804068 0.020940922 0.009494007 -0.02433435 -0.024297703 -0.02109211
0.027965551 0.010958314 0.06169852 0.022003172 0.039560527 -0.03471397 -0.07562389 -0.023923807
0.029386038 0.032679193 -0.022861967 0.014388097 0.03275845 -0.04121116 0.050894544 0.0023149925
0.0044521317 0.05251585 -0.005768042 0.033008866 0.023078587 0.01882505 0.036512785 0.00962768
0.011786282 0.0016165555 -0.07676441 -0.03845467 -0.029041104 -0.021820895 0.057121195 0.0028396137
-0.0402597 0.016487468 -0.013126901 -0.00023691752 -0.013010489 -0.027575376 -0.019886838 0.051040377
-0.019992035 0.06989499 0.040175993 -0.04536795 -0.051389433 -0.0036015646 0.008068578 0.0002174807
0.005208973 -0.05069095 0.04574949 -0.07971332 -0.03170796 0.0497847 0.031536482 0.09105783
0.040351834 -0.014911036 0.0003714522 0.03732098 0.04263372 0.024144694 0.04764229 -0.0629462
-0.033538472 -0.03880508 -0.06312138 0.013886396 -0.050501034 0.064712085 -0.04821748 0.03998653
-0.008404438 -0.04524843 0.0078662615 -0.02517061 0.05948902 0.027220592 -0.036139026 -0.015054907
0.031710763 -0.054189313 0.015501859 -0.022269955 -0.05446045 -0.028535035 0.00084952015 0.026101118
-0.072497375 -0.03611206 0.059877742 -0.01861577 0.029852392 0.0119335465 -0.0023684548 -0.030097872
0.05215717 0.019531528 -0.03396641 0.040423386 -0.024451457 0.009647549 -0.05391051 0.014521049
0.026728842 0.015914928 -0.14269811 -0.018392174 0.03798999 0.021718264 0.00566103 0.04668103
-0.02034698 0.026006598 -0.02502961 0.002469482 -0.008720351 0.018931864 -0.002006351 -0.08112087
0.00591145 0.020164367 0.047756486 -0.012714994 -0.12685011 -0.029378006 -0.06047769 0.030559348
0.07244871 0.005555072 0.0021822567 -0.055801928 0.037032787 0.01209962 0.056119446 -0.07432495
0.017064217 -0.043963563 0.013854783 0.017043144 -0.113905825 -0.032122247 0.02921884 -0.014092823
0.0017526746 0.022534484 0.018587027 -0.03812747 0.039351 0.09330714 -0.008671302 0.0011265748
0.10629658 0.103483215 -0.017021406 0.04545474 -0.045150504 -0.0016317312 -0.0038765026 0.08554668
00000000: 3902 6dbc 659e cf3c 7a7e 7cbb 06ed 32bc
00000010: 32cd 4d3c 7ac1 6c3d 5ad9 b2ba dbe8 bfbc
00000020: 0627 26bd 884d b3bc 0d38 823d d6d8 533c
00000030: 32d3 d13b f6ce 983c 6282 0c3c 6bc1 413c
00000040: 313f d13c 10db dd3c 5661 94bb 0531 0b3d
00000050: 48f3 92bc 48d9 0939 019c b23b e8ef 353d
00000060: 0ae4 0dbd 5283 883b 2e4a 11bd 2076 1d3a
00000070: 269d ab3d 08e7 823d 448e b6bb 86b9 003d
00000080: 6b1e 39bd 5469 413c bab9 c13c cf56 da3b
00000090: 00c9 d8b9 521b 22bd 08f6 efbc 8aa4 833c
000000a0: f140 aabc ba06 943c fa5c 34bd 581c 013d
000000b0: c02c 15bc 3d50 de3c c2a5 e83c 87ac 833c
000000c0: 6c55 90bc fc44 47bd 4a9d 913b 4efc fb3c
000000d0: 1e98 a83b 6d5d 5bbd 5915 0dbc 4bc6 a5bc
000000e0: bf0e 80bc 1711 5dbd 0d31 80bd 92ab f6bc
000000f0: 9660 c13c 1521 b5bc d9e4 a33c 3b93 f5bc
00000100: 6902 213c bdcc 093d 5c66 903d 6edf 093c
00000110: b394 263d 5d65 d5bb d8ff d13d 6965 c63c
00000120: 62cc 143d 61b0 b33c d6cf cd3c 9828 66bc
00000130: b029 2d3b a4f8 2cbd d178 8c3d b7af bc3c
00000140: 16c6 203b 9f9f 703c a8a2 16bd 5a8e 883d
00000150: abd2 833d 7480 a7bc 7fe2 a0bd 2c75 86bd
00000160: 71b5 1ebd 1079 993c 91b5 e5bc 4c8c ab3c
00000170: c08c 1b3c d558 c7bc fa0b c7bc 5cc9 acbc
00000180: 0318 e53c 808a 333c 96b7 7c3d ff3f b43c
00000190: 380a 223d 3c30 0ebd b3e0 9abd dcfb c3bc
000001a0: fdba f03c 9eda 053d 0549 bbbc 0ebc 6b3c
000001b0: b92d 063d 09cd 28bd cc76 503d 21b7 173b
000001c0: 30e3 913b dc1a 573d d801 bdbb 4e34 073d
000001d0: 4e0f bd3c fe36 9a3c 6e8e 153d 6bbd 1d3c
000001e0: 401b 413c 9ae2 d33a a936 9dbd a582 1dbd
000001f0: 9ce7 edbc bcc1 b2bc eaf7 693d d018 3a3b
00000200: 5be7 24bd ba10 873c 3712 57bc 106d 78b9
00000210: f229 55bc c1e5 e1bc b9e9 a2bc b70f 513d
00000220: 56c6 a3bc 1b25 8f3d 958f 243d bed3 39bd
00000230: ba7d 52bd 3a08 6cbb 1232 043c 880b 6439
00000240: 08b0 aa3b 50a1 4fbd d163 3b3d bd40 a3bd
00000250: 35e0 01bd 0beb 4b3d 662c 013d 877c ba3d
00000260: f747 253d 6b4d 74bc 78bf c239 e2dd 183d
00000270: b2a0 2e3d 18cb c53c 9024 433d f0e9 80bd
00000280: a35f 09bd 13f2 1ebd c845 81bd c483 633c
00000290: 2cda 4ebd c587 843d b17f 45bd eac8 233d
000002a0: c5b2 09bc 6b56 39bd 7ee1 003c 9832 cebc
000002b0: c2aa 733d b8fd de3c 8406 14bd dba8 76bc
000002c0: 25e3 013d 9df5 5dbd 82fb 7d3c 7b6f b6bc
000002d0: ec11 5fbd 4ec2 e9bc 55b2 5e3a 03d2 d53c
000002e0: 8179 94bd 3dea 13bd 5d42 753d 1980 98bc
000002f0: 018d f43c ec84 433c 1438 1bbb d08f f6bc
00000300: c2a2 553d 9500 a03c 5d20 0bbd fe92 253d
00000310: 6c4e c8bc c110 1e3c 44d1 5cbd b2e9 6d3c
00000320: 72f6 da3c 0660 823c 741f 12be 2fab 96bc
00000330: 649b 1b3d 80ea b13c 2980 b93b 9c34 3f3d
00000340: b6ae a6bc ca0b d53c e60a cdbc 08d7 213b
00000350: cedf 0ebc ff16 9b3c fc7c 03bb b322 a6bd
00000360: d6b4 c13b be2f a53c 4e9c 433d 8d52 50bc
00000370: ffe4 01be 25aa f0bc 74b7 77bd 9957 fa3c
00000380: fd5f 943d 5207 b63b 3104 0f3b 9090 64bd
00000390: b1af 173d 7c3d 463c 81dd 653d ae37 98bd
000003a0: 42ca 8b3c 2313 34bd 2cff 623c 109e 8b3c
000003b0: 7547 e9bd 9e92 03bd 595c ef3c 95e5 66bc
000003c0: 00ba e53a 3d9a b83c d243 983c 8d2b 1cbd
000003d0: 842e 213d d017 bf3d 1412 0ebc 94a9 933a
000003e0: 05b2 d93d 02ef d33d 7a70 8bbc c02e 3a3d
000003f0: bcef 38bd d0df d5ba ec0c 7ebb 1933 af3d

gru2.bias_ih_l0 f4 [192]
-0.095977895 0.047568224 -0.0456929 0.08294863 -0.037696674 -0.22950238 -0.049267244 -0.09610663
0.09860493 -0.10567992 0.07525099 -0.103588 -0.14531623 -0.09664931 -0.15024748 0.071751975
-0.11090254 -0.17119871 -0.05035434 -0.23381549 0.03754419 -0.17983072 -0.018282374 -0.034418005
-0.10068774 -0.075527065 -0.04598265 -0.15071458 0.073197156 -0.08624418 -0.033979326 0.008912913
-0.08159691 0.062235642 -0.14330211 -0.13426797 -0.12410637 -0.08983601 -0.15509748 -0.16132051
-0.11192582 -0.115778685 -0.15164784 0.107737415 -0.09371297 -0.12382415 -0.16940625 -0.14509997
-0.1613036 -0.11525917 0.024897698 0.10098226 -0.13734727 -0.14665572 -0.11735174 -0.17121892
-0.03470807 -0.19782235 -0.01290609 -0.17042466 -0.08488293 -0.15524167 -0.07798418 -0.112906866
0.19465514 0.24617878 0.50023234 0.24780367 0.2538997 0.42009687 0.71054846 0.35885254
0.41939497 0.30389047 0.2927913 0.20431823 0.04848919 0.62221766 0.50535125 -0.34165937
0.33939093 0.45326218 0.35485235 0.058491368 0.61863524 0.4191435 0.67096096 0.08962905
0.36245957 0.33646566 0.37779546 0.16618593 0.310191 0.06546892 0.3932305 -0.086516164
0.07823264 0.45684522 0.389346 0.2777801 -0.20115727 0.0015146842 0.1713301 0.11829819
0.43546897 0.33961868 0.6175243 0.11974783 0.22148335 0.3437224 0.21462765 0.25085726
0.45498806 0.21338916 0.46130052 0.50323075 0.12879133 0.058236126 0.25815707 0.34641108
-0.009323347 -0.08144689 0.45896313 0.36537796 0.25514627 0.41889817 0.42271623 0.090454176
0.01223223 0.036235504 0.06696527 0.012679867 -0.04245929 0.08618396 0.1547431 -0.020730771
0.52351093 -0.26126838 0.07972056 -0.020496793 0.4319642 -0.08527002 -0.36766878 0.44394815
-0.00014840998 0.2628424 -0.10054542 0.3377213 0.37427136 -0.17969364 -0.21759273 -0.32181254
-0.066790365 0.002940545 -0.022122348 -0.10777206 -0.3056841 -0.23120153 -0.066051774 0.38947806
0.12147315 0.37488425 0.1849515 0.09738247 0.23876968 -0.1979968 0.10807048 -0.5202805
0.11560302 0.07883406 0.19472578 0.15745272 -0.16762291 0.02193759 0.4112366 -0.06500351
-0.2889883 0.23892531 0.14735822 0.24723539 0.09691198 0.56277037 0.0071377843 -0.1211901
0.57888156 0.44224602 -0.10421951 -0.0016509746 -0.059381567 -0.15622252 -0.080294065 0.1099274
00000000: 0f90 c4bd e6d6 423d 7a28 3bbd f9e0 a93d
00000010: d467 1abd ac02 6bbe 73cc 49bd 8ed3 c4bd
00000020: 62f1 c93d b76e d8bd 311d 9a3d f225 d4bd
00000030: c7cd 14be 13f0 c5bd 7ada 19be b3f2 923d
00000040: df20 e3bd b74e 2fbe 5a40 4ebd 546d 6fbe
00000050: f0c7 193d 8b25 38be ebc4 95bc e5f9 0cbd
00000060: 6035 cebd efad 9abd 4e58 3cbd ec54 1abe
00000070: 64e8 953d caa0 b0bd e82d 0bbd 7707 123c
00000080: 481c a7bd cdea 7e3d cabd 12be 8b7d 09be
00000090: 7b2b febd f1fb b7bd e0d1 1ebe 3431 25be
000000a0: 5d39 e5bd 601d edbd 9249 1bbe 6fa5 dc3d
000000b0: 96ec bfbd 8497 fdbd d578 2dbe 1695 14be
000000c0: c52c 25be 000d ecbd 42f6 cb3c cacf ce3d
000000d0: c3a4 0cbe eb2c 16be 1c56 f0bd 0354 2fbe
000000e0: 0d2a 0ebd f191 4abe 1174 53bc cd83 2ebe
000000f0: 1ad7 adbd acf7 1ebe 2bb6 9fbd b73b e7bd
00000100: ad53 473e 4a16 7c3e 3a0f 003f 3fc0 7d3e
00000110: 24ff 813e f016 d73e 81e6 353f 85bb b73e
00000120: f0ba d63e 8897 9b3e bee8 953e cc38 513e
00000130: 9a9c 463d a849 1f3f b35e 013f faed aebe
00000140: a6c4 ad3e fb11 e83e 35af b53e a594 6f3d
00000150: e15e 1e3f fa99 d63e 19c4 2b3f 6f8f b73d
00000160: 4d94 b93e 3a45 ac3e 686e c13e a52c 2a3e
00000170: 5bd1 9e3e 9214 863d 8255 c93e 632f b1bd
00000180: 6f38 a03d 9ee7 e93e 5c58 c73e 3139 8e3e
00000190: 2cfc 4dbe 5e88 c63a 2871 2f3e 5246 f23d
000001a0: caf5 de3e 80e2 ad3e 1316 1e3f 5a3e f53d
000001b0: 88cc 623e 62fc af3e 5ac7 5b3e 5d70 803e
000001c0: 32f4 e83e b082 5a3e 952f ec3e bbd3 003f
000001d0: e0e1 033e 0189 6e3d 2a2d 843e cb5c b13e
000001e0: f4c0 18bc a1cd a6bd 37fd ea3e d212 bb3e
000001f0: 88a2 823e d279 d63e 436e d83e 0a40 b93d
00000200: b169 483c ae6b 143d 1625 893d 38bf 4f3c
00000210: cbe9 2dbd 3781 b03d fa74 1e3e 94d3 a9bc
00000220: d004 063f f8c4 85be 8844 a33d e4e8 a7bc
00000230: 692a dd3e 0ca2 aebd 153f bcbe 2c4d e33e
00000240: 809e 1bb9 4793 863e c2ea cdbd cee9 ac3e
00000250: 7fa0 bf3e 9c01 38be a1d0 5ebe 9dc4 a4be
00000260: 63c9 88bd 29b6 403b ed39 b5bc 99b7 dcbd
00000270: a082 9cbe 18c0 6cbe 2746 87bd ab69 c73e
00000280: eac6 f83d d4f0 bf3e ed63 3d3e 7670 c73d
00000290: 0a80 743e acbf 4abe 0e54 dd3d 1a31 05bf
000002a0: 47c1 ec3d c073 a13d 3266 473e 493b 213e
000002b0: 57a5 2bbe 76b6 b33c 9b8d d23e 8f20 85bd
000002c0: 46f6 93be d6a8 743e 13e5 163e 462b 7d3e
000002d0: ca79 c63d b811 103f 13e4 e93b 8432 f8bd
000002e0: 9531 143f 126e e23e 0a71 d5bd 8465 d8ba
000002f0: 163a 73bd ccf8 1fbe 3771 a4bd 9e21 e13d
