script/train/checkpoint/LeVoice-1.pth (torch, 229391 bytes, 14 tensors)

tf.weight f4 [64, 40]
0	0x3df2af3e	0.11849831
1	0x3e52c5e9	0.20583309
2	0x3b360199	0.0027771948
3	0x3d6ad9b3	0.05733652
4	0xbcf5294a	-0.029926915
5	0x3cb8b51b	0.022547295
6	0xbd4161a4	-0.047212258
7	0xbc997976	-0.018734675
8	0x3c9ffcb9	0.019529687
9	0xbad7200b	-0.0016412748
10	0x3ca3ddde	0.020003255
11	0xbd5dfa66	-0.054193877
12	0xbd04a87c	-0.03238724
13	0x3d8c35b6	0.06846182
14	0x3e392c2b	0.18083255
15	0x3d756685	0.059912223
16	0xbb13cf2f	-0.002255391
17	0xbd203b27	-0.039118912
18	0x3db5229a	0.0884449
19	0x3e7cff1c	0.24706692
20	0x3cb883c5	0.02252377
21	0x3e82fe5a	0.2558468
22	0xbb26559d	-0.002538062
23	0x3e512170	0.20422912
24	0x3d7f97e4	0.062400714
25	0x3c54cd2f	0.012988373
26	0x3e0b3a57	0.13596474
27	0x3e523379	0.20527448
28	0x3db11501	0.08646584
29	0x3dabeefb	0.08395191
30	0x3d836f1b	0.06417676
31	0x3e47a230	0.19495463
32	0x3e23e02b	0.16003482
33	0x3dde050c	0.10840806
34	0x3de0afd8	0.109710395
35	0x3d10054e	0.03516131
36	0x3e4828a2	0.1954675
37	0x3d946550	0.07245886
38	0x3dc23138	0.09482044
39	0xbd28d598	-0.041219324
40	0x3d53374a	0.0515664
41	0xbe1ac4d6	-0.1511415
42	0x3d1d42cf	0.03839379
43	0xbde529c0	-0.11189604
44	0xbe46eea4	-0.19426972
45	0x3d42ce28	0.047559887
46	0xbdf70f8b	-0.120635115
47	0xbe139438	-0.1441201
48	0xbe831555	-0.25602213
49	0xbe18dd79	-0.14928235
50	0xbe211ad9	-0.15732898
51	0xbe6a0a86	-0.22855577
52	0xbdc1e4ed	-0.09467492
53	0xbd135a30	-0.03597468
54	0xbd921c2b	-0.07134279
55	0xbddeae86	-0.108731315
56	0xbe20ca0b	-0.15702073
57	0xbdc9347e	-0.09824465
58	0xbe3e190a	-0.18564239
59	0xbe7aecde	-0.2450442
60	0xbe549924	-0.20761544
61	0xbd461faa	-0.04837004
62	0xbdbc392c	-0.09190592
63	0xbe32c4cc	-0.17457885
64	0xbd34ce8d	-0.044142295
65	0xbe7957d7	-0.24349914
66	0xbd19e863	-0.037575137
67	0xbc7dae46	-0.015483445
68	0xbe58af8e	-0.21160719
69	0xbd5b1cb1	-0.05349416
70	0xbd6b0b0d	-0.057383586
71	0x3d2cb7c1	0.04216743
72	0xbe0f72fb	-0.14008705
73	0xbe628fbb	-0.22125141
74	0xbdd11124	-0.102083474
75	0x3a55de7d	0.00081584585
76	0xbe069ff1	-0.1314695
77	0xbccb580e	-0.024822261
78	0x3ccbd580	0.024882078
79	0xbe509793	-0.20370321
80	0xbd4c3f81	-0.04986525
81	0xbe75deb5	-0.24010737
82	0xbe43695a	-0.19083157
83	0x3e7ff655	0.24996312
84	0xbe18277b	-0.1485881
85	0x3e3a93c8	0.18220437
86	0xbd032d5e	-0.032025687
87	0xbdd64a7c	-0.104634255
88	0xbe4d1d63	-0.20030741
89	0x3e284f76	0.16436562
90	0x3e66cbd9	0.22538699
91	0xbe307da6	-0.17235431
92	0xbe3d1b81	-0.18467523
93	0xbe0a9332	-0.13532713
94	0x3d5aa057	0.05337557
95	0xbe6d4cb2	-0.23173788
96	0xbce7b2cf	-0.028283505
97	0x3bd70f17	0.006563078
98	0xbda7b21c	-0.081882685
99	0xbe2b7823	-0.16745047
100	0x3d0b13b9	0.033954356
101	0xbe810a97	-0.25203392
102	0xbc1e7f75	-0.009673943
103	0xbe32e77b	-0.17471115
104	0xbcaea90c	-0.021320842
105	0xbe72d0c3	-0.23712449
106	0xbd66ec68	-0.0563778
107	0x3cfd1b42	0.030896787
108	0xbe47d391	-0.195143
109	0xbc478479	-0.01217758
110	0x3d2b2f05	0.04179289
111	0xbe210b1d	-0.15726896
112	0xbe2730de	-0.16327235
113	0x3ce2609c	0.027633958
114	0xbe282dd0	-0.16423726
115	0xbe61f00e	-0.2206423
116	0xbdefbff0	-0.11706531
117	0xbc889311	-0.01667169
118	0x3d3ec7fd	0.046577442
119	0xbdb42c08	-0.08797461
120	0xbe0fcfc3	-0.14044099
121	0x3de879e1	0.113513716
122	0x3e5199d5	0.20468839
123	0x3e580e70	0.21099257
124	0xbd1b3fff	-0.03790283
125	0xbd91436f	-0.0709294
126	0xbddd20ce	-0.107972726
127	0x3c2b6cdc	0.010462966
128	0xbe012dfa	-0.12615195
129	0xbe6742a1	-0.2258401
130	0xbe73d983	-0.23813443
131	0xbdb86bc9	-0.090049334
132	0xbe25c381	-0.1618786
133	0xbe5d13c2	-0.21589568
134	0xbe68e748	-0.22744477
135	0xbde9a7f8	-0.114089906
136	0xbdca0521	-0.098642595
137	0xbe6c7e42	-0.23095039
138	0xbd7e6f13	-0.062117647
139	0xbe5be7a8	-0.21475089
140	0xbd44633d	-0.047946204
141	0xbe6f4db2	-0.23369482
142	0xbe5c9b06	-0.21543512
143	0xbdb592d3	-0.08865895
144	0xbdade726	-0.08491354
145	0x3c2e30da	0.010631764
146	0xbdb85afc	-0.09001729
147	0xbdedd51a	-0.116129115
148	0xbe2b5381	-0.16731073
149	0xbe47f3fc	-0.19526666
150	0x3d6d0625	0.057867188
151	0x3c647629	0.013944187
152	0xbd12caf9	-0.0358381
153	0xbcdf6b1e	-0.027272757
154	0xbe5f25e1	-0.21791793
155	0xbc8273c8	-0.01592435
156	0xbdaecc5a	-0.08535071
157	0xbe237c90	-0.15965486
158	0xbdab60c7	-0.08368068
159	0xbe65985e	-0.22421405
160	0x3e1b4953	0.1516469
161	0x3dacce43	0.08437779
162	0x3e19814e	0.14990732
163	0x3e6600d4	0.22461253
164	0x3e35c1f0	0.17749763
165	0x3c94ef58	0.018180534
166	0x3d55288d	0.052040625
167	0x3deab990	0.114611745
168	0x3dc4a386	0.09601502
169	0x3cbd2030	0.023086637
170	0x3e7f829b	0.24952166
171	0x3e6e6019	0.23278846
172	0x3e378edd	0.17925592
173	0x3dde4556	0.108530685
174	0x3e81d09e	0.25354475
175	0x3dea1368	0.11429483
176	0x3d967eb2	0.07348384
177	0xbcd71733	-0.02625618
178	0x3e52e721	0.20595981
179	0x3d5ddbef	0.054164823
180	0x3e3f2e6f	0.18670057
181	0x3ca7c409	0.020479219
182	0x3dbb96d6	0.09159629
183	0x3d5d158b	0.053975623
184	0x3c8d7aa1	0.017270388
185	0x3e0a1bc0	0.13487148
186	0x3d8c626d	0.06854711
187	0x3e6a0d8d	0.22856732
188	0x3da508c5	0.08058313
189	0x3dbc3ff3	0.09191885
190	0x3ca67551	0.020319613
191	0x3cd6cf6c	0.026221953
192	0x3e20c549	0.15700258
193	0x3dc7b02a	0.097503975
194	0x3de8881c	0.11354086
195	0x3dd5f3b1	0.10446871
196	0xbb960cd1	-0.0045791646
197	0x3df79182	0.120883
198	0xbd3e6d79	-0.04649112
199	0x3e56e2ab	0.20984904
200	0xbdc1101f	-0.09426903
201	0xbe615e0b	-0.22008531
202	0xbd165aca	-0.036707677
203	0xbe4a6420	-0.19764757
204	0xbbe6fbdb	-0.0070490665
205	0xbe08093a	-0.1328477
206	0x3d5d919f	0.054093953
207	0xbe690a2f	-0.22757791
208	0xbc4e8098	-0.012603901
209	0x3d0a62dc	0.033785686
210	0x3d78e445	0.06076457
211	0x3db97ca0	0.090569735
212	0x3ba51e7a	0.0050390335
213	0x3c6306e1	0.0138566205
214	0xbdc1c119	-0.094606586
215	0xbe3eb0ed	-0.1862218
216	0x3c8646dc	0.01639121
217	0xbdff3716	-0.12461679
218	0xbe1e0eaf	-0.15435289
219	0xbe0f4e68	-0.13994753
220	0xbd545050	-0.051834404
221	0xbe1f8467	-0.15577851
222	0x3c536126	0.01290158
223	0xbe34b0dc	-0.17645591
224	0xbdbf450b	-0.09339341
225	0xbddbb545	-0.10727934
226	0xbdf365fc	-0.11884686
227	0xbe2d791a	-0.16940728
228	0xbe0986a0	-0.13430262
229	0xbe62976c	-0.22128075
230	0xbe411b29	-0.18858017
231	0xbe1432ad	-0.14472456
232	0x3d3e1d84	0.046414867
233	0xbc83697a	-0.016041506
234	0xbe378610	-0.17922235
235	0xbe73e584	-0.23818022
236	0xbd6ddbc4	-0.058070913
237	0xbe19776f	-0.14986967
238	0xbca69e84	-0.020339258
239	0xbc26fb78	-0.010191791
240	0xbcf45ca2	-0.029829327
241	0x3e4d8019	0.20068397
242	0x3d97543a	0.07389112
243	0x3d269cd7	0.040676918
244	0xbe3e8d9d	-0.18608709
245	0x3ca41ee7	0.020034267
246	0x3e271aee	0.16318867
247	0x3ba774f2	0.0051103765
248	0xbd4aa93f	-0.049477812
249	0xbe7dcbac	-0.24784726
250	0xbe1d5ed6	-0.15368208
251	0xbe76a8d4	-0.2408784
252	0xbd5c7fa1	-0.053832654
253	0xbd32d9da	-0.04366479
254	0x3d5c19ce	0.053735547
255	0x3da820f6	0.08209412

tf.bias f4 [64]
0	0x3c669b25	0.014075075
1	0xbe1d7fbb	-0.15380757
2	0x3c099809	0.008398064
3	0xbe181e6f	-0.1485536
4	0x3e675e35	0.22594531
5	0x3d69b181	0.057054047
6	0xbe6b2916	-0.22964892
7	0xbd32c7ff	-0.043647762
8	0x3e4f828f	0.20264648
9	0xbe29dd1a	-0.1658825
10	0x3cabb6dd	0.02096122
11	0xbd05ac5f	-0.03263509
12	0x3d5aef7b	0.053451043
13	0xbc790da2	-0.015201004
14	0xbcfb4bd2	-0.030675802
15	0x3df54036	0.11975138
16	0x3d83a4d4	0.06427923
17	0x3c481dfa	0.012214178
18	0xbcbb9123	-0.022896355
19	0x3e818eb6	0.25304192
20	0xbd5755fb	-0.05257223
21	0x3de3f483	0.11130621
22	0xbcaea308	-0.021317974
23	0xbd8afcd5	-0.06786505
24	0x3dc43142	0.09579708
25	0x3ddfb0f2	0.109224215
26	0xbe0ffd13	-0.14061384
27	0x3e599fd9	0.21252383
28	0x3e64c92d	0.22342367
29	0x3dfd2412	0.123603955
30	0x3d44d70e	0.048056655
31	0x3dcda8c7	0.10041957
32	0x3dbc9404	0.09207919
33	0x3e53ffa7	0.20702992
34	0xbd24a497	-0.040196028
35	0xbe1591ae	-0.14606354
36	0xbdf24a04	-0.118305236
37	0xbcea00ad	-0.028564775
38	0x3e5a6106	0.21326074
39	0xbc1624c7	-0.009164042
40	0x3e30f11c	0.17279476
41	0x3c8fea0c	0.017567657
42	0xbe1ead93	-0.15495901
43	0xbc71065c	-0.014710989
44	0x3e45c257	0.19312416
45	0x3dde6f57	0.1086108
46	0xbe1ccd40	-0.15312672
47	0x3e6d96a6	0.23201999
48	0x3e40d22f	0.18830179
49	0xbe54d6c2	-0.20785049
50	0x3e0ff7cb	0.1405937
51	0xbe5fca4c	-0.21854514
52	0x3ad8b960	0.0016534738
53	0xbcd0ad39	-0.025473224
54	0xbd08c4ca	-0.033390798
55	0xbe29d064	-0.16583401
56	0xbcba2fe4	-0.022727914
57	0x3def0cef	0.11672389
58	0xbc6f6bf6	-0.014613142
59	0xbc9be547	-0.019030226
60	0xbe70096b	-0.23441093
61	0xbde4fc3e	-0.11180924
62	0xbdd8199c	-0.105517596
63	0xbcd11710	-0.025523692

gru1.weight_ih_l0 f4 [192, 64]
0	0xbd9d9b11	-0.07695592
1	0x3c07157f	0.008244871
2	0x3c57e7d2	0.013177829
3	0x3c8b1c20	0.016981184
4	0xbda79171	-0.081820376
5	0xbcfa2b59	-0.030538248
6	0x3d4a768d	0.049429465
7	0xbcb2c6ad	-0.021823252
8	0xbdc42347	-0.09577041
9	0xbcd164b8	-0.025560722
10	0x3c7fc370	0.015610561
11	0xbbac7765	-0.0052632564
12	0xbd6c7a88	-0.057734042
13	0xbd91b2d1	-0.07114185
14	0x3c7ea9a0	0.015543371
15	0xbd9f823f	-0.07788514
16	0xbd9e7c8b	-0.077385984
17	0xbe4318d4	-0.1905244
18	0xbd80cf23	-0.06289508
19	0xbe4ae961	-0.1981559
20	0xbc0aa1df	-0.008461445
21	0xbcaa734d	-0.020806933
22	0x3cf64a82	0.030064825
23	0xbd4f7c50	-0.050655663
24	0xbe186d23	-0.14885382
25	0xbe411292	-0.1885474
26	0xbc3ea563	-0.011636111
27	0xbd3a136b	-0.045428675
28	0xbd8afe95	-0.06786839
29	0xbe423ded	-0.18968935
30	0xbd845d0e	-0.06463061
31	0xbd7d925d	-0.06190716
32	0xbdbd4139	-0.09240956
33	0xbe3797d3	-0.1792901
34	0x3bc34717	0.0059594023
35	0xbdfd13e4	-0.123573095
36	0xbe17d8fc	-0.14828867
37	0xbe4aab96	-0.19792017
38	0xbc11f61c	-0.008908775
39	0x3c0e3437	0.008679441
40	0xbddb5c6d	-0.10710988
41	0xbe2741a6	-0.16333637
42	0xbda351bc	-0.07974574
43	0xbd37870b	-0.04480652
44	0xbe3d28cc	-0.18472594
45	0xbb49085a	-0.0030675144
46	0xbd47ab2c	-0.048747227
47	0xbe3bdb2f	-0.1834533
48	0xbe5b2f8f	-0.21404861
49	0xbe00b3bb	-0.12568562
50	0xbe2d9b3c	-0.16953748
51	0xbc91a153	-0.01777712
52	0xbcca30a1	-0.024681391
53	0xbdc2db3f	-0.09514474
54	0xbdd4b6db	-0.103864394
55	0xbdd818ed	-0.10551629
56	0xbe3a0df6	-0.18169388
57	0xbe1a4592	-0.15065601
58	0x3bcd80fd	0.00627148
59	0xbcb544b7	-0.022127492
60	0xbda0e061	-0.07855297
61	0xbe06bd84	-0.13158232
62	0xbe37c0ec	-0.17944688
63	0xbe368fd4	-0.17828304
64	0x3d891359	0.066931434
65	0xbac1f258	-0.0014796956
66	0x3c218cb9	0.009860211
67	0xbe426359	-0.1898321
68	0x3d2c7256	0.042101227
69	0xbe45b08b	-0.19305627
70	0xbdee3220	-0.11630654
71	0xbcb446f9	-0.022006499
72	0xbc037cf2	-0.008025395
73	0xbe1597c7	-0.1460868
74	0x3c07e620	0.008294612
75	0x3c673a14	0.014112968
76	0x3d5a210e	0.05325418
77	0xbd69757d	-0.05699681
78	0xbdb23e10	-0.08703244
79	0xbddefc82	-0.10888006
80	0xbdd4e3fb	-0.10395046
81	0xbdd186b3	-0.1023077
82	0xbdd98d7d	-0.1062269
83	0xbe5c2382	-0.2149792
84	0xbca42ce2	-0.020040933
85	0xbe3e5204	-0.18585974
86	0xbd755b1d	-0.059901346
87	0xbe3eb73b	-0.18624584
88	0xbca65a53	-0.020306742
89	0xbc2318aa	-0.009954611
90	0xbe0c423d	-0.13697143
91	0xbe2df067	-0.16986237
92	0xbc6f9a85	-0.014624243
93	0xbd0c11b0	-0.034196556
94	0xbc7c41b2	-0.015396522
95	0xbdbae94c	-0.09126529
96	0x3af00df9	0.0018314711
97	0xbc8f1d49	-0.017470019
98	0xbe0ed987	-0.13950168
99	0x3caf8a4e	0.021428254
100	0xbc921411	-0.017831834
101	0xbde08e47	-0.10964637
102	0xbd5fd1ee	-0.054643564
103	0xbc8f583a	-0.017498124
104	0xbe120ecd	-0.14263459
105	0xbe02c2c1	-0.12769605
106	0x3bd54fac	0.006509742
107	0xbc867b43	-0.016416198
108	0xbc96b194	-0.018395223
109	0xbbf3746c	-0.00742965
110	0xbd347f63	-0.044066798
111	0xbc75192c	-0.014959615
112	0xbd0b8d05	-0.034070034
113	0xbde2f443	-0.110817455
114	0xbe491e55	-0.19640477
115	0xbcc04f52	-0.023475323
116	0x3da6043c	0.081062764
117	0xbd10c031	-0.035339538
118	0xbe2a8335	-0.16651614
119	0xbd2516e2	-0.040305026
120	0xbdcd47a7	-0.10023432
121	0x3c435f29	0.011924543
122	0xbd59ea1b	-0.053201776
123	0x3ca1ea3a	0.019765008
124	0xbd0ef987	-0.034905937
125	0xbb99e5c9	-0.004696582
126	0xbd90ecfa	-0.0707645
127	0xbd464f50	-0.048415482
128	0x3cb6b4b0	0.022302955
129	0xbbbf0797	-0.005829762
130	0x3d297d30	0.041379154
131	0xbc4adbf8	-0.012381546
132	0x3d4ba449	0.04971722
133	0x3e20f6f4	0.15719205
134	0x3d719232	0.058977313
135	0xbb41b049	-0.0029554537
136	0x3e134cf0	0.14384818
137	0x3cfb8da8	0.030707195
138	0xbc0f7ede	-0.008758275
139	0x3c9bb43e	0.019006845
140	0xbbfcdc47	-0.007716689
141	0xbb827209	-0.003980879
142	0xbccbe22d	-0.024888122
143	0xbd060909	-0.03272346
144	0x3dbe7263	0.09299161
145	0xb8009ca0	-3.0663447e-05
146	0x3e0604e9	0.1308781
147	0x3cb19fdf	0.021682678
148	0x3d2543ed	0.040347982
149	0x3de7ea10	0.11323941
150	0xbc6526ba	-0.013986284
151	0xbd0ddeb0	-0.0346362
152	0x3cc0d90f	0.023541002
153	0x3e36a81d	0.17837568
154	0x3d2cee0d	0.04221921
155	0x3d229651	0.039694134
156	0x3db5c069	0.0887459
157	0xbc0ee81b	-0.00872233
158	0x3c96d993	0.018414294
159	0x3d994336	0.074835226
160	0x3b08520d	0.002080086
161	0x3d3cc9f6	0.046091042
162	0x3db120e8	0.086488545
163	0x3e2aeeca	0.16692653
164	0xbb8a013e	-0.004211574
165	0xbabba440	-0.0014315918
166	0x3d933441	0.07187701
167	0x3d2287b1	0.039680187
168	0x3d0e4a49	0.034738813
169	0x3c7333a3	0.014843854
170	0x3d893d51	0.06701148
171	0xbd5c8388	-0.053836375
172	0x3e1c8bad	0.15287657
173	0xbd32a6b7	-0.043616023
174	0x3de08796	0.10963361
175	0x3b6e92dd	0.0036403455
176	0x3d9b957b	0.075968705
177	0x3d6de6ef	0.058081564
178	0x3d657924	0.05602373
179	0xbce9bf65	-0.028533647
180	0x3c0a9315	0.008457919
181	0xbc61df08	-0.013786085
182	0x3df956b4	0.121747404
183	0x3d46ccb1	0.048535053
184	0xba91ade0	-0.0011114441
185	0xbc7f2d91	-0.015574829
186	0xbd8ac330	-0.0677551
187	0x3da5c439	0.08094067
188	0xbcba6fb4	-0.022758342
189	0x3d84b140	0.0647912
190	0x3e19bb30	0.15012813
191	0xbb9b5a32	-0.0047409767
192	0xbd9b6033	-0.07586708
193	0xbd3fa4e6	-0.04678812
194	0xbd8755a3	-0.06608131
195	0x3ca556f1	0.020183058
196	0xbe0134b0	-0.12617755
197	0xbe5f1c2e	-0.21788093
198	0x3c955851	0.01823059
199	0xbdd7f5b9	-0.10544915
200	0xbe02661b	-0.12734263
201	0xbd997eb7	-0.07494872
202	0xbd2929f1	-0.041299764
203	0xbd53f781	-0.05174971
204	0xbd56fad0	-0.052485287
205	0xbe3caded	-0.18425722
206	0x3d1a0761	0.037604693
207	0xbc87b086	-0.016563665
208	0xbe5df6f5	-0.21676238
209	0xbe145ac3	-0.14487748
210	0xbcf3bb6c	-0.029752456
211	0xbd864eed	-0.06558023
212	0xbe52cd68	-0.20586169
213	0x3d758e9e	0.059950463
214	0xbcde0320	-0.0271011
215	0xbdfd3522	-0.1236365
216	0xbe0bf97c	-0.1366939
217	0xbdd5c55f	-0.10438036
218	0xbdde0892	-0.108414784
219	0x3cc73bc4	0.02432049
220	0xbd88d2aa	-0.06680806
221	0x3c719ab0	0.014746353
222	0xbb93bb4c	-0.0045084115
223	0x3c02eed4	0.007991511
224	0xbb9676d0	-0.0045918003
225	0xbdc5a2a0	-0.09650159
226	0xbdd2680d	-0.10273752
227	0x3c398158	0.011322342
228	0xbc4df38a	-0.012570271
229	0xbe154021	-0.14575244
230	0xb9b926e7	-0.00035314934
231	0xbd99af4a	-0.07504137
232	0xbe210389	-0.15724005
233	0xbe2a0f1e	-0.16607329
234	0x3ca850e5	0.020546386
235	0x3da8230a	0.08209808
236	0xbdf0badc	-0.117543906
237	0x3d1e9b3c	0.03872226
238	0xbc92f7d2	-0.017940436
239	0xbe6182e4	-0.22022587
240	0xbb355bc8	-0.0027673114
241	0xbd9f900c	-0.07791147
242	0xbda7188a	-0.08158977
243	0x3d2038ad	0.03911655
244	0xbc7c7bed	-0.015410406
245	0x3d885b41	0.0665803
246	0x3c5e6d70	0.013575897
247	0x3d66b10a	0.05632118
248	0xbd57b7d5	-0.05266555
249	0x3c9be931	0.019032093
250	0xbae903a0	-0.001777757
251	0x3dc0ad61	0.094080694
252	0xbbf50542	-0.0074774334
253	0x3c3f1a49	0.011663982
254	0xbde7c75f	-0.11317324
255	0xbe360418	-0.17774999

gru1.weight_hh_l0 f4 [192, 64]
0	0xbdceacfa	-0.100915864
1	0x3c956802	0.018238071
2	0x3d726931	0.05918235
3	0xbe31b2e6	-0.173534
4	0x3bd9ba62	0.006644533
5	0x3e635cc6	0.22203359
6	0xbd126c1b	-0.03574763
7	0x3e4bf00e	0.19915792
8	0xbddeecf1	-0.10885037
9	0xbe0a8635	-0.13527758
10	0x3cc24b3c	0.023717515
11	0xbd5584ec	-0.052128717
12	0xbd4c4423	-0.049869668
13	0xbddfe1a7	-0.10931712
14	0x3df3cf41	0.11904765
15	0x3df2e872	0.11860742
16	0xbe627658	-0.22115457
17	0x3d9ebf5f	0.07751345
18	0xbdc24fd6	-0.09487884
19	0x3c10a8ad	0.008829278
20	0xbcbad782	-0.02280784
21	0x3dab0d5d	0.08352158
22	0x3d2e51b1	0.042558376
23	0x3e04e441	0.12977697
24	0xbc431e19	-0.011909031
25	0x3cae9c56	0.021314781
26	0x3dffa08b	0.12481793
27	0xbe28097a	-0.16409865
28	0xbdbe2b01	-0.09285546
29	0x3e1b21c5	0.15149601
30	0xbe152b1e	-0.14567229
31	0x3c8f1875	0.017467717
32	0xbba10032	-0.0049133534
33	0xbdc8939a	-0.09793778
34	0x3bf81844	0.007571252
35	0x3c9d590a	0.019207496
36	0x3d47be04	0.048765197
37	0x3e1dbd99	0.15404357
38	0x3c5e32b0	0.0135618895
39	0x3c72f00a	0.014827738
40	0xbe1b0062	-0.15136865
41	0x3dcdf3fb	0.10056301
42	0xbd3ed06a	-0.046585478
43	0x3e2fbf78	0.17162883
44	0x3d8ebffa	0.069702104
45	0xbdd00f0e	-0.101591215
46	0x3e037050	0.12835813
47	0x3d836798	0.06416243
48	0xbd9130d5	-0.07089392
49	0x3db470e9	0.088105984
50	0xbc5846a5	-0.013200437
51	0x3e4c9d22	0.19981816
52	0x3e0e9806	0.1392518
53	0xbcc7cb39	-0.024388896
54	0x3d541df8	0.051786393
55	0xbe2fe398	-0.17176664
56	0xbe4a005e	-0.19726703
57	0xbe1d4711	-0.15359141
58	0x3e502ea4	0.20330292
59	0xbd9c2bc6	-0.076255366
60	0xbe007a8c	-0.12546748
61	0xbe50a5d9	-0.20375766
62	0x3dfa8824	0.12232998
63	0x3e18616e	0.14880916
64	0xbbc4ebbc	-0.006009547
65	0x3dbc18ff	0.09184455
66	0xbddae004	-0.10687259
67	0xbca4d769	-0.020122247
68	0xbc3d38b3	-0.011549163
69	0xbd6c65b4	-0.05771418
70	0xbd721853	-0.05910523
71	0x3c53161c	0.012883689
72	0xbba727a0	-0.005101159
73	0x3d549c98	0.051907152
74	0xbd8fd2a1	-0.07022596
75	0xbccc2984	-0.02492214
76	0x3d2519f7	0.040307965
77	0xbdaeb0d6	-0.085298225
78	0x3ccbb632	0.024867151
79	0x3dcfd623	0.10148265
80	0xbd6cb85c	-0.057793006
81	0x3dbd4c99	0.092431255
82	0x3cd3ad3a	0.025839437
83	0xbc8e8eae	-0.01740202
84	0x3c58e8a4	0.01323906
85	0xbd47bd47	-0.048764493
86	0xbdef45d1	-0.11683238
87	0xbd687ad1	-0.05675775
88	0x3bf15a20	0.00736548
89	0x3d1bd299	0.03804264
90	0x3bea4bcd	0.0071501494
91	0x3d8d5d28	0.06902534
92	0x3c0eed47	0.0087235635
93	0x3d6ccc32	0.057811923
94	0x3d837768	0.06419259
95	0x3d999d78	0.07500738
96	0xbd97c808	-0.074112
97	0xbdf2c62e	-0.11854206
98	0xbd129041	-0.035782102
99	0xbcd25af1	-0.02567813
100	0x3d116f1e	0.03550636
101	0xbb13cf43	-0.0022553958
102	0xbda88043	-0.08227589
103	0x3c554f8b	0.013019453
104	0x3b4f4198	0.003162479
105	0xbd966d39	-0.07345051
106	0xbc17ec64	-0.0092726685
107	0x3d131ab7	0.03591415
108	0x3ddd6c58	0.108116806
109	0xbd8fc3f0	-0.07019794
110	0xbd94dc92	-0.07268633
111	0x3da5263d	0.08063934
112	0x3d4ccb90	0.04999882
113	0xbd5df20c	-0.054185912
114	0xbd4ba316	-0.049716078
115	0x3cc93dc7	0.02456559
116	0x3d1fa99c	0.03898011
117	0x3d0abd53	0.03387196
118	0x3c5ec35b	0.013596381
119	0x3d225970	0.039636075
120	0xbcb766ae	-0.022387829
121	0xbcce6255	-0.025193373
122	0x3d6850ec	0.056717798
123	0xbbbcb0d7	-0.0057583856
124	0x3d8d137b	0.06888481
125	0x3be428fd	0.006962894
126	0xbd9cebdc	-0.07662174
127	0x3da260b6	0.079286024
128	0xbc4094eb	-0.011754255
129	0x3cd73768	0.026271537
130	0x3bf9cd25	0.007623332
131	0x3c531ddf	0.01288554
132	0xbca615f4	-0.02027414
133	0x3ac660a0	0.0015134998
134	0xbc51191b	-0.012762333
135	0xbc63f7c8	-0.013914056
136	0x3b06001a	0.0020446838
137	0x3d64ae64	0.055830374
138	0xbcd83925	-0.026394436
139	0xbd0707ea	-0.03296653
140	0xba8d9f49	-0.0010804917
141	0x3c234d5c	0.009967174
142	0xbdf529dc	-0.11970875
143	0x3d84904e	0.064728364
144	0xbc79b737	-0.015241436
145	0xbda34ffb	-0.079742394
146	0x3d7ba5bc	0.061437353
147	0x3ca57548	0.020197526
148	0x3cd02a56	0.025410812
149	0x3da01ba7	0.07817774
150	0x3d99d6da	0.07511683
151	0x3cd7a5e9	0.02632423
152	0xbc6f119d	-0.014591602
153	0xbe39a9a6	-0.18131122
154	0xbe013410	-0.12617517
155	0xbcf1dacc	-0.029523276
156	0x3cb05627	0.021525456
157	0xbdf254a1	-0.11832548
158	0x3d296eec	0.04136555
159	0x3e56fb09	0.209942
160	0xbc7d86e8	-0.015474059
161	0xbc959577	-0.018259747
162	0xbba8b70e	-0.005148775
163	0xbe52b2fb	-0.20576088
164	0x3c1a9d3c	0.009436902
165	0x3d35fb8e	0.044429354
166	0xbda52e1d	-0.08065436
167	0xbdd2769f	-0.102765314
168	0xbc317d2c	-0.010833066
169	0x3cbd3fef	0.023101775
170	0xbd1e34bb	-0.038624506
171	0xbce1b6f4	-0.02755306
172	0xbdd469f2	-0.1037177
173	0x3c2c1621	0.010503323
174	0xbb986976	-0.004651244
175	0xbd4f631a	-0.05063162
176	0xbd6a3fe6	-0.057189845
177	0x3ba5ca92	0.0050595487
178	0xbdf19ebf	-0.117978565
179	0xbdfe9a56	-0.12431781
180	0x3c66ecf3	0.014094579
181	0x3e0f4c63	0.13993983
182	0x3c202d5f	0.009776442
183	0x3d684689	0.056707893
184	0x3e2a7365	0.16645582
185	0x3d297d6b	0.041379374
186	0x3b766213	0.0037595078
187	0x3afb57f9	0.0019175998
188	0x3df50f38	0.11965793
189	0x3aead86d	0.0017917283
190	0xbd66949b	-0.056294065
191	0xbc42752e	-0.011868758
192	0xbe11b279	-0.14228238
193	0xbdaf2957	-0.08552807
194	0x3e1c0fde	0.15240428
195	0xbdf70028	-0.12060577
196	0xbe4d0ad2	-0.20023659
197	0x3de0d030	0.109772086
198	0xbda03b26	-0.07823782
199	0x3e61cc1a	0.22050515
200	0xbdb785b5	-0.089610495
201	0xbe0a1159	-0.1348318
202	0x3e53ad4b	0.20671575
203	0x3e0e1f7b	0.13879196
204	0xbe22eeca	-0.15911403
205	0xbe3a9095	-0.18219216
206	0xbc33fd47	-0.010985679
207	0x3dc6ab59	0.09700651
208	0xbe4aded2	-0.19811562
209	0x3de032dc	0.10947201
210	0xb95fad53	-0.00021331506
211	0xbc5eb507	-0.013592965
212	0x3d019651	0.031637494
213	0xbd8a09af	-0.06740128
214	0xbb7c0855	-0.0038457115
215	0x3e0bd302	0.13654712
216	0x3dda589f	0.106614344
217	0x3d6b3354	0.057421997
218	0x3e3fc901	0.1872902
219	0xbe341775	-0.17587073
220	0xbd88cf75	-0.06680194
221	0x3d14e4fa	0.03635118
222	0x3af67928	0.0018804418
223	0xbe0faf03	-0.14031605
224	0xbe4be41f	-0.1991124
225	0xbdf4d7f5	-0.11955253
226	0x3ce77452	0.028253708
227	0x3e5313c8	0.20613015
228	0x3b55bb6f	0.003261294
229	0x3db40d30	0.08791578
230	0x3e3bb84a	0.1833202
231	0xbcae2f85	-0.021262893
232	0xbe341075	-0.17584403
233	0xbca819f4	-0.020520188
234	0xbcccb86f	-0.024990289
235	0x3da0135e	0.07816194
236	0x3dbd51de	0.092441306
237	0x3ba4f1fb	0.005033729
238	0x3dd22956	0.102617905
239	0x3dea94cf	0.11454164
240	0xbce1deda	-0.027572084
241	0x3cab1c5e	0.02088755
242	0xbc3aa375	-0.01139151
243	0x3e0c412e	0.13696739
244	0x3d79ff7c	0.061034665
245	0xbe3e6703	-0.18593983
246	0x3e589584	0.21150786
247	0xbe41a5ec	-0.1891095
248	0xbe1f90ac	-0.15582532
249	0xbcfda229	-0.030961113
250	0x3e4199dc	0.18906349
251	0x3d62cc2d	0.0553705
252	0xbda3e22b	-0.080021225
253	0xbdbc630f	-0.091985814
254	0x3e41c89a	0.1892418
255	0x3dba5b42	0.09099437

gru1.bias_ih_l0 f4 [192]
0	0xbe57aa9a	-0.21061173
1	0xbcccee4b	-0.02501597
2	0x3e0333e9	0.12812771
3	0xbe2188b9	-0.15774812
4	0xb9cb08a9	-0.0003872563
5	0x3e2a7853	0.16647463
6	0x3e56bf77	0.20971476
7	0xbde32028	-0.11090118
8	0x3c54d89d	0.012991098
9	0x3e000259	0.12500896
10	0x3c76fc6d	0.015074831
11	0xb9950061	-0.00028419777
12	0x3be395cd	0.006945348
13	0x3d4ff882	0.050774105
14	0x3e55a603	0.2086411
15	0xbcbec2c5	-0.023286233
16	0x3d86880e	0.06568919
17	0xbe0dca2e	-0.13846657
18	0xbb1af59d	-0.0023644932
19	0x3dbf1faf	0.09332215
20	0x3e2067bc	0.15664572
21	0xbc87fa36	-0.016598802
22	0xbcc18501	-0.023622992
23	0x3c018d5f	0.007907241
24	0x3dd6b26e	0.104832515
25	0x3e3fdbd2	0.18736199
26	0x3dfc05df	0.12305807
27	0xbd59f6cb	-0.053213876
28	0x3e5da944	0.21646601
29	0xbda2202f	-0.07916295
30	0x3d6d4cb7	0.05793449
31	0xbc58bd8e	-0.013228787
32	0xbce0382e	-0.027370539
33	0xbd479030	-0.048721492
34	0xbc3e1b9d	-0.011603263
35	0xbc7c0f0e	-0.015384449
36	0xbdd11c46	-0.10210471
37	0x3d5aeb3d	0.053446997
38	0x3d22f12f	0.03978079
39	0xbde6f039	-0.112762876
40	0x3dead9c3	0.11467316
41	0x3e356eef	0.17718099
42	0x3d8f9e12	0.070125714
43	0x3e38a66c	0.18032235
44	0x3cb2c465	0.021822164
45	0xbe4aba8f	-0.19797729
46	0xbdba0d9a	-0.090846255
47	0x3e2f6000	0.17126465
48	0xbe4e6c30	-0.20158458
49	0x3c56b634	0.013104964
50	0xbe45fdd4	-0.19335109
51	0x3a72919c	0.0009253265
52	0x3e534b0a	0.20634094
53	0x3d77b220	0.060472608
54	0x3c95d68d	0.018290782
55	0xbe0bd54c	-0.13655585
56	0xbd63cbb3	-0.055614185
57	0x3ba0b5af	0.004904471
58	0xbe05b2cd	-0.13056488
59	0xbddf37cb	-0.108993135
60	0x3dd76253	0.10516801
61	0xbc805ef6	-0.01567028
62	0x3dcc7091	0.09982408
63	0x3c88f745	0.01671947
64	0x3ba8df21	0.005153552
65	0xba3e2397	-0.0007253228
66	0x3dab671f	0.08369278
67	0x3e3a4977	0.18192087
68	0xbe19d9fd	-0.15024562
69	0xbb7f2524	-0.003893205
70	0x3a594107	0.0008287583
71	0x3c892909	0.0167432
72	0xbe33adff	-0.17546843
73	0xbe292f6b	-0.16521995
74	0xbb43d6ab	-0.002988259
75	0x3d9690d5	0.07351843
76	0xbd86b7e9	-0.06578047
77	0xbd676660	-0.056494117
78	0xbd8450e8	-0.06460744
79	0xbe2e1cbd	-0.1700315
80	0x3d296b5d	0.041362155
81	0x3dc90c19	0.098167606
82	0xbb715c7e	-0.0036828811
83	0x3c262f29	0.01014308
84	0x3dc26066	0.09491043
85	0x3cf890ea	0.030342538
86	0x3cf2bcd4	0.029631056
87	0xbdc2d4d0	-0.09513247
88	0xbe0d5583	-0.13802151
89	0x3db92ca0	0.09041715
90	0xbd820b95	-0.06349865
91	0x3dda96f5	0.10673324
92	0xbe5ddc35	-0.21666034
93	0xbc61f1f6	-0.013790598
94	0xbb833c73	-0.004005009
95	0xbbc7924f	-0.0060904394
96	0x3cd80faf	0.026374666
97	0xbe4c4ebb	-0.19951908
98	0xbdc1b4cf	-0.094583146
99	0xbdebf18f	-0.11520683
100	0xbcefd51b	-0.029276421
101	0x3d56dcb4	0.052456573
102	0xbd80b163	-0.06283834
103	0xbd623ff6	-0.05523678
104	0xbb5c3ea0	-0.0033606663
105	0xbc7aa7d4	-0.015298802
106	0xbcbc21ef	-0.0229654
107	0x3d801b66	0.06255226
108	0xbe0a86dd	-0.13528009
109	0x3c1e115d	0.009647694
110	0x3d5094f7	0.050923314
111	0xbe338c1d	-0.17533918
112	0x3b385ce5	0.0028131541
113	0xbc91d855	-0.01780335
114	0x3e089b00	0.13340378
115	0xbd8c29cc	-0.068439096
116	0x3d017340	0.03160405
117	0x3d5f005d	0.054443706
118	0xbbb02f68	-0.005376745
119	0x3e52a613	0.20571165
120	0xbd93df9a	-0.07220383
121	0x3d08954b	0.033345502
122	0x3d24feeb	0.04028217
123	0x3da9593d	0.08268974
124	0x3d6c2986	0.057656787
125	0xbd8cff4f	-0.06884634
126	0xbc8bd9b6	-0.017071586
127	0x3d8d5817	0.069015674
128	0x3e48d2f1	0.19611718
129	0x3e52373b	0.20528881
130	0xbcb02f89	-0.021507042
131	0xbccea1fb	-0.025223723
132	0x3e5e032d	0.21680899
133	0x3d9b708d	0.07589827
134	0x3e419605	0.18904884
135	0x3db581e8	0.08862668
136	0x3e5de483	0.21669202
137	0x3e49e958	0.1971792
138	0x3d997046	0.074921176
139	0xbd715396	-0.058917604
140	0xbde87de5	-0.113521375
141	0x3e258123	0.16162543
142	0xbdef567d	-0.11686418
143	0xbda457ef	-0.080245845
144	0x3d0e5159	0.034745548
145	0xbdd2faf9	-0.103017755
146	0xbdc8a694	-0.09797397
147	0xbd1929a8	-0.037393242
148	0xbb4d53cf	-0.0031330471
149	0xbe50fc0e	-0.20408651
150	0xbde520a4	-0.11187866
151	0x3e3cec2b	0.18449466
152	0xbe0370c4	-0.12835985
153	0xbc917977	-0.017758114
154	0xbe16d902	-0.1473122
155	0x3e28287e	0.16421697
156	0x3e30773a	0.17232981
157	0xbe3cfae9	-0.1845509
158	0x3d060ef6	0.03272911
159	0xbb5eec88	-0.0034015495
160	0xbe1676c1	-0.14693739
161	0xbe1b5b09	-0.15171446
162	0x3cfe6ab1	0.031056734
163	0xbdd78ce9	-0.10524923
164	0xbe13931f	-0.14411591
165	0x3c641f06	0.013923412
166	0x3c9e13d7	0.01929657
167	0x3db56bac	0.088584274
168	0x3e1be2dd	0.1522326
169	0xbe24dce2	-0.16099885
170	0x3d56cb99	0.05244026
171	0xbd3b775d	-0.04576813
172	0xbe0656ff	-0.13119124
173	0xbdc161cc	-0.094424814
174	0x3c0c51e1	0.008564443
175	0xbe4cbf86	-0.19994935
176	0x3dca0a63	0.09865262
177	0x3e2c9052	0.16851929
178	0x3d71dbed	0.05904763
179	0x3d75bf33	0.059996795
180	0xbe35524c	-0.17707175
181	0x3e2cdcfc	0.16881174
182	0x3d5ee1bd	0.0544145
183	0xbcbc5a4b	-0.022992274
184	0x3e537e31	0.20653607
185	0xbdc77d68	-0.09740716
186	0x3d1ae8e2	0.03781975
187	0x3e137da8	0.14403403
188	0x3dfc22a9	0.123112984
189	0x3e2baf70	0.16766143
190	0x3e1ebc41	0.155015
191	0xbc0b5390	-0.00850381

gru1.bias_hh_l0 f4 [192]
0	0xbe296485	-0.16542251
1	0x3bd32d50	0.0064446107
2	0x3dcd05f2	0.100108996
3	0xbe248d61	-0.16069557
4	0xbe025661	-0.12728263
5	0x3b8d0355	0.0043033757
6	0x3e38819c	0.18018192
7	0xbdc7313c	-0.097261876
8	0x3a675812	0.0008825074
9	0x3dd72fa4	0.105071336
10	0xbe38896d	-0.18021174
11	0x3d2237fb	0.03960417
12	0xbc9eff0d	-0.019408727
13	0x3dbc950f	0.09208118
14	0x3e127070	0.14300704
15	0x3c4d58ac	0.012533348
16	0x3d481893	0.04885156
17	0xbcc1d07e	-0.023658987
18	0xbdd22bc2	-0.102622524
19	0x3e59051f	0.2119336
20	0x3e13dbb1	0.14439274
21	0xbb52687d	-0.0032105737
22	0x3e333afe	0.17502972
23	0xbe564e69	-0.20928349
24	0x3e3635ab	0.1779391
25	0x3e24a449	0.16078295
26	0x3e4b3cd1	0.19847418
27	0x3cca2a45	0.024678359
28	0x3dea1a8b	0.11430844
29	0xbe6300ed	-0.22168322
30	0x3bbcbcc4	0.0057598073
31	0xbd4d4c7f	-0.05012178
32	0xbdb54a5a	-0.08852072
33	0xbe16989a	-0.1470665
34	0x3db9705e	0.090546355
35	0x3d344854	0.04401429
36	0xbe133b20	-0.14378023
37	0x3db580dd	0.08862469
38	0x3dfc0247	0.12305122
39	0xbd8d425b	-0.06897422
40	0xbb24006b	-0.0025024663
41	0x3d766e62	0.060163863
42	0xbbd7d81d	-0.006587042
43	0x3d57a5d6	0.052648388
44	0x3e3c2855	0.1837476
45	0xbe5568e3	-0.20840792
46	0xbd39f30c	-0.045397803
47	0x394c3a48	0.00019476668
48	0xbdb03768	-0.08604318
49	0xbd682c77	-0.05668303
50	0x3c90d333	0.017678833
51	0x3e43bd2c	0.19115132
52	0x3db16485	0.08661751
53	0x3e537c1f	0.20652817
54	0x3bc74c73	0.0060821115
55	0xbe0bfea8	-0.13671362
56	0xbe3c2596	-0.18373713
57	0xbd0524e4	-0.032505885
58	0xbd845114	-0.06460777
59	0xbdde3f20	-0.10851884
60	0x3da20f15	0.07913033
61	0x3d7d2b12	0.061808653
62	0x3e1eae3b	0.15496151
63	0xbe5d85ac	-0.21633023
64	0xbe4708f3	-0.19437008
65	0x3d342e56	0.043989502
66	0x3def5cb6	0.11687605
67	0x3d115afe	0.035487168
68	0xbb8b3395	-0.0042480924
69	0x3a26992c	0.0006355222
70	0xbd4f7f91	-0.050658766
71	0xbc08562f	-0.008321329
72	0xbda3d91f	-0.08000397
73	0x3c9a6efb	0.018851748
74	0x3df57d7c	0.11986825
75	0x3d8f2065	0.06988601
76	0x3ca512bf	0.02015054
77	0xbd80eff5	-0.06295768
78	0xbe2747bd	-0.1633596
79	0xbded9009	-0.11599738
80	0xbd5c1380	-0.053729534
81	0x3d552f0c	0.05204682
82	0x3d9b416c	0.075808376
83	0x3cc01759	0.023448633
84	0x3e0f6a34	0.14005357
85	0xbbeeb2fc	-0.00728452
86	0x3d85df38	0.06536716
87	0xbd440f17	-0.047865953
88	0xbd607fff	-0.054809567
89	0x3d4dd8f4	0.05025573
90	0xbc40cbbc	-0.011767324
91	0x3cfb7c76	0.030698996
92	0xbd1c7929	-0.038201485
93	0x3b861bae	0.004092655
94	0x3d8b6ac9	0.06807477
95	0xbbaf5c30	-0.005351566
96	0x3e1033a4	0.140822
97	0xbe01f45d	-0.12690873
98	0xbbc36a85	-0.005963626
99	0x3c28e4d8	0.010308467
100	0xbb2dfc72	-0.0026548174
101	0x3d852b28	0.06502372
102	0xbe429156	-0.19000754
103	0x3c2062cd	0.009789181
104	0x3d93561a	0.07194157
105	0xbcaf26fe	-0.021380898
106	0xbd4adca0	-0.04952681
107	0x3c8891e4	0.016671129
108	0x3bb83142	0.0056211064
109	0x3e123161	0.14276649
110	0x3e1b031a	0.15137902
111	0xbd928a66	-0.07155304
112	0x3d1c1083	0.038101684
113	0x3d1d343c	0.038379893
114	0x3e447388	0.19184697
115	0xbdfd8813	-0.1237947
116	0xbd5ceb33	-0.05393524
117	0x3d496590	0.049169123
118	0x3d31cf2e	0.043410473
119	0x3deb0009	0.11474616
120	0xbc9fde43	-0.019515162
121	0x3cfbbaa4	0.030728646
122	0xbc739f60	-0.014869541
123	0x3d3928b6	0.04520484
124	0xb9832ac7	-0.0002501814
125	0xbd393e96	-0.045225702
126	0x3d538e31	0.051649276
127	0x3e128eac	0.14312238
128	0x3d92e189	0.07171924
129	0xbc8034d6	-0.015650194
130	0xbe599b76	-0.2125071
131	0xbdc22589	-0.094798155
132	0xba3115b6	-0.00067552493
133	0x3de5eaae	0.11226402
134	0x3e4b5d93	0.19859914
135	0x3d4aec9c	0.049542055
136	0xbc156493	-0.009118217
137	0x3e2a18ed	0.16611071
138	0xbcaa382a	-0.020778734
139	0xbe525d93	-0.20543508
140	0xbe614f3d	-0.22002883
141	0x3e4c7e8f	0.19970153
142	0xbe4b7046	-0.19867048
143	0xbe3e343a	-0.1857461
144	0x3e646c19	0.22306861
145	0x3bab259b	0.005222989
146	0xbdf25fb3	-0.118346594
147	0xbe15d2ca	-0.14631191
148	0x3e3120a8	0.17297614
149	0xbd99a7db	-0.07502719
150	0xbe5659d1	-0.209327
151	0x3e431c37	0.19053732
152	0xbe28f664	-0.1650024
153	0x3dfba01e	0.12286399
154	0xbde1bf07	-0.11022764
155	0x3dea9e95	0.11456028
156	0x3e094774	0.13406163
157	0xbd70858b	-0.058721106
158	0x3e361a72	0.17783526
159	0xbceefefd	-0.029174322
160	0xbd2262dd	-0.039645065
161	0x3c418754	0.01181205
162	0x3e2991e8	0.16559565
163	0xbe63bfc0	-0.22241116
164	0xbd39dcb8	-0.04537651
165	0x3e35f6c7	0.1776992
166	0x3d2e44ab	0.042545956
167	0x3c9ca7de	0.019123014
168	0x3dcfa4ce	0.10138856
169	0xbe2334f6	-0.15938172
170	0x3df63739	0.12022252
171	0xbe0e43e0	-0.1389308
172	0xbdeb5da6	-0.114924714
173	0xbe09742c	-0.13423222
174	0xbb04fc1c	-0.002029187
175	0xbe39e50c	-0.1815378
176	0xbc71527a	-0.014729137
177	0x3e11c453	0.14235048
178	0xbc82f614	-0.01598648
179	0x3e5dff3a	0.21679392
180	0xbe024eb3	-0.12725334
181	0x3e211218	0.15729558
182	0x3e2c1415	0.16804536
183	0xbc026991	-0.007959739
184	0x3d1ca8d2	0.038246937
185	0xbe01d17d	-0.1267757
186	0x3d520380	0.05127287
187	0x3dbc0a9d	0.09181712
188	0x3ca536e4	0.020167775
189	0x3e4a0f37	0.19732367
190	0x3e143ae6	0.14475593
191	0x3dcb3d97	0.09923857

gru2.weight_ih_l0 f4 [192, 64]
0	0xbdfa5d14	-0.122247845
1	0xbdbc30c5	-0.091889895
2	0xbc6c0a07	-0.014406688
3	0xbcf32863	-0.029682344
4	0xbcc98b23	-0.024602478
5	0xbd2ed270	-0.042681158
6	0xbde8da76	-0.11369793
7	0xbcac3524	-0.021021433
8	0xbd9c23a2	-0.07623984
9	0xbe2ba7b5	-0.16763194
10	0x3e365f62	0.17809823
11	0x3df08451	0.11743987
12	0x3c48c3f2	0.012253748
13	0xbd0202eb	-0.031741064
14	0x3d18f740	0.03734517
15	0x3d89c874	0.067276865
16	0x3cc95296	0.024575513
17	0xbcb2db68	-0.021833137
18	0xbb71b7b5	-0.003688318
19	0x3d2e8a14	0.04261215
20	0x3df3de62	0.119076505
21	0x3c8a987c	0.016918413
22	0x3bfc67dd	0.007702811
23	0x3e19dbfc	0.15025324
24	0x3e0acfcf	0.13555835
25	0x3de12eb0	0.10995233
26	0x3e27f945	0.16403683
27	0x3c5635ae	0.013074322
28	0xbc102027	-0.008796728
29	0xbb784c33	-0.0037887215
30	0xbc8f0519	-0.017458485
31	0xbbc92737	-0.006138708
32	0xbbb0cd2d	-0.0053955526
33	0xbe1aa34a	-0.15101352
34	0x3d748b79	0.059703324
35	0x3e34ab65	0.17643507
36	0x3e238ab7	0.15970884
37	0x3d6b1f83	0.0574031
38	0x3c974333	0.01846466
39	0xbc091d0d	-0.008368743
40	0xbe0ee62b	-0.1395499
41	0x3d35f95c	0.04442726
42	0xbd8b75a3	-0.06809547
43	0x3e502bf3	0.20329265
44	0x3e1b1663	0.15145259
45	0x3d61e7a8	0.055152565
46	0x3e574578	0.21022594
47	0x3d41af08	0.047286063
48	0xbd2d7658	-0.04234919
49	0xbd850a15	-0.064960636
50	0x3d863b89	0.06554324
51	0x3dcd1b71	0.10015
52	0x3ccfc8cc	0.025364302
53	0x3cba2622	0.022723261
54	0x3e081e3d	0.13292785
55	0xbd2506a8	-0.04028955
56	0xbe4c4e4a	-0.1995174
57	0xbe129fcc	-0.1431877
58	0x3c83d65b	0.016093424
59	0xbd6f82f5	-0.0584745
60	0xbd4cf6ca	-0.050040044
61	0xbcfa5f2e	-0.030562963
62	0xbcc60f05	-0.024177084
63	0x3bff17d4	0.007784823
64	0x3d883383	0.0665045
65	0x3c985c7f	0.018598793
66	0xbdad2587	-0.084544234
67	0xbd53d0fa	-0.051712967
68	0xbaf6d093	-0.001883047
69	0xbd580d21	-0.052746896
70	0xbc0ac19d	-0.008469013
71	0xbd07766f	-0.03307193
72	0xbbebb977	-0.00719374
73	0xbd2862ba	-0.041109778
74	0xbd9a39a9	-0.07530529
75	0xbd88e89e	-0.06684993
76	0x3dd5719d	0.10422061
77	0xbd12a087	-0.035797622
78	0x3d9aca44	0.0755811
79	0xbb1df32d	-0.0024101243
80	0x3d54e4f4	0.05197616
81	0xbc8ed739	-0.01743661
82	0xbd10fea0	-0.03539908
83	0x3cc12b29	0.02358015
84	0x3d495141	0.049149755
85	0xbb1f543c	-0.0024311682
86	0x3c3543d0	0.011063531
87	0x3d3e95ff	0.046529766
88	0x3db4b177	0.08822911
89	0x3d69215c	0.05691658
90	0xbb68bbe3	-0.003551238
91	0xbcfd7f71	-0.030944558
92	0xbd5b77d9	-0.053581093
93	0xbb70ce55	-0.0036744077
94	0x3db3eaf7	0.0878505
95	0x3d30638a	0.043063678
96	0xbaa04d77	-0.0012230118
97	0x3b4ef2a2	0.0031577726
98	0xbc83ca84	-0.016087778
99	0x3cca5f9b	0.024703791
100	0xbb673ec2	-0.003528521
101	0x3c4ab66d	0.012372595
102	0x3d73ec0f	0.059551295
103	0xbaf279b0	-0.00184994
104	0x3cbea5b1	0.023272367
105	0x3cd15492	0.025553022
106	0xbb4609d9	-0.0030218272
107	0x3d9930ab	0.07479986
108	0xbc07548c	-0.008259904
109	0xbc380ad3	-0.011233049
110	0x3d3afeaa	0.045653023
111	0x3e5808de	0.21097133
112	0x3c280781	0.010255695
113	0xbc68ae07	-0.014201648
114	0x3d4751ce	0.048662
115	0xbcf09b57	-0.029370947
116	0xbd9aa085	-0.07550148
117	0x3c8b25ec	0.016985856
118	0xbcbb1b47	-0.022840155
119	0xbd444729	-0.047919426
120	0xbd790a42	-0.0608008
121	0xbcfa58a8	-0.030559853
122	0x3d9d7528	0.076883614
123	0xbd929a5a	-0.071583465
124	0xbccfbf6c	-0.025359832
125	0xbd675924	-0.056481495
126	0x3caeb052	0.02132431
127	0xbc904161	-0.0176093
128	0x3ca374c2	0.019953135
129	0xbe25d0f0	-0.16192985
130	0x3be29e8e	0.006915874
131	0xbd768584	-0.060185924
132	0xbdb6b90e	-0.08922015
133	0x3d42e2e5	0.047579665
134	0xbe3bd11a	-0.18341485
135	0x3e07892c	0.1323592
136	0xbe415a76	-0.18882164
137	0xbe59a841	-0.2125559
138	0x3d298a21	0.041391496
139	0xbda45624	-0.080242425
140	0xbd924b24	-0.07143238
141	0xbe2d224a	-0.16907611
142	0x3de113cf	0.10990106
143	0x3e43f0f7	0.1913489
144	0xbe4211a2	-0.18952039
145	0x3e2b3e8b	0.16723077
146	0xbe09bef6	-0.13451752
147	0xbccfb3eb	-0.025354346
148	0x3d9238b0	0.071397185
149	0x3daa2453	0.083077095
150	0x3d557278	0.05211112
151	0x3e465a3d	0.1937036
152	0x3e015a99	0.12632217
153	0x3cc8ace2	0.0244965
154	0x3d270c9d	0.040783513
155	0xbd0a2915	-0.033730585
156	0xbe4e0bd7	-0.20121704
157	0x3c399b47	0.011328525
158	0xbd6b7e9a	-0.057493784
159	0xbe0e5ae1	-0.13901855
160	0xbe5a77de	-0.21334788
161	0xbe210853	-0.15725832
162	0xbc8427dc	-0.016132288
163	0x3de18b10	0.11012852
164	0x3e4309af	0.19046663
165	0x3d7f752d	0.062367607
166	0x3e2c2865	0.16812284
167	0x3e3066f4	0.17226774
168	0xbd2005b3	-0.039067935
169	0x3e26b92a	0.16281572
170	0x3dda2d21	0.10653139
171	0xbbdd6f35	-0.0067576417
172	0x3dce23de	0.10065435
173	0xbe046234	-0.12928087
174	0x3dd1e6e0	0.10249114
175	0x3db20aea	0.08693488
176	0x3cf6417e	0.030060526
177	0xba87dc37	-0.0010365312
178	0x3e631980	0.22177696
179	0x3c0216da	0.007940019
180	0x3de18deb	0.11013397
181	0xbe27c683	-0.1638432
182	0x3dc90172	0.09814729
183	0xbdc305ca	-0.095225886
184	0xbe332503	-0.17494588
185	0x3b6dd97a	0.0036292956
186	0x3d917e06	0.07104115
187	0xbdb2790a	-0.087144926
188	0xbd5d556b	-0.05403654
189	0xbcec9cea	-0.028883416
190	0x3d5b2f31	0.053511802
191	0x3dd0d041	0.10195971
192	0x3d1f2137	0.038850036
193	0xbd4236c8	-0.047415525
194	0x3d0061f5	0.03134342
195	0x3c7f0efb	0.0155675365
196	0xbc1720bc	-0.009224113
197	0x3cf0962d	0.029368484
198	0x3d50a69c	0.05094014
199	0x3c25400d	0.010086072
200	0xbdc89b28	-0.09795219
201	0xbde5e222	-0.11224772
202	0xbd8ad81e	-0.06779502
203	0xbe0642f6	-0.13111481
204	0xbd06888c	-0.032845065
205	0xbc2336ae	-0.009961767
206	0x3ddc4a53	0.10756364
207	0xbd8da6cf	-0.06916582
208	0xbd0d77b7	-0.034537997
209	0xbddb2e87	-0.10702234
210	0x3d9c16e9	0.07621557
211	0xbc98be80	-0.018645525
212	0x3cfbf459	0.030756162
213	0x3bf77cf4	0.0075527374
214	0xbd456c15	-0.04819878
215	0xbcfd93aa	-0.0309542
216	0x3ddcb723	0.10777118
217	0xbd8da94a	-0.06917055
218	0xbaac8e0c	-0.0013164892
219	0xbdcf8e86	-0.10134606
220	0xbdbb9c30	-0.0916065
221	0xbc4f5c43	-0.012656274
222	0xbc9f7405	-0.019464502
223	0xbda009e6	-0.07814388
224	0x3d553d8f	0.05206066
225	0x3cc748a0	0.024326622
226	0x3c858ea2	0.016303364
227	0xbc09cfe8	-0.008411385
228	0xbde31dcd	-0.110896684
229	0x3c4e5bd3	0.012595135
230	0x3e001dbd	0.12511344
231	0xbdab576e	-0.08366285
232	0x3b54ed4f	0.003249008
233	0x3d6bd03a	0.057571627
234	0x3b886eab	0.0041635833
235	0xbd818712	-0.06324591
236	0xbbf4a20b	-0.007465606
237	0xbcf9c765	-0.030490587
238	0xbbe114b2	-0.006868922
239	0x3db94b4a	0.090475634
240	0x3c57f431	0.013180778
241	0xbd02dadc	-0.031947
242	0x3d4a6dcd	0.04942112
243	0xba8d8ba0	-0.0010799058
244	0xbd081d3c	-0.033231005
245	0xbcaa0f91	-0.020759376
246	0x3d8bdb5e	0.0682895
247	0xbe17173e	-0.1475496
248	0xbc939a97	-0.01801805
249	0x3dc2a65e	0.09504388
250	0xbd32290f	-0.043496188
251	0x3ca588e3	0.020206874
252	0xbc5610b0	-0.013065502
253	0xbdd691d6	-0.10477035
254	0xbe0b2eb4	-0.13592035
255	0x3d99d2d1	0.07510913

gru2.weight_hh_l0 f4 [192, 64]
0	0xbcd4a136	-0.025955778
1	0xbe2d0f30	-0.16900325
2	0x3c5ded8b	0.013545404
3	0x3e111cef	0.14171194
4	0xbc24c88f	-0.0100575825
5	0x3cc34d3c	0.02384054
6	0xbdbad34e	-0.091223344
7	0x3dbc722e	0.092014655
8	0xbddf95ad	-0.1091722
9	0x3d3b9b04	0.04580213
10	0xbb80585b	-0.003916783
11	0xbda52a47	-0.080647044
12	0x3c92d918	0.017925784
13	0xbd908d36	-0.07058184
14	0x3d14f399	0.036365125
15	0xbe24fed0	-0.16112828
16	0x3cceb1e8	0.025231317
17	0x3cb83593	0.022486484
18	0xbdf9410c	-0.1217061
19	0xbe56d2f2	-0.20978907
20	0x3de75f78	0.11297506
21	0x3d2966db	0.041357856
22	0x3e007912	0.12546185
23	0xbe2b2c3b	-0.16716091
24	0xbc4957d9	-0.012289011
25	0xbd3a3027	-0.045456078
26	0xbd14bd33	-0.036313247
27	0xbe0d578a	-0.13802925
28	0x3e110118	0.14160573
29	0xba54f33a	-0.0008123402
30	0xbdc86c48	-0.09786278
31	0xbdb380c6	-0.08764796
32	0xbdd36e8d	-0.1032382
33	0x3d92da20	0.0717051
34	0xbdf67679	-0.120343156
35	0xbc09e223	-0.008415732
36	0xbc98e756	-0.018664997
37	0x3c832ac3	0.016011601
38	0xbd4bd254	-0.04976113
39	0x3e27dc4f	0.16392635
40	0xbe579610	-0.21053338
41	0x3c9c2905	0.019062528
42	0xbc2cdfef	-0.010551437
43	0x3b91d8af	0.0044508795
44	0xbc4d3642	-0.012525143
45	0xbd3788d9	-0.044808242
46	0xbe5e91da	-0.21735325
47	0x3e25bd35	0.16185458
48	0xbe3ba896	-0.18326029
49	0x3d7d0f91	0.061782423
50	0xbc496bb6	-0.012293747
51	0x3cbf892f	0.023380844
52	0xbdc7806a	-0.0974129
53	0xbba93bfd	-0.005164622
54	0x3ca51b6a	0.020154674
55	0xbc146029	-0.0090561295
56	0xbe49fe36	-0.1972588
57	0x3d160195	0.036622602
58	0xbe476160	-0.1947074
59	0x3c523637	0.012830309
60	0x3dbe4061	0.09289623
61	0xbe130910	-0.14358926
62	0xbc1e80d6	-0.009674272
63	0xbc924282	-0.017853979
64	0xbd36aedf	-0.044600364
65	0x3cbdb311	0.023156675
66	0x3dd3a4dc	0.10334179
67	0xb739db70	-1.1077951e-05
68	0xbd73532a	-0.059405483
69	0x3d8bfc85	0.06835274
70	0xbc5429a7	-0.012949384
71	0xbb6214fe	-0.0034497376
72	0xbc731421	-0.014836342
73	0xbc88c87a	-0.016697157
74	0xbd23059d	-0.039800275
75	0x3a4f7b26	0.0007914774
76	0x3b964abb	0.0045865453
77	0xbde89104	-0.113557845
78	0x3d9047d0	0.07044947
79	0xbe245024	-0.16046196
80	0xbb2078fc	-0.0024486175
81	0xbcd9675e	-0.026538547
82	0xbc1589dc	-0.0091271065
83	0xbc19d539	-0.009389215
84	0xbc8e154b	-0.017344138
85	0x3dade716	0.08491342
86	0xbd013290	-0.03154236
87	0xbe290dbc	-0.16509145
88	0x3c872af7	0.01649998
89	0x3d97d57d	0.074137665
90	0xbe34ba89	-0.17649283
91	0x3d0d11f2	0.034440942
92	0x3c424683	0.011857632
93	0xbc1c1d74	-0.009528507
94	0xbdff9cfe	-0.12481116
95	0xbd90d3a9	-0.07071621
96	0x3c9f9727	0.019481255
97	0xbc4da462	-0.012551399
98	0xbe3799b7	-0.17929731
99	0xbe1adf4d	-0.15124245
100	0xbbfeceb2	-0.007776105
101	0xbe1eef43	-0.15520959
102	0x3d172c2d	0.036907364
103	0x3d2f3255	0.04277261
104	0xbc45a2e2	-0.01206276
105	0xbb82a58d	-0.0039870203
106	0xbc199948	-0.009374924
107	0x3d23c988	0.039987117
108	0x3ce1e510	0.027575046
109	0xbd0daa02	-0.03458596
110	0x3c2cfad6	0.010557851
111	0x3db0ef2b	0.08639368
112	0xbdb483d8	-0.0881421
113	0xbc65deea	-0.014030198
114	0xbc259338	-0.0101059005
115	0xbe0aab71	-0.13541962
116	0xbdac39c6	-0.08409457
117	0x3db04f4d	0.086088754
118	0x3df03f1c	0.11730787
119	0xbdba8588	-0.091075
120	0xbd2f29f7	-0.04276463
121	0x3c39c129	0.011337557
122	0x3c916cda	0.0177521
123	0x3d90aeaf	0.07064568
124	0x3d978080	0.07397556
125	0xbdf08244	-0.11743596
126	0x3da532b7	0.08066314
127	0xbd1d6ad3	-0.038431954
128	0xbd553073	-0.052048158
129	0xbce50a55	-0.027959028
130	0x3e41573b	0.18880932
131	0x3cc7102e	0.024299707
132	0x3da9542d	0.082680084
133	0x3e2d38cd	0.16916199
134	0xbe267b81	-0.1625805
135	0x3d28dc26	0.041225575
136	0xbd5ce109	-0.053925548
137	0x3e0e5a84	0.13901716
138	0x3c8a0f07	0.016852869
139	0xbd12c484	-0.035831943
140	0xbdbf55b5	-0.09342519
141	0xbd78b123	-0.060715806
142	0x3d168129	0.03674427
143	0xbe5748de	-0.2102389
144	0xbe38a73b	-0.18032543
145	0xbe2fbf3a	-0.17162791
146	0xbda11676	-0.07865612
147	0xbd92c4dc	-0.07166454
148	0x3ccfd1cb	0.025368592
149	0x3da8437f	0.08215999
150	0x3d1ed082	0.038773067
151	0xbdbf2d58	-0.093348205
152	0x3e45c385	0.19312866
153	0x3d86d744	0.065840274
154	0xbc00dafa	-0.007864708
155	0xbd9c7a61	-0.076405294
156	0x3d29849f	0.041386243
157	0xbe5c75e2	-0.21529344
158	0xbdce1228	-0.10062057
159	0xbc2ab1a8	-0.010418333
160	0xbdb90dc1	-0.090358265
161	0xbc2e6662	-0.010644527
162	0xbd151286	-0.03639462
163	0x3c8d350f	0.017237214
164	0xbc776c34	-0.015101481
165	0xbe2f9c2c	-0.17149419
166	0xba8ff28e	-0.0010982321
167	0x3e0eff47	0.13964568
168	0x3c1b7c0e	0.009490026
169	0xbddb6981	-0.10713483
170	0x3e155da5	0.14586504
171	0x3dc9f2e7	0.09860783
172	0x3dba3c9b	0.09093591
173	0xbe3767d0	-0.17910695
174	0xbe3865ec	-0.1800763
175	0x3e216622	0.15761617
176	0x3bef350b	0.0073000244
177	0x3cde8cc9	0.027166741
178	0xbd6e6c84	-0.058208957
179	0xbdf79353	-0.12088647
180	0xbe31bff3	-0.17358379
181	0x3e57e2b2	0.21082571
182	0x3d240d59	0.04005179
183	0xbe57392f	-0.21017908
184	0xbe2b890c	-0.16751498
185	0xbe11a65a	-0.14223614
186	0xbdd15276	-0.10220806
187	0xbe34b23d	-0.17646118
188	0x3e3e4747	0.18581878
189	0xbe243295	-0.1603492
190	0x3d816131	0.06317366
191	0x3d922575	0.071360506
192	0x3d58cdcc	0.05293064
193	0xbd492a98	-0.049112886
194	0x3c4a98d5	0.01236554
195	0xbc50eb0c	-0.012751352
196	0x3d9deb68	0.07710916
197	0xbcaaea16	-0.020863574
198	0x3d98d15c	0.07461807
199	0x3d0710b6	0.03297492
200	0x3d803fac	0.062621444
201	0xbd3252d4	-0.043536022
202	0x3ac58644	0.0015069922
203	0x3c7f0d9e	0.015567211
204	0xbcf6be60	-0.030120075
205	0x3cac174f	0.021007208
206	0x3da3b9e1	0.07994438
207	0xbe1a160d	-0.15047474
208	0xbc9e6ee9	-0.019339995
209	0x3d8d24fe	0.06891821
210	0x3d614ed2	0.05500681
211	0xbdae0f0f	-0.08498966
212	0x3dad6ab4	0.08467618
213	0xbc565b8c	-0.01308335
214	0x3cb1950f	0.021677522
215	0xbdca51d8	-0.09878892
216	0x3cfabbf3	0.0306072
217	0x3db33d87	0.0875197
218	0x3b89bd31	0.0042034616
219	0x3ba51eec	0.0050390866
220	0xbd29cb60	-0.04145372
221	0xbc911946	-0.017712247
222	0x3c57d3cd	0.013173056
223	0xbd226310	-0.039645255
224	0xbcdd319d	-0.027001197
225	0x3c318110	0.010833994
226	0x3c63c2ac	0.013901394
227	0xbdd5cab7	-0.104390554
228	0xbd09f218	-0.033678144
229	0xbd853f52	-0.06506218
230	0xbd8ac817	-0.06776445
231	0x3daa2275	0.083073534
232	0xbce3309c	-0.02773314
233	0x3d1fe848	0.03903988
234	0x3dda75a0	0.106669664
235	0xbcb10ef6	-0.02161358
236	0x3d8a3c02	0.06749727
237	0xbbb3044b	-0.0054631582
238	0xbd09eec9	-0.03367499
239	0x3d837d71	0.064204104
240	0x3ce2b437	0.027673824
241	0x3cadefaa	0.021232445
242	0xbe04e5bb	-0.1297826
243	0x3c9d7522	0.019220892
244	0x3c9c6dc1	0.019095303
245	0xbd06a0bf	-0.032868143
246	0x3c907e92	0.017638478
247	0x3d042be1	0.03226841
248	0xbd8c22fc	-0.0684261
249	0xbcc18c43	-0.023626452
250	0xbdddf4be	-0.108376965
251	0x3c9b44d0	0.01895371
252	0x3d899ee7	0.06719761
253	0xbdd18165	-0.10229758
254	0x3d86e855	0.065872826
255	0x3d823053	0.06356873
