script/train/checkpoint/LeVoice-2001.pth (torch, 229391 bytes, 14 tensors)

tf.weight f4 [64, 40]
00000000: 7d64 aebd 7232 58bd 8877 973c 1e4c f3bd
00000010: 60df c7bd a67a cebd 2324 09be 09dd d6bd
00000020: 51f3 5bbd 6948 173e b296 e1bd 3296 04be
00000030: 4c24 ddbd bdd0 33bd 7617 e4bd 067f 84bd
00000040: fe2c 79bd 0ca2 033c e2e5 3cbc f712 693d
00000050: 76bd 123e 60ab b03d 3930 323d 4f6f be3d
00000060: 2a07 1a3d 5589 60bc 327a 06bb 276d c73c
00000070: a304 04bd 95de 31bd 10f6 bbbd f2f1 67bd
00000080: bbec e5bc e925 163d dd63 5abd 8fcc a4bc
00000090: d959 4c3d d6bf 8f3d 31bc 323c b873 c4bc
000000a0: d90e 203e 6fa7 51bf 64c4 d3bd abd8 1b3d
000000b0: 2ae5 6fbe 35d1 e8bd aa73 1ebd 92b5 db3e
000000c0: e117 0cbe 0f44 bdbe 2790 bdbc 0ee6 98be
000000d0: c695 68be 47bf 8dbe 744d b6be eb87 efbe
000000e0: 55a3 4abe b154 263e 1585 fd3e 7396 c33e
000000f0: fe14 a23e 3882 39bd 9055 17be 51d6 d6be
00000100: 44ac fbbe 6025 0bbf 48db 1dbf 17b8 23bf
00000110: cb50 27bf 0080 f3be 20f7 15bc 908f 60bd
00000120: 0f0b a13e ff60 7a3e b721 f73e b1da 2a3f
00000130: 7b58 343f 62b4 563f 09cf aa3e d0f6 023d
00000140: 3aa9 c0bd 94d0 763e 35e8 b13e 7d94 eebd
00000150: 1611 77be e665 2abf e312 b2be cd52 3e3e
00000160: a1cc a63e 55cb 963e c0b9 d23e d932 013f
00000170: ab08 9a3e c1f1 013f 94b4 5a3e 7146 573e
00000180: 6319 163e 4a63 143d 52c5 c6bd abb7 353e
00000190: 5ce5 2f3e 6264 50be 02c9 91be c9d4 06bf
000001a0: fbda 32bf 5e67 fcbe 28d9 a1be 7e51 c9be
000001b0: 4931 9ebe e527 a8be e56c bebe efe1 e9be
000001c0: 004c 0cbf cca5 07bf f637 23bf d059 20bf
000001d0: dc83 23bf a077 20bf d08b edbe 227b 73be
000001e0: f6b5 aabd f86b 9bbd 2a4d 5e3e e015 d53e
000001f0: 98c4 443f 3196 7c3f 9bff 1a3f 432b 34be
00000200: 708a c2bf ef7e 9fbf 8492 90bf 7e5d bdbf
00000210: 5c58 a7bf ba78 aabf 4809 64bf bf09 7cbf
00000220: cce5 31bf f1ff 10bf 44d2 77be b6cd 6c3e
00000230: f2c8 283d 4771 463e 375a 953e 3407 333d
00000240: 18ee 933e 107d 793e db24 0d3e 030f f8bd
00000250: 5259 023f b251 d53e 5bd9 a63e 79d6 1c3d
00000260: ddc5 9dbe 97ef eebe 549c 95bd 4c7c 143e
00000270: c2dc 863e bfbd 923e 9b98 5dbe eeff e9be
00000280: b1cc 01bf efab bdbc 0360 8abe 2d98 2ebe
00000290: a464 263e 2f64 253e 7d11 ea3d e67b 743e
000002a0: 52bb 683e b369 a13e 4db9 ac3e 808b 393e
000002b0: 34b1 743e df2c 493c 6586 89be 8378 44be
000002c0: 0ecb 25be 8927 18be 9094 22be bcd9 ccbd
000002d0: 7c0c 60be 8bbc 223c 7370 963d 93b4 e23d
000002e0: 6329 193e fafd b43e f74e 243e d5f3 353d
000002f0: 005e c9bb 7dc6 643d 8319 6d3c e215 9f3c
00000300: b4bc a73c 8b8f 963e ec76 163e 604f 8a3e
00000310: 79e2 743e f4e3 553e 1342 c23e 3f30 313e
00000320: dfeb b3bf 8320 88bf f302 77bf 36f2 3ebf
00000330: c418 13bf 1864 1cbf a19e 09bf b74d f3be
00000340: 03fd aabe d4d1 9dbe 1378 98be c0a0 adbe
00000350: 10d4 8cbe 32f7 88be 85d5 4cbe d4a2 66be
00000360: 850e 8ebe 18d7 5bbe 4ade 55be b11c 80be
00000370: 51c2 36be 3285 21be 883b 27be 981e bdbd
00000380: 06c0 55be 0a85 08be 7170 79be bdfb 7fbe
00000390: 68eb 66be 9de3 56be cefe 83be 122b 6dbe
000003a0: 868f b2be bde8 babe 28fb dabe 1f35 cdbe
000003b0: fd80 c0be 11b7 c8be 4a48 80be 6a6f b6bd
000003c0: a398 d93b a25d 77bc b388 8abe d6b1 6cbe
000003d0: a1b2 20bd 9f39 0abe 1d13 cd3c 4ff7 9bbd
000003e0: 4c7a 1abe 1d67 74bd 6b50 20bd b02c 44bd
000003f0: b115 4ebc 5732 e0bb 2bd2 033c da6b 71bb
-0.0851526 -0.052782483 0.018489614 -0.118797526 -0.09759402 -0.10081987 -0.13392691 -0.10491378
-0.05369884 0.14773716 -0.11015071 -0.1294792 -0.10797939 -0.04390024 -0.11137287 -0.0646954
-0.060833924 0.00803424 -0.011529418 0.056902852 0.14330086 0.08626437 0.04350302 0.09298574
0.03760449 -0.0137046175 -0.0020519611 0.02434404 -0.032230984 -0.04342516 -0.09177792 -0.05662722
-0.028066983 0.036657248 -0.053317893 -0.020117072 0.049890373 0.07019012 0.010909126 -0.02398096
0.15630664 -0.8189611 -0.10340193 0.038048428 -0.23427263 -0.11368028 -0.038684525 0.42911965
-0.13680984 -0.36965987 -0.023140026 -0.29863018 -0.22713384 -0.27684996 -0.35605967 -0.46783385
-0.19788869 0.16243245 0.49515596 0.3820072 0.3165664 -0.045290202 -0.14778733 -0.41960385
-0.49154866 -0.54353905 -0.6166272 -0.63952774 -0.65357655 -0.47558594 -0.0091531575 -0.054824412
0.3145375 0.24451064 0.4826791 0.66739947 0.7044751 0.8386899 0.3336108 0.03197366
-0.094072774 0.24103004 0.34747472 -0.11649416 -0.24127612 -0.66561735 -0.34780034 0.18586273
0.32577994 0.29452005 0.4115734 0.5046821 0.30084738 0.5075951 0.21357948 0.21022965
0.14658122 0.036227502 -0.097056046 0.17745845 0.17177337 -0.20350793 -0.2847367 -0.52668434
-0.6986539 -0.49297613 -0.3161099 -0.39319986 -0.30896977 -0.32842937 -0.37192455 -0.45680186
-0.54803467 -0.5298736 -0.63757265 -0.62637043 -0.63873076 -0.62682533 -0.4639573 -0.2377744
-0.083354875 -0.07588953 0.21709123 0.41618252 0.7686248 0.98666674 0.60546273 -0.17594628
-1.5198498 -1.2460612 -1.1294713 -1.4794157 -1.307384 -1.3318093 -0.8907666 -0.9845237
-0.6949127 -0.56640536 -0.24201304 0.23125347 0.04120726 0.1937915 0.2917039 0.04370804
0.2889259 0.24364114 0.1378359 -0.12112238 0.5091754 0.4166389 0.32587704 0.038290475
-0.3081502 -0.46667168 -0.07305208 0.1450054 0.263403 0.2866039 -0.21640246 -0.4570307
-0.5070296 -0.023153273 -0.27026376 -0.17050238 0.16249329 0.16151498 0.11429117 0.23875389
0.22727707 0.31525955 0.33735123 0.18119621 0.23895723 0.0122787645 -0.26860347 -0.19186597
-0.1619074 -0.14858831 -0.15876985 -0.10002467 -0.21879762 0.009932647 0.07345667 0.11069598
0.14957194 0.3535002 0.16045748 0.04442199 -0.006145239 0.055853356 0.0144714145 0.019419614
0.020475723 0.2940639 0.14693803 0.27013683 0.23914517 0.20887738 0.37941036 0.1730356
-1.4056357 -1.0634922 -0.96488875 -0.74588335 -0.57459664 -0.6109023 -0.53757674 -0.4752023
-0.33396158 -0.3082415 -0.2977911 -0.33911705 -0.2750554 -0.26751095 -0.20003326 -0.22523052
-0.27745453 -0.2146877 -0.20885578 -0.2502189 -0.17847563 -0.15773466 -0.16331303 -0.09234351
-0.20874032 -0.13332 -0.24359299 -0.24998374 -0.22550738 -0.20985265 -0.25780338 -0.23160961
-0.34875125 -0.3650569 -0.42769742 -0.4007959 -0.3759841 -0.3920217 -0.25055152 -0.08907969
0.00664051 -0.015098007 -0.27057418 -0.23114714 -0.039232854 -0.13498543 0.025033528 -0.0761553
-0.15085715 -0.05966865 -0.039139193 -0.04789418 -0.012578414 -0.0068419385 0.008045713 -0.0036837966

tf.bias f4 [64]
00000000: f055 b2bd 52b1 84bb 3cb9 823d 5a8d a03d
00000010: 87d4 ddbc d89b 593d c198 11be f0b3 6fbc
00000020: 5b77 b43d e73c 923d b0e0 57bd 2636 97bc
00000030: 5f0b f43d 0e54 7fbd 7cfb 08be 1ac6 16be
00000040: 2a60 e03c fe73 5ebc 4387 adbd 366d 223d
00000050: 8f2c 09be cdd7 f0bd bc93 56bc 2333 94bc
00000060: a541 963d 3a46 c0bd 6e3c ad3c c30b 643d
00000070: 1524 60bc 7c6f 8dbc 922b 703e 6c82 5f3d
00000080: dd31 d9bb d81e 823d a55f 21bc 54fa 0cbe
00000090: 1cc7 e03d cf12 ea3d b135 64bd 76bf 0080
000000a0: 04c9 b1bc 86d9 26bd c45f bf3a 8c38 b63d
000000b0: 0187 e5a2 eaa1 a1a2 d654 9cbd 3d09 e6a3
000000c0: da5e 4b3d 8234 673d ee7a 993c b9e9 1a3d
000000d0: 533e 09b7 4bdd a4be 39d6 d13b ac00 603d
000000e0: 7c06 0080 0f36 873c 623a 49bc c6f7 34bd
000000f0: 2643 74ab 3a7b 5d3b 06f8 b53d c679 b53b
-0.087077975 -0.0040494585 0.06382987 0.07839461 -0.02707888 0.05312714 -0.14218427 -0.014630303
0.08811828 0.071405225 -0.052704513 -0.018458437 0.11916231 -0.06233602 -0.13377184 -0.14724007
0.027389605 -0.013577459 -0.08473065 0.039654933 -0.13395904 -0.11759911 -0.013096746 -0.01809079
0.073367395 -0.09388395 0.02114698 0.05567528 -0.013680478 -0.017265074 0.23454121 0.05456774
-0.0066282586 0.06353539 -0.009849464 -0.13767368 0.10975477 0.11429369 -0.055715267 -6.8683e-41
-0.021702297 -0.04073479 0.0014600684 0.08897504 -6.2213515e-18 -4.381057e-18 -0.07633369 -2.4940563e-17
0.049651004 0.05644656 0.018735375 0.03782055 -8.180347e-06 -0.32200083 0.006403711 0.05468814
-2.326e-42 0.01650527 -0.012281986 -0.044181608 -8.67794e-13 0.0033795373 0.08885197 0.005538198

gru1.weight_ih_l0 f4 [192, 64]
00000000: d7b4 75b8 430b 14bb 0ac6 9cbc 4861 70bc
00000010: 6fe1 a7bb cfa3 973a 1da0 69b1 1f51 c1b8
00000020: 4be8 26bd b407 29bc c16d 883a 56ec 45bb
00000030: 403b 27bc 5651 8cba 780d d93a 9ba7 c335
00000040: af4a 90bc 29ef 3e39 14f2 daba bf13 43bc
00000050: 1622 483a ae55 bf3a 8298 2ab9 2f54 03ba
00000060: 4020 aebc c286 2639 94d1 67bc 8867 973a
00000070: 0e2f 0d3b 52b4 47b9 938d 04bd d697 813a
00000080: f9b2 64ba 501a 323a bb4f 3bbc b381 abba
00000090: 1bab 8abc 6f42 e8bc 50ef 89b5 d39b 90bb
000000a0: 8692 183b 1a82 c8bb 4642 323b 1040 f2bc
000000b0: 9b07 0080 a5f7 9fbb 378d 523a 030a 0080
000000c0: f8df a93a beb2 c8bb 4b33 1abc a40d 47bc
000000d0: c85f 9a3b bd7d d03a c4a8 343a 48c5 1fbc
000000e0: ae01 0080 e6fc 3dbb 7160 b6ba 7215 a1b4
000000f0: 1bdd a03b 87dc 6c3a 4772 a4bc d95a 6dbc
00000100: d2ab f8ba baa0 303d 4e9c a83d 3793 82bd
00000110: 4d16 3d3b 11b8 1ebb d656 bfb8 2924 3cbb
00000120: f990 323e 0baf 043d 39f3 0e3d c0d6 c12c
00000130: 3c0b 853d ae47 36bc 4576 a0bc 582a cf3c
00000140: 192b 3abd ec11 6dbc cebb 23bd 02ee 513d
00000150: 613b 9c3c db69 8dbc efd3 5998 26ab 1533
00000160: 6c46 eabc a965 72ba df05 273d 1573 27bb
00000170: 45de 7e3d 3dc9 1dbc b08e 23ba 33a5 22bb
00000180: eb64 e4bc 87e9 49bb c9af 803d d74c c2b7
00000190: 88c4 273c ad98 7f3d 04de 39b9 4a0e 0080
000001a0: 81a7 54bd 1a92 4e3d a99c 0b3e 8529 dd3d
000001b0: 2905 0000 ee5b 7e38 944c e83c fb0b 0080
000001c0: 3168 09bb 346e 3dbd 2718 3e3d 8319 b8b9
000001d0: 5205 0000 1b75 7a3d 89c5 d8bb c145 b73c
000001e0: fa99 a03b d0e6 80bd 547b 8eb6 e6dd 3e39
000001f0: c30a 0000 d175 cf3c 8564 333d c335 ab3d
00000200: 14fa 2dbb 5907 4b3c b564 8d3b c5b2 bc3c
00000210: e467 423b 0aab 7a3b e098 5a39 47e0 803a
00000220: cf7f 8abd f66c 913c b09c 923c fe7e 8637
00000230: 99ad e83c 8883 da3b 1712 5ebb 5db8 083c
00000240: 83af 8bbc c69c fc3a 543c 583b 794d 95bc
00000250: a643 4a3c 918c 0ebc 6dfa 9838 673f 83ab
00000260: 6a1b b2bb a6d0 8e39 95f5 913c 1a70 823b
00000270: a234 793c 1ff1 473c 7c1d b53b 0f50 6a3b
00000280: fb01 d4ba 748a 6b3b 919a 68bc ef79 573b
00000290: b27e 8d3c e024 ddbb 8b9d 2538 7306 0080
000002a0: 62d0 c83c 0c6d 193a 8283 523d 31d2 d9bb
000002b0: b80b 0000 ca4d 983b 21f5 df3c 020f 0000
000002c0: 9ae6 813b d5d6 443c fb98 ff3a 7b39 08bc
000002d0: 0c0a 0000 7b1c 1b3c 709b 8e3c 0734 1d3c
000002e0: 9305 0000 a668 a53b d70b edb4 f725 8bba
000002f0: e122 573b 2d7b 273d 97e0 683b 1fc4 963c
00000300: 489a 00bc 3284 29bd 3163 813d c221 e9bd
00000310: 17e6 88bc b120 b4bc 3603 9eb8 6c5d 68bb
00000320: 1a81 dbbd b254 76bb fd4c 96bd 51c8 98b2
00000330: 1cd1 23be 1415 fbbc 7d3b 34bc bf20 a1bb
00000340: bd7e 02be ac4c c9bc 159f f8bd e7ba b03d
00000350: a1c7 9fbc ff95 b0bd d107 5830 93c1 89b6
00000360: fd8b a7bd 7935 51ba 14d4 213a ba34 b7bc
00000370: 0b80 30bc 66d2 0bbe 65e5 83bc 3668 bbbc
00000380: e155 03bd c2ce e0bc 839a 9ebd 2571 bb37
00000390: cc36 19bd 6c8e be3d f0e5 3fbb 8b73 b8bb
000003a0: 4906 fabc 97fc 1fbd 3fb2 9e3c 7bfa ef3c
000003b0: 7503 0000 104c 713b 7a47 8abd a60a 0000
000003c0: bf09 a3bc 729c 50bd 19c8 933d 4bf8 4fbd
000003d0: 1f0b 0000 9bc0 b43b 4d0f cabd 2878 013e
000003e0: 810e 0080 9b26 f73c 05a3 6db9 3ec7 013d
000003f0: 4590 94bb 8355 95bd b9a3 a93d b9cd 07bd
-5.8580972e-05 -0.002258972 -0.019137401 -0.014671631 -0.0051233093 0.0011569205 -3.3996976e-09 -9.218067e-05
-0.040748876 -0.010316778 0.0010408686 -0.0030200682 -0.010206997 -0.0010705392 0.00165598 1.4577412e-06
-0.017613737 0.00018208906 -0.0016704225 -0.011906563 0.0007634474 0.0014597678 -0.00016269277 -0.0005009798
-0.021255612 0.00015881195 -0.014149088 0.001155124 0.002154294 -0.00019045293 -0.03236158 0.000988717
-0.0008724179 0.0006794082 -0.011432583 -0.0013084918 -0.016927293 -0.02835199 -1.0276945e-06 -0.004413107
0.0023280694 -0.006119025 0.0027200147 -0.029571563 -2.728e-42 -0.0048818165 0.0008031907 -3.592e-42
0.0012960425 -0.0061248234 -0.009411643 -0.012149248 0.004711125 0.0015906614 0.0006891603 -0.009751625
-6.03e-43 -0.002898985 -0.001391424 -3.000419e-07 0.0049091703 0.00090355467 -0.020074023 -0.014486992
-0.0018972105 0.04312203 0.08232938 -0.06375735 0.0028852404 -0.00242186 -9.123764e-05 -0.0028708077
0.17438115 0.032393496 0.034899924 5.509232e-12 0.064962834 -0.011125488 -0.019587645 0.025288746
-0.045451257 -0.014469605 -0.039974026 0.051252373 0.019071283 -0.01726239 -2.8153592e-24 3.4847425e-08
-0.028598033 -0.0009246716 0.040777083 -0.0025550772 0.06222369 -0.0096304985 -0.00062392186 -0.0024817705
-0.027880153 -0.003080936 0.06283528 -2.3162384e-05 0.010239728 0.062401462 -0.00017725682 -5.126e-42
-0.051917557 0.050432302 0.1363398 0.10798935 1.851e-42 6.0643935e-05 0.028356828 -4.298e-42
-0.0020966644 -0.046247676 0.046409752 -0.00035114223 1.909e-42 0.061146837 -0.006615345 0.022372128
0.004901168 -0.06294024 -4.246287e-06 0.00018202476 3.86e-42 0.025324734 0.043797035 0.083598636
-0.0026546763 0.012391889 0.0043149837 0.023034463 0.0029663974 0.003824892 0.0002084705 0.0009832465
-0.06762659 0.017752152 0.01789698 1.603318e-05 0.02840309 0.006668512 -0.0033885294 0.008344737
-0.017051464 0.0019272796 0.0032994943 -0.018225418 0.01234523 -0.008700506 7.29457e-05 -9.325708e-13
-0.005435397 0.00027239806 0.017817298 0.0039806487 0.015210303 0.012203484 0.0055271965 0.0035753285
-0.0016174907 0.0035940679 -0.014197008 0.0032879075 0.017272327 -0.0067487806 3.948579e-05 -2.314e-42
0.024513427 0.0005852736 0.051394947 -0.006647371 4.204e-42 0.004647945 0.027338566 5.384e-42
0.0039642574 0.012014111 0.0019500548 -0.008314486 3.604e-42 0.0094672395 0.017408103 0.009594924
2e-42 0.0050478755 -4.4153305e-07 -0.0010616173 0.0032827186 0.040888954 0.0035534257 0.018404065
-0.0078492835 -0.041385837 0.063177474 -0.11383392 -0.016711278 -0.021988245 -7.534625e-05 -0.0035456074
-0.107179835 -0.0037587103 -0.07338903 -1.7786222e-08 -0.15997738 -0.0306497 -0.011000511 -0.0049172337
-0.1274366 -0.024572693 -0.121397175 0.08629399 -0.01950437 -0.086223595 7.859145e-10 -4.105453e-06
-0.081809975 -0.00079806853 0.00061732647 -0.02236401 -0.010772715 -0.1365448 -0.016100595 -0.02287684
-0.032064322 -0.02744234 -0.077443145 2.2344824e-05 -0.037405774 0.093045086 -0.002928134 -0.005629008
-0.030520575 -0.039059248 0.019372104 0.029294243 1.24e-42 0.0036819018 -0.06751914 3.82e-42
-0.019902108 -0.050930448 0.072159 -0.0507739 3.99e-42 0.0055161244 -0.098662 0.12643492
-5.203e-42 0.030169776 -0.00022662811 0.031684153 -0.0045338 -0.07291701 0.08283181 -0.033155177

gru1.weight_hh_l0 f4 [192, 64]
00000000: be4b 6bbb eaa1 dabc 2b22 b9ba 1448 17bb
00000010: 4047 aebc 7fe1 68bc 7309 8fbc e320 bdbc
00000020: 2cb5 b73c 7737 7bbb c8fb 4d3b 9dcb 293d
00000030: 3e26 2b3d 020c 0dbe c4e1 5d3e 94c0 5d3e
00000040: 10c2 56bc 60ce 5d3e 4e87 fa3b 99c2 5d3d
00000050: cba8 5bbe 0ddb 5d3e 3686 933d 151b 11bd
00000060: 5609 9a3c fced c83a 9cd1 5d3e b9cc 5dbe
00000070: b2c0 5ebe 6880 a43c 658e 29be dfdc 373d
00000080: e530 fa3d 4352 e83c 2dbb 5cbe cdc4 5d3e
00000090: edd2 5d3e 6e7f 41bc a136 ffbc 091f 9db9
000000a0: 3eae 5dbe bb37 023d b336 b03b fbfd 043e
000000b0: d031 bfbb 1001 53bc ede7 82bb 351a 5f3e
000000c0: 4811 9dbc 73e2 dd39 bc62 4ebb bbd2 babd
000000d0: c0a4 e43c e856 d8bd b094 67bd 3523 ae3b
000000e0: 7749 963c f14f 7f3d 77a9 0dbd 7020 2abc
000000f0: d6d1 5dbe 3c76 5ebe a440 743c f0a0 d43c
00000100: adc0 8fbd 1e50 79be 19b4 c23b aec1 1dbd
00000110: cf9c 32be 3a26 75be 6260 a5bd 0613 d13d
00000120: daf2 fcbd 77f1 4fbd f8c7 593d a799 363e
00000130: 0e51 583c b87b 07be f690 033d 2a8c 043d
00000140: 64d6 af3d f6ac 083d 17cc 3dbd e816 f73d
00000150: 2ed1 1cbd 8a1e 053d 83a4 063e c73e 6c3d
00000160: 8120 7b3d 1abe f4bc 7438 043d e61b 05bd
00000170: cc3b 25bd e029 093c 0639 de3d f4b7 bfbc
00000180: 8a9d 983e b601 d1bd baab 28bd 2acf 043d
00000190: 5d17 033d 5036 b4bc aec3 f5bb 3867 1cbd
000001a0: 7642 05bd d1f9 313e 2c9b 8abc 1aa3 e1bd
000001b0: 6553 2f3e be40 363d 9df2 70bc 320b 373d
000001c0: 93e9 2a3e 1e07 c53d 9b7d 413d 07bc f5bd
000001d0: dca1 b43e f832 8cbe 89cb 55bd 9aa3 f53c
000001e0: 7682 3c3e e600 9cbd 2368 dcbd d926 63bd
000001f0: 12ec 05bd 9cc8 06bd bd41 b7bb e0aa f53d
00000200: 7d43 bcbd c612 6cbd 696c bcbc f7a5 3abd
00000210: 25e9 653d 132b 9cbb 5227 99bd c057 0e3e
00000220: 1375 853b 334c c83a b705 113d 96fe 40bd
00000230: 6d02 b9bc 9169 19be bb69 843d b154 843d
00000240: de91 c9bd 0d1e 843d 5bef 35bc 1e1d c8bd
00000250: f45e 3dbd 3d13 853d 2ff5 dc3d 1d02 163b
00000260: 46f3 853c 95df cd39 fa6a 843d 7a4d 84bd
00000270: 73d2 85bd 50d8 9c3e 2f77 bdbd 022b cdbd
00000280: bb56 7b3c 2907 80bc 25bd 7dbd 141f 843d
00000290: abcc 843d bd59 043e b968 d53b 9f0d f03b
000002a0: 608d 85bd 52c3 e53c fd66 ab3c 183d 093e
000002b0: 3416 c8bd 3619 c53c 7e80 18bc 4a6d 8a3d
000002c0: 36e0 e8bd d75b 5abb 95af ca3b 5519 133e
000002d0: c364 cdbd 7396 63be 3538 203e b140 60bc
000002e0: 8dd1 863c 213f dd3d 35f1 cd3c fc30 2d3d
000002f0: f062 84bd 8970 7ebd b215 1d3e 51b5 143c
00000300: 84fa 3bbe f0ad f9be c8ac e6bc e0a3 d8be
00000310: 37ee a0be 33e6 0bbd da2b 1c3d 33f4 2abd
00000320: 5e9f 7abd ccca b4be 1f36 dcbd 68a3 553e
00000330: bad4 d9bd f6b2 54bd e2dd a43d 5726 9e3d
00000340: 8245 3e3e 97bf 9f3d d313 ba3d d557 0ebd
00000350: 3a0d e9bd 8d48 9e3d 26a1 f3bd 7cc0 3a3e
00000360: eded 1abd 5462 7cbd e1d3 9e3d 5096 9ebd
00000370: 0f49 0ebe be82 fcbb 3f09 e0be cf2f a7bd
00000380: cb8a 083e 86e9 74be b625 b1bd 3b87 9f3d
00000390: 0ed7 9d3d 7cea 4abe f6ed 8e3e 0860 7dbc
000003a0: 00ee a3bd 6eb0 84be 8a24 83be a5e2 df3e
000003b0: d8c0 ad3d e5fa f1bd b3e0 3f3d d125 2e3e
000003c0: 042c 553e a8dc 49bd 73bf 00be 1f4a 1abe
000003d0: 0e48 ec3d b788 e9bd b26f 7a3d 1f5d 8f3d
000003e0: 5b13 1b3e 0d25 013f 687f 54be 860e 383e
000003f0: 094e 9fbd 76ec cebd 73b8 c3bd 6aea 28be
-0.00359033 -0.026688535 -0.0014124563 -0.0023083733 -0.021274209 -0.014213919 -0.01746056 -0.02308697
0.022425257 -0.003833262 0.003143059 0.041453946 0.041784517 -0.13774112 0.21668154 0.21655494
-0.013107792 0.21660757 0.007645524 0.05414066 -0.21451108 0.21665592 0.07203333 -0.035426218
0.01880328 0.0015329714 0.21661991 -0.21660127 -0.21753195 0.02008076 -0.16558225 0.044888373
0.12216357 0.028359538 -0.21555777 0.21657105 0.21662493 -0.011810167 -0.031153979 -0.00029968497
-0.216485 0.03179143 0.0053776144 0.12987511 -0.0058347955 -0.012878671 -0.003994933 0.21787341
-0.01917328 0.00042321123 -0.0031491956 -0.09122225 0.02791059 -0.10563451 -0.056538284 0.0053142556
0.018345578 0.062332097 -0.034585442 -0.01038371 -0.21662077 -0.2172479 0.01490799 0.025955647
-0.07019172 -0.24346969 0.0059418795 -0.038514785 -0.1744263 -0.23940364 -0.08075024 0.102087066
-0.12351008 -0.05076739 0.05316922 0.17832051 0.013202919 -0.13230789 0.032120667 0.032360233
0.08585814 0.033368073 -0.046337213 0.12064916 -0.038285427 0.032499827 0.13148694 0.057677057
0.061310295 -0.029875804 0.0322804 -0.03249731 -0.04034023 0.0083718 0.1085072 -0.023403145
0.29807693 -0.102054045 -0.041179396 0.03242413 0.032004703 -0.021998554 -0.0075001335 -0.038184375
-0.032534085 0.17380454 -0.016919695 -0.11017437 0.17121656 0.044495337 -0.014706281 0.04468841
0.16690664 0.09620498 0.047238927 -0.11998754 0.3527974 -0.27382636 -0.05219606 0.029985238
0.18409142 -0.07617359 -0.1076205 -0.05545697 -0.032695837 -0.03290616 -0.0055925534 0.119954824
-0.0919256 -0.05763509 -0.023000913 -0.045568433 0.056130547 -0.004765877 -0.07478203 0.13900661
0.004072794 0.0015281498 0.03540584 -0.047117792 -0.022584165 -0.14981677 0.06465479 0.06461466
-0.09842275 0.06451044 -0.01110443 -0.09771179 -0.046233132 0.0649781 0.107889526 0.0022889443
0.016351353 0.0003926723 0.06465717 -0.0646009 -0.06534281 0.30633783 -0.09251248 -0.10017969
0.015340502 -0.015628414 -0.06194796 0.0645124 0.0648435 0.12924857 0.006512728 0.0073258425
-0.06521106 0.028047238 0.020923132 0.13402212 -0.0976986 0.024059873 -0.009307979 0.067591265
-0.1137089 -0.00333189 0.006185482 0.14365132 -0.100289844 -0.2222536 0.15646441 -0.013687299
0.016457343 0.108030565 0.02513943 0.042283043 -0.06464183 -0.06211904 0.15340307 0.009076432
-0.18357283 -0.48765516 -0.02815856 -0.42312527 -0.31431744 -0.034155082 0.038127758 -0.041736793
-0.06118714 -0.35310972 -0.1075251 0.20863116 -0.106362775 -0.051928483 0.08050133 0.077221565
0.18581203 0.07800215 0.090858124 -0.034751732 -0.11379476 0.07728682 -0.11895971 0.1823749
-0.03782456 -0.06161721 0.077552564 -0.077435136 -0.13895057 -0.0077060154 -0.43757054 -0.08163416
0.13334195 -0.23917207 -0.08649771 0.07789465 0.07707034 -0.19816011 0.27915925 -0.01546479
-0.08004379 -0.25915855 -0.25613815 0.43727604 0.08484048 -0.118154325 0.04684515 0.17006613
0.20817572 -0.0492827 -0.12573032 -0.15067337 0.11537181 -0.114030294 0.061141677 0.07000183
0.15144102 0.5044716 -0.20751727 0.1797429 -0.07778556 -0.10103695 -0.09556665 -0.16495672

gru1.bias_ih_l0 f4 [192]
00000000: f2ce 61be aa3b c7bc 4655 3bbd 1ec8 2bbd
00000010: 6742 44be 43af 2dbe 13f3 003d e8a2 4cbd
00000020: 4139 e23c 4bf6 2bbe b741 44be fc89 3cbe
00000030: ecb4 19be 3dce 073e b84a 103e 5150 043e
00000040: e946 13be 4770 053e b091 1ebe 02cd 5d3e
00000050: 6142 0e3e a7da 0a3e df30 213e 93e7 40be
00000060: 5711 53be 44e7 13be 25f6 073e 651b 043e
00000070: 4554 b63d 8a9d d53d c7b0 963d da3a 84bd
00000080: 72b5 1b3e bce6 adbd d4c6 ea3d 4e24 093e
00000090: fdb7 083e 52c0 5ebd 8c0c 2bbe 61b9 2abe
000000a0: 4682 0b3e 7803 62be a01d fbbd c885 d73d
000000b0: c304 35be 2adc a43d 1151 05be 9415 8b3d
000000c0: fb57 663e 2272 3bbe 23e3 15be 793f 2d3e
000000d0: 8bae 25be bb7a 233e 9208 6e3e d8af 12be
000000e0: e081 93be c08e 7d3d 39a2 9d3d ad44 2ebe
000000f0: c05f 063e 08d6 f13d 7dfd 8f3e 8ee7 4ebe
00000100: 9dbc 24be 9f7b 01bc 30bf 993d daa6 76be
00000110: f97c 013d 4aee dcbd 265a 83be e7d3 1e3e
00000120: c4c5 58bd b91f 6bbd b02a 2fbc 5130 783d
00000130: fb1f 883c 6c1f 87be d712 96be 20fa 76be
00000140: 037d 06be 7bd6 50be 84aa 8e3d 4403 7eb9
00000150: 8c66 733d 693d 8abe 6dc0 ebb7 8770 9f3d
00000160: 23ec 04be 85f3 243e 0614 79be 2f09 69be
00000170: 3bc3 0ebe df53 41be 32fd 39be 4640 b03d
00000180: 92dd c8bd 8d4b 8bbe 3b3b d53d 2d57 6bbe
00000190: f4ee 79be 2ec9 0ebe d40f 38be d192 833d
000001a0: bb98 59be a9c1 e2bd 6ec1 32be 9b17 09be
000001b0: 1723 cabc eca8 303e 327a d83d f341 a5bd
000001c0: 5957 f8be 0649 e63c 7942 dc3d 7768 a03d
000001d0: 001a ab3d df93 7cbe 1639 093e ee7c 6e3d
000001e0: a43b 27bf 99ff 6f3a efff 8d3e 2ad0 86bd
000001f0: 28e5 60be 3144 6cbe 15a7 1cbd fc1f 6bbd
00000200: 47a4 b53c 4835 f53e bc0e e63a b060 13bd
00000210: 6700 fa3d 976d b03d be29 99bd bbf5 083f
00000220: 9a94 5abd c3ad a23e ec91 363e 5bcb 7fbe
00000230: 2805 8cbe 054b d73e 779d 25bf 80d6 1abf
00000240: f652 4cbe caf0 0fbf 3394 01bd d3bb 153e
00000250: 6a99 07bc 8c89 20bf cbf7 a0be 4ef3 283e
00000260: 0c43 b13b b99e 183c b08f 19bf e974 183f
00000270: 0d0d 243f 483b f8bd f299 883e 812e 89be
00000280: 760e 143f bf9b e8bd 490d 59bd fee2 16bf
00000290: 110f 1dbf 1557 ec3c b7fd 733d 6ed6 003c
000002a0: beed 103f b64a 3f3d e424 fb3d 5d9f fabe
000002b0: dcf1 26be 08b0 32be 99b7 5cbb 58fc 1dbf
000002c0: 3891 0d3f 2936 003e 80b5 8b3d 7bf9 f8bd
000002d0: 5002 8dbe def8 d83e 68b7 b23d 0a87 5cbe
000002e0: f7e1 813d 1cee 5fbd 7ce9 2cbe 4ddb ecbd
000002f0: 8d4a 133f 6a3d 1d3f 1f0f 2e3f a4da 913d
-0.220516 -0.024320442 -0.04573562 -0.041938893 -0.19165955 -0.16961388 0.031481814 -0.049960047
0.027615191 -0.16793172 -0.19165693 -0.18412012 -0.15010422 0.13262267 0.14091003 0.12921263
-0.14382519 0.13031112 -0.15485263 0.21660236 0.13892509 0.13559972 0.15741299 -0.18838339
-0.20612083 -0.1444369 0.1327749 0.12901075 0.08902792 0.10430439 0.07357936 -0.064565375
0.15205935 -0.08491275 0.11463705 0.13392755 0.13351436 -0.05438263 -0.16704005 -0.16672279
0.13623914 -0.22071636 -0.1226151 0.105235636 -0.17677598 0.080498055 -0.13019206 0.06791225
0.224945 -0.18305257 -0.14637427 0.16918744 -0.16179864 0.15964787 0.23245457 -0.14324892
-0.28810024 0.061903715 0.07696957 -0.17018385 0.13122463 0.11808401 0.28123084 -0.20205519
-0.16087575 -0.007903009 0.07507169 -0.24087086 0.031613324 -0.107876375 -0.25654715 0.15510522
-0.05292298 -0.0574033 -0.01069133 0.060592953 0.016616812 -0.2639116 -0.2931125 -0.24118853
-0.13133626 -0.20394318 0.06966117 -0.00024224544 0.05942397 -0.26999977 -2.8103788e-05 0.07785135
-0.12980704 0.1610852 -0.24324045 -0.2275741 -0.13941662 -0.1887965 -0.18162993 0.08606009
-0.09807886 -0.27206078 0.10411688 -0.22982474 -0.2440756 -0.13943931 -0.17974788 0.064244874
-0.21249668 -0.11072094 -0.174566 -0.13387911 -0.024674935 0.17251939 0.10570182 -0.080692194
-0.4850414 0.028110992 0.10754866 0.07832425 0.083545685 -0.24665783 0.13400683 0.05822461
-0.6532538 0.00091552135 0.27734324 -0.06582673 -0.21962416 -0.23072888 -0.03824528 -0.05740355
0.02217306 0.47892213 0.0017551999 -0.03598088 0.12207108 0.086146526 -0.07478665 0.53499955
-0.053364374 0.31773195 0.17829102 -0.24979918 -0.27347684 0.42049423 -0.646934 -0.6048355
-0.19953522 -0.5622679 -0.031635474 0.1462243 -0.008276323 -0.6270988 -0.3143905 0.16499063
0.005409604 0.009315186 -0.59984875 0.5955339 0.64082414 -0.12120682 0.2667995 -0.26793292
0.57834566 -0.11357831 -0.052991185 -0.5894011 -0.61351115 0.028850118 0.059568133 0.007863624
0.56612766 0.04670211 0.12262896 -0.4894971 -0.163032 -0.17449963 -0.0033678769 -0.6171317
0.5529971 0.1252066 0.06821728 -0.121569596 -0.27540827 0.4237737 0.08726388 -0.21535888
0.063419275 -0.05467044 -0.16885942 -0.11565266 0.5753563 0.61421835 0.6799182 0.071217805

gru1.bias_hh_l0 f4 [192]
00000000: f2ce 61be 6f3b c7bc 8c5b 3bbd 23c8 2bbd
00000010: 6742 44be 44af 2dbe 13f3 003d 6f83 3cbd
00000020: e0f3 cb3c 4bf6 2bbe b741 44be fc89 3cbe
00000030: efb4 19be 3dce 073e b84a 103e 5150 043e
00000040: e946 13be 4770 053e b091 1ebe d1e7 5d3e
00000050: 6142 0e3e a7da 0a3e cd31 213e 93e7 40be
00000060: 5711 53be 44e7 13be 25f6 073e 651b 043e
00000070: 4554 b63d 659d d53d c9b0 963d b13e 90bd
00000080: 69b5 1b3e 1beb adbd d4c6 ea3d 4e24 093e
00000090: fdb7 083e 52c0 5ebd e50b 2bbe 61b9 2abe
000000a0: 4682 0b3e 7803 62be a41d fbbd 9685 d73d
000000b0: c304 35be 27dc a43d 1151 05be 9415 8b3d
000000c0: fb57 663e 2572 3bbe 23e3 15be e262 2d3e
000000d0: 8bae 25be bb7a 233e 591c 6d3e d8af 12be
000000e0: e281 93be 989d 493d 8ab0 9d3d ad44 2ebe
000000f0: c05f 063e 08d6 f13d 7dfd 8f3e 8ee7 4ebe
00000100: 1cbd 24be ee1f 01bc 61d4 9b3d e9a7 76be
00000110: cd8c 013d 5f63 dcbd 265a 83be d84f 1a3e
00000120: aef6 51bb 8d1f 6bbd 1c42 07bc 02cd 763d
00000130: 424c 8a3c 6c1f 87be d712 96be 20fa 76be
00000140: 037d 06be 7bd6 50be f2ab 8e3d f2e6 003c
00000150: 9266 733d 693d 8abe 0384 18b8 884c a13d
00000160: 23ec 04be 71f0 243e 0614 79be 2f09 69be
00000170: 02c3 0ebe da53 41be 31fd 39be 615f b03d
00000180: 00da 8cbd 8d4b 8bbe 803b d53d 2c57 6bbe
00000190: f2ee 79be 96c6 0ebe 2fbb 39be cb92 833d
000001a0: ba98 59be bac1 e2bd 78c1 32be 9c17 09be
000001b0: a223 cabc 5870 453e 477a d83d eb41 a5bd
000001c0: 4541 f7be 3146 e83c d94a dc3d c25a 4b3d
000001d0: 0106 ab3d df93 7cbe a99b 093e f614 6e3d
000001e0: f9e0 25bf 86e9 05ba 60e0 853e 4cda 86bd
000001f0: 2ae5 60be 2f44 6cbe 583e 07bd 1acd 6abd
00000200: 19d9 153e c7ff 033e 74eb 37be 39f3 ad3e
00000210: 8d76 ed3c e11c 2f3e 3a6d 2e3f 527b 21bf
00000220: 97a1 2e3f 44a7 f43d c72e cd3d f810 023e
00000230: 05f8 a43e 3467 893e 855f cfbe 3503 bbbe
00000240: d659 df3e dcb6 b1be bf67 18bc 99dc f43d
00000250: 9548 343c b142 c4be c2f0 a1be 2294 27be
00000260: f078 ae3d c017 a4bd 56dc bcbe 0e84 b93e
00000270: cd93 dc3e 8371 9abe fec4 aa3e 25c4 0a3f
00000280: 6a5f e83e de04 643e 5c11 a8bc 35ad bbbe
00000290: 7429 bfbe fdad 55be 88bf 9abe 1dcc 0ebd
000002a0: 8795 b83e 3720 983d d482 c1be 6113 89be
000002b0: d27f 403e 4020 39be fcdc 473d 9640 06bf
000002c0: 1a23 af3e acbf 403d 8a06 bfbd 8582 82bd
000002d0: 9d7c 5abd ae0e 9a3e e36c 0cbf f10c 1e3c
000002e0: 02cf f93c 41da 36bf 4e38 37bd a4f2 a4bd
000002f0: f8b5 b53e dbe8 9b3e 5edc 123f dcf5 cfbd
-0.220516 -0.024320332 -0.045741603 -0.041938912 -0.19165955 -0.1696139 0.031481814 -0.046023782
0.024896562 -0.16793172 -0.19165693 -0.18412012 -0.15010427 0.13262267 0.14091003 0.12921263
-0.14382519 0.13031112 -0.15485263 0.21670462 0.13892509 0.13559972 0.15741654 -0.18838339
-0.20612083 -0.1444369 0.1327749 0.12901075 0.08902792 0.10430411 0.07357938 -0.070432074
0.15205921 -0.084921084 0.11463705 0.13392755 0.13351436 -0.05438263 -0.16703756 -0.16672279
0.13623914 -0.22071636 -0.12261513 0.10523526 -0.17677598 0.08049803 -0.13019206 0.06791225
0.224945 -0.18305261 -0.14637427 0.16932252 -0.16179864 0.15964787 0.23155345 -0.14324892
-0.2881003 0.04922256 0.07699688 -0.17018385 0.13122463 0.11808401 0.28123084 -0.20205519
-0.16087765 -0.007881148 0.076088674 -0.2408749 0.03162842 -0.10761141 -0.25654715 0.1506952
-0.0032037902 -0.057403136 -0.008255508 0.060254104 0.016882066 -0.2639116 -0.2931125 -0.24118853
-0.13133626 -0.20394318 0.0696639 0.007867562 0.05942399 -0.26999977 -3.636257e-05 0.07875925
-0.12980704 0.16107346 -0.24324045 -0.2275741 -0.13941577 -0.18879643 -0.18162991 0.08611942
-0.06877518 -0.27206078 0.10411739 -0.22982472 -0.24407557 -0.13942942 -0.18137811 0.06424483
-0.21249667 -0.11072107 -0.17456615 -0.13387913 -0.024675194 0.19281137 0.105701976 -0.080692135
-0.48291984 0.028353782 0.107564636 0.0496471 0.083507545 -0.24665783 0.13438286 0.05812546
-0.64796406 -0.0005108345 0.26147747 -0.065846056 -0.21962419 -0.23072885 -0.03301844 -0.057324506
0.14633597 0.1289054 -0.17960912 0.33974627 0.028987193 0.1710086 0.68135417 -0.63078797
0.68215317 0.11945966 0.10018688 0.12701786 0.32220474 0.2683655 -0.40502563 -0.36525884
0.43623227 -0.34709823 -0.009302079 0.11956138 0.011003633 -0.38332132 -0.31628996 -0.16365102
0.08519161 -0.080123425 -0.36886853 0.36233562 0.43081513 -0.30164728 0.33353418 0.5420554
0.45385295 0.22267482 -0.02051609 -0.36655584 -0.37336314 -0.20867153 -0.30224252 -0.034862626
0.3605158 0.074280195 -0.37795126 -0.26772597 0.1879876 -0.18078709 0.04879473 -0.524423
0.34206468 0.047057793 -0.09327419 -0.06372551 -0.053341497 0.30089325 -0.5485365 0.00964664
0.030494217 -0.7142678 -0.04473143 -0.080540925 0.35490394 0.30451092 0.57367504 -0.10154316

gru2.weight_ih_l0 f4 [192, 64]
00000000: 69f3 a13d 8200 133d 9888 d9bc 97af 03bd
00000010: 5fc2 97bc 66ae c3bc c5f2 2dbd 0fa9 16bd
00000020: 60a4 2e3d 4e97 a23c f4f0 4bbd 1fac f0b9
00000030: 7b2a 15bd 890c 193e df70 11be 9da4 19be
00000040: 73b4 693d 1ef7 16be dae1 093c d78b 693c
00000050: 344d 033e d397 17be 3944 803b 6524 433d
00000060: 74fa 8cbd 76ac 61bb 7d78 17be b6a0 193e
00000070: fab9 0a3e 3ac1 cebd 8111 183e 8a74 afba
00000080: 6f4a 2ebc 74dd 44bc fa4f 0d3e af1b 12be
00000090: 9eb5 19be 3a15 92bc 0f87 293d 535d a3bb
000000a0: 65ed 113e 50d0 73bd d739 423c d1b9 0fbe
000000b0: 761a 293d 2338 eb3b 8cfa 24bb 2fc7 0abe
000000c0: ee45 cd3c ab55 68bd e71d 3d3b 5047 2cbc
000000d0: 9861 bc3c 8b48 193e 1ff3 35bc 21db a13c
000000e0: f9ff 9a3c 1392 bbbd 465b 95bc f251 153c
000000f0: aeaf 163e 8f12 0d3e 076c 3dbd f593 79bc
00000100: 6d49 a63b 259e 403b 5fc0 f7ba ab1f a13b
00000110: 1073 193b 2435 c4b8 0b62 6c3b aa91 14ba
00000120: f85c 023c 8238 293b 0a39 7db9 5413 a3bb
00000130: 6b45 ba3b d1d1 94bc 005c a53c 5227 a53c
00000140: 19e3 0b3a 1707 a53c c4b9 ab3a a23f bc39
00000150: 28db 8ebc 234d a53c 280f b63a 6bb8 c9bb
00000160: 99e6 2aba 7a19 adba f32d a53c 061a a5bc
00000170: 6c46 a2bc 4067 d63b 85d9 2abc 9c94 1d3b
00000180: 07af 4bbb f115 c03b a268 a2bc ba1e a53c
00000190: f02f a53c 8855 b9ba 70d4 e4bb f928 b3ba
000001a0: f008 a5bc 8ede a03b a0ec 8f3b bc9e 1b3c
000001b0: c90b 7a3b 6a8c 12ba 14c3 3639 6411 683c
000001c0: 1891 aebb 7d49 3aba d5b6 cbba 9ca3 4abb
000001d0: bc80 0d3b 3a26 4bbc 4c96 adbb fff0 163a
000001e0: ca50 92bb 39fd cb3b e101 193a 9ce4 98bb
000001f0: 991e a5bc 4801 a4bc 6047 873b edfa 46ba
00000200: f6f3 b23a 9896 60bb a9f1 26bb dd00 6cb8
00000210: ee93 4fba b9b1 123b 2516 973a 7ed0 b83b
00000220: 2ac2 6f3b a8ec cbba d50d 2a3b 947b 92bb
00000230: 52ed b9ba 943c 89bc 3d41 8a3c 2bc2 893c
00000240: 5e41 513b 0f5c 893c 859b 1fbb 103d c9bb
00000250: c1e5 8ebc 7615 8a3c 4e67 a53b cb2b 51bb
00000260: e9d7 153a a669 c6ba 53c7 893c 959f 89bc
00000270: 846d 84bc 9097 163c d642 52bc f37c c5bb
00000280: ed1a 5fbb aea8 913a 5dd1 84bc cfa0 893c
00000290: 0cd2 893c 8bd0 10bb 486d 5cbb 0978 813b
000002a0: 084f 89bc 1e19 eaba 34a3 e038 8706 383c
000002b0: e785 1d3b 4d6b 893a 3f2d 89bb 2852 5d3c
000002c0: 8517 31bc 135c cc3a a216 82b9 a1d2 87ba
000002d0: 7d93 21ba 4fe9 4dbc ab5e 813b 75db d53a
000002e0: 4515 3fbb 7678 263c 50b1 fe3b a551 4338
000002f0: 1491 89bc ca4f 7fbc c875 d539 c53f debb
00000300: fdb7 0c3a a26f 313c 8f3f 6a3b 5826 3e3b
00000310: de94 0c3c 1d0b e53b 8eaa 30b8 37f1 c3bc
00000320: 8bb1 953a 27a0 c13b 341d 843b 590b 13bc
00000330: 4600 1238 9752 bd3c f755 c4bc c9ac c4bc
00000340: 2edd 25bc 9d3d c5bc f84e 27bb 20fa 48bb
00000350: ec82 cd3c a36f c4bc 22d0 abbc 0472 b7ba
00000360: fe4e 213b 166e 9cb9 72c9 c4bc 3af1 c43c
00000370: ce02 c53c b957 2abc 753c c63c a04d 773c
00000380: 76c9 4fbc eaf8 9d3b 8535 cb3c de27 c5bc
00000390: beb5 c4bc 57d2 963b 901b 9abb 6caf 41bb
000003a0: 2b85 c53c f081 d93b 75ce 033b d22b b8bc
000003b0: e64f 26bc 89e7 6c3b d333 51bb a858 c5bc
000003c0: 8c39 b43c af8f 2eb9 42fc e4ba bc5f 0c3c
000003d0: a7ca 56bc a828 983c a977 aebc ee4b 3ebb
000003e0: 600d e2bb 8451 bcbc b4c0 883b ffb0 20b8
000003f0: 962a c53c ca76 c43c b2f8 77bb 004e 9339
0.07907755 0.035889156 -0.02655439 -0.032149877 -0.0185253 -0.02388687 -0.04246785 -0.03678232
0.04263723 0.019847538 -0.049790338 -0.00045904607 -0.036417466 0.14946188 -0.14203213 -0.15004201
0.057056855 -0.14742705 0.008415664 0.014254532 0.1282242 -0.1480401 0.003914383 0.04764213
-0.06883708 -0.003443507 -0.14792056 0.15002713 0.13547507 -0.10095449 0.14850427 -0.0013386172
-0.010637864 -0.012015689 0.1380004 -0.14268373 -0.15010688 -0.017832387 0.041388568 -0.0049854903
0.14250715 -0.059524834 0.01185461 -0.14035727 0.041285 0.007178323 -0.0025173752 -0.13552545
0.02505776 -0.056722324 0.0028856935 -0.010515049 0.022995755 0.14969079 -0.011105328 0.01975781
0.018920885 -0.09158721 -0.018232 0.009113776 0.14715454 0.13776611 -0.0462456 -0.01523303
0.005074671 0.0029391136 -0.0018901936 0.004917105 0.002341453 -9.3559065e-05 0.003606918 -0.00056674576
0.007956736 0.0025821035 -0.00024149209 -0.0049766693 0.005684545 -0.018166455 0.02018547 0.020160351
0.00053362694 0.020144982 0.0013101627 0.00035905564 -0.017438486 0.020178383 0.0013890015 -0.0061560175
-0.0006519347 -0.0013206445 0.020163512 -0.02015401 -0.01980897 0.00654307 -0.010427837 0.0024044877
-0.0031079666 0.0058619906 -0.019825283 0.020156253 0.02016446 -0.001413987 -0.0069833323 -0.0013668827
-0.020145863 0.004909343 0.0043922216 0.009498294 0.0038153997 -0.00055903813 0.00017429545 0.0141643025
-0.005327355 -0.00071062875 -0.0015542159 -0.0030920273 0.0021591624 -0.012399251 -0.005297458 0.0005757957
-0.004465197 0.006225255 0.0005836767 -0.0046659242 -0.020156192 -0.020020142 0.0041283816 -0.00075904914
0.0013653028 -0.0034269448 -0.002547363 -5.626759e-05 -0.00079184666 0.0022383763 0.0011526985 0.0056400886
0.0036584237 -0.00155582 0.0025948186 -0.004470298 -0.0014185107 -0.016752519 0.016876811 0.01681622
0.003192983 0.01676753 -0.0024354171 -0.0061413124 -0.01744354 0.016855936 0.0050477153 -0.0031916972
0.0005716072 -0.0015137687 0.016818678 -0.016799727 -0.016165502 0.009191409 -0.012833318 -0.006026858
-0.0034043149 0.0011112893 -0.016213113 0.016800312 0.016823791 -0.0022096958 -0.0033634473 0.003951077
-0.016761318 -0.0017860269 0.00010711551 0.011232025 0.002403611 0.0010484249 -0.004186302 0.013508357
-0.01080883 0.0015591405 -0.00024812395 -0.0010362455 -0.000616364 -0.012567832 0.003948053 0.0016316014
-0.0029156965 0.010160556 0.007772602 4.656766e-05 -0.016792811 -0.015582988 0.0004071428 -0.0067825043
0.00053679926 0.010829838 0.003574345 0.0029014554 0.008580415 0.00698985 -4.212051e-05 -0.023918731
0.001142071 0.005908984 0.0040318016 -0.008974873 3.4809367e-05 0.023110671 -0.023966772 -0.024008172
-0.010123534 -0.024077231 -0.0025529247 -0.0030666664 0.025086842 -0.023979014 -0.020973269 -0.0013995771
0.0024613733 -0.0002983666 -0.024021838 0.024040807 0.024049189 -0.010396891 0.02419875 0.015094191
-0.012682309 0.0048209326 0.024805794 -0.024066862 -0.024012443 0.004602711 -0.0047029927 -0.0029554022
0.024111351 0.006637804 0.0020112072 -0.022481833 -0.010150885 0.0036148748 -0.0031921759 -0.024090126
0.022000097 -0.0001664746 -0.0017470198 0.008567747 -0.0131098395 0.018574074 -0.021297293 -0.0029036957
-0.006898567 -0.022988088 0.0041733626 -3.8311813e-05 0.024068158 0.023982424 -0.0037837443 0.0002809614

gru2.weight_hh_l0 f4 [192, 64]
00000000: 9c57 4e3d 492f 223b 60fd 90bb a88e 873d
00000010: c4dd 9bbd a7a4 103e 333b 11be be28 0ebc
00000020: d4f0 743b 6f6d 9e3d 57de 823a f019 afbb
00000030: 907a df3a 5431 f1ba 028d 78bb c76e aab9
00000040: 938b 983a 5734 aab9 22b3 113c 7103 00b9
00000050: 4fba 83ba ed9e 0a3e e18c 94ba a4b2 d7ba
00000060: 707a eabb 0c2b 113e c634 1dbe cff4 b6bb
00000070: 25b3 103e 6654 11be 1513 dabd 7012 803b
00000080: 2b0e cfbb 0b7b b4bb 8bed 653c 74b5 31bb
00000090: 0502 9dbb af6d 9f3c 2bda 0c3d 5710 52bc
000000a0: 6bd7 ae3b e60e 043e 18ab dd3d 0a93 b23a
000000b0: bb4c 4bbb cae9 403c 3dd2 633a e9aa ccbd
000000c0: 443a 223d 83e0 40bb 7809 0d3d 2625 13bb
000000d0: 6eaf abbb e458 3cbd 942f a53c afb3 2ebb
000000e0: 269e c73b 8aa0 0a3b 1b77 1bbe e2da b23a
000000f0: 6f85 28bb e42f 11be 44cc 6e3b 564d 0b3b
00000100: 45e4 523a 2b68 05b8 ad6f fa3b 347f 4abc
00000110: 0eb4 09ba 7bdb 6fbb a6ae 4a3c 371a eabb
00000120: 6331 3ebb c707 88bb bf67 153c 909a 05bc
00000130: 8dca 8abb f631 89bb 8cea d538 d982 ceba
00000140: 1f74 7f3b a6f9 9a3b e655 53bb c928 22bc
00000150: b689 053c ce22 47bc c699 3bbb 228c ad3b
00000160: e482 40bb 3944 a3bc f127 883b c287 d23a
00000170: 21c2 22bc c74c a33c 1261 043c 96e0 fe39
00000180: c9f2 0abc 089a ea3b 71db 933b 020a 223b
00000190: fd44 0ebc 49f6 b73b d326 6338 f938 91bb
000001a0: a175 babb 3fed d1bb 48a3 90bc 072f b63b
000001b0: 9a73 e7ba b351 a3bb 9320 f6b9 3f87 313c
000001c0: 4369 eeba 1558 5f3b 6d51 10bc dd09 63bb
000001d0: 8f9f a83b 4889 44bb 8cfb 1fb9 c534 da3b
000001e0: 05f2 76bc eedb 1bbc 7b3a 3b3b 236a a23b
000001f0: 154b 0a3b ec7c 72ba 613d 9cba 3d66 c73b
00000200: 8535 823b b746 81bb 10f9 a1b9 6b60 25bc
00000210: 13ea 083b fb59 acbb c0d4 283c a6fe b8bb
00000220: 1226 d0bb 87ba 19bc 86fb 6a3b 56fd 71bb
00000230: 45de 7ebb 0bba 1e3b 89f0 273b 5755 0c39
00000240: 0123 1bba e777 06bb e220 44ba 60da 1fbb
00000250: c101 cc3b 3705 60bc 993f 0bbb 169d 95bb
00000260: 41da 92bb 3373 84bc afd2 fd3b 5ed3 8fb8
00000270: 1fe6 37bc 4692 843c 5f4d 113c 19a4 853a
00000280: 8f93 b7bb f5e2 90bb 3844 1a3b e0c8 853a
00000290: c85e 57bc 6e55 3c3b 6200 4fb8 5893 81bb
000002a0: 94c9 cc3b 9388 cebb 402e 88bc 119e d83b
000002b0: 9067 5ebb f1d1 a3bb 4668 a33a d9fd 4e3c
000002c0: 736f 363b e61a ce3a 0db8 cfbb 0db9 cdbb
000002d0: 72f8 86ba f3b9 deb9 75e8 b1bb a4c8 27ba
000002e0: ddea 9cbb 8889 603b 1f57 0b3b ae28 633a
000002f0: 95fa 8a3b ef52 d53b d287 64bb 249e 3fbb
00000300: 0dda a23b 5863 493a f457 0ebb bfda ad3c
00000310: 136e 81bc 827f cb3c d075 cdbc 71a9 fb3a
00000320: 257d 1cbc 2bc8 a93c 6f7d e83b c788 a13b
00000330: e159 eeba 86cc e2bb fa8e a7bb ac62 84ba
00000340: 81a0 d63a 5290 69bb 9b9d 1dba 1814 b0ba
00000350: 94d2 013b 7043 ce3c eb99 43ba fc38 69bb
00000360: 326d 713a 6bab cd3c e835 d1bc 7cb6 8aba
00000370: cbc2 c63c c8a4 cdbc a730 b1bc 8016 a1bb
00000380: c44f 49bb 76f0 143c f725 643b e1ae 8fbb
00000390: 3421 44bb 5c54 ee3b 0d99 a23b 8782 88ba
000003a0: da99 3f3b 55a6 c43c 768e ca3c 34d3 103a
000003b0: d340 97ba 52b7 05bc 38f1 0e3b 1c7e b2bc
000003c0: f04e 2a3b 2250 093b 7967 073c 2c9b 9dbb
000003d0: a44a 663a b9a1 9abb a437 9dbb 7241 bd3b
000003e0: 273a a0bb c13e b0bb 41c1 cabc 43f4 7dbb
000003f0: 46a1 7b3b eff6 d1bc 9052 b0bb 2511 ae3c
0.05037652 0.0024747422 -0.004424736 0.066190064 -0.07610658 0.1412531 -0.14182739 -0.008676706
0.003737499 0.077357166 0.0009984475 -0.005343668 0.0017050076 -0.0018401542 -0.0037925844 -0.00032507462
0.0011638276 -0.00032463923 0.008892806 -0.00012208313 -0.0010050031 0.13537188 -0.0011333489 -0.0016456437
-0.007155709 0.14176577 -0.15352163 -0.0055833827 0.14130838 -0.14192352 -0.10648171 0.003908448
-0.0063188276 -0.005507832 0.014033685 -0.002711621 -0.0047915005 0.01946148 0.03438775 -0.012821279
0.0053357384 0.12896308 0.10823649 0.0013624143 -0.0031021077 0.01177449 0.0008690691 -0.09993536
0.039606348 -0.0029430694 0.03443286 -0.0022452562 -0.0052394187 -0.04598321 0.020164289 -0.0026657393
0.006091851 0.0021152818 -0.15182154 0.0013645554 -0.0025714298 -0.14178425 0.003643767 0.0021255813
0.0008044879 -3.1806685e-05 0.0076427073 -0.012359429 -0.00052529655 -0.0036599326 0.012370741 -0.0071442383
-0.0029021136 -0.0041513178 0.009118973 -0.008154526 -0.0042355717 -0.004186864 0.00010200319 -0.0015755548
0.0038979126 0.0047294674 -0.0032247244 -0.009897419 0.008150509 -0.012154294 -0.0028625592 0.005296246
-0.0029374892 -0.019929992 0.004155152 0.0016062187 -0.009933979 0.019934071 0.008079784 0.00048613985
-0.008480736 0.0071594752 0.0045122434 0.0024725203 -0.00868344 0.0056140763 5.4157175e-05 -0.0044318405
-0.005690292 -0.0064064558 -0.017655984 0.0055598053 -0.0017658353 -0.0049841045 -0.00046945046 0.010835468
-0.001818933 0.00340796 -0.008808476 -0.003464333 0.005145974 -0.0029989053 -0.0001525713 0.0066591226
-0.01507235 -0.009512885 0.0028568793 0.0049565 0.0021101881 -0.0009250182 -0.0011920148 0.006085186
0.003973665 -0.0039451974 -0.0003089388 -0.010093789 0.0020891472 -0.00525975 0.01030463 -0.005645591
-0.0063521946 -0.0093828505 0.0035855486 -0.0036924682 -0.0038889807 0.0024219777 0.0025625548 0.00013383232
-0.0005917997 -0.0020518245 -0.00074817066 -0.0024391636 0.006225795 -0.013673118 -0.0021247624 -0.0045658452
-0.0044815843 -0.016168213 0.0077460627 -6.8581416e-05 -0.011224299 0.01618303 0.008868544 0.0010196
-0.005602307 -0.0044215866 0.0023539197 0.001020696 -0.013145156 0.0028737443 -4.9353002e-05 -0.0039543323
0.006249616 -0.006302902 -0.016623616 0.00661064 -0.003393624 -0.004999392 0.0012466989 0.012633764
0.0027837425 0.0015724569 -0.0063390792 -0.0062781633 -0.0010297431 -0.00042481683 -0.0054293224 -0.0006400442
-0.00478874 0.0034261663 0.0021261645 0.00086654245 0.0042412975 0.0065101306 -0.0034870994 -0.0029238546
0.0049698413 0.0007682345 -0.0021719905 0.02122247 -0.015799558 0.024841074 -0.025080591 0.0019200278
-0.009551321 0.02072533 0.007095031 0.004929635 -0.0018184745 -0.0069213537 -0.0051134797 -0.0010100207
0.0016374738 -0.0035639 -0.000601256 -0.0013433723 0.0019809352 0.025178641 -0.0007461595 -0.0035586944
0.0009209692 0.025106153 -0.0255384 -0.0010582949 0.024262806 -0.025102988 -0.021629645 -0.0049160123
-0.003071771 0.0090905335 0.0034812668 -0.004384861 -0.0029927017 0.00727324 0.0049620927 -0.0010414877
0.002923599 0.024005095 0.024726134 0.0005524636 -0.0011539705 -0.008161383 0.0021811258 -0.02178865
0.0025986992 0.0020952304 0.008264416 -0.0048097577 0.0008784926 -0.004718986 -0.0047978926 0.005775624
-0.004889745 -0.0053785746 -0.024750354 -0.0038750328 0.0038395687 -0.025630442 -0.005380936 0.02124841

gru2.bias_ih_l0 f4 [192]
00000000: 1b70 153e 2a9e a7bc b0d0 90bc b138 bb3c
00000010: c30d 6fbd 4c20 8d3d df20 29bc f11c b33b
00000020: 97d6 003d cc15 06be 21ba 07bc 79b0 0cbc
00000030: bc69 50bc bc5f 91bc 2768 50bc 2d31 89bc
00000040: 305e 9bbc 4e2f 8cbc a893 2abd 7464 d3bb
00000050: 3be8 08bc c7c8 3fbc 68b7 31bc e3c7 19bc
00000060: 50f7 80bd 1553 7c3c 71ec 81bd 3a27 c43c
00000070: c680 bbbd a07f a33c 01e7 f9bd 8f56 ad3a
00000080: 9cd8 0dbd 080d ccbc ca88 a4bc 2336 9bbd
00000090: c68f eabc 6cd6 d23d 71b7 b2bd 6c8f 9abd
000000a0: 0387 9fbc db70 073e f658 b13c 20d8 6abc
000000b0: 59a2 c0bc 5f44 eabc 50ac bcbd 16be 1d3e
000000c0: 140d f53d d981 93bc de63 053e 7d15 0cbd
000000d0: bebf c8bc 4e51 d1bd 571c 7f3d 8dc3 a4bc
000000e0: 031a d33c ce51 a4bb 79e0 1b3e 8014 b8bc
000000f0: ddf9 d4bb 389b c8bd be12 ea3d 6914 1b3d
00000100: 1422 a03e 7111 ab3e e994 ae3e 0c4d a73e
00000110: 3ef1 6e3e e8b1 b7bd da48 983c 8211 ca3e
00000120: 01ec d93e 181d 5f3c 3605 ae3e f16e a83e
00000130: f3e4 b13e 9264 ae3e 22dc ac3e 6146 bf3e
00000140: 3990 bc3e ba50 b23e 08b2 c63e 3061 ad3e
00000150: 6e7d b53e 17b3 4cbe fa80 c13e b81d a93e
00000160: c1be ac3e cf7a 4cbe 5cc5 46be cecc 033f
00000170: 477e dfbc 340e 57be 59df a43d 3898 d63e
00000180: 81ca ba3e c61f b33e 48f3 853e dbf0 ba3e
00000190: 28cb ac3e bf1e 7c3e 3c1c a53e ade0 b83e
000001a0: a41e b03e c446 053e 7d24 823e 1833 be3e
000001b0: abb9 c33e f909 c63e 8d5c fb3e 6373 d6bc
000001c0: 24d5 cd3e f26a b03e a172 803e 0701 b13e
000001d0: a7c5 b13e e37a 883e 8dd4 c43e 8221 b53e
000001e0: a6c3 ad3e 191f ae3e 77af 36be 4e77 b03e
000001f0: 9978 b43e 856f 25be b048 a73e b044 e6bd
00000200: 8f37 31be 833c 333c 1056 6fbc 7549 143e
00000210: 2acd 173d 4e53 143e 4cf3 83be 6999 783e
00000220: 83cc 9f3d b53e c13d 95b8 053c 774b e1bc
00000230: 7b8f a83c eec5 78bb 1b26 fb3b e026 763b
00000240: db78 40bc e506 61bc b542 7a3d 134b 413c
00000250: 559c 2d3c f5f5 1f3e dcea b6ba 6790 e1bb
00000260: 3bab 313d 1e56 8e3e 3288 d5bd fbe1 35bd
00000270: 0198 553d 1c6d 90be c05b efbd 4668 56be
00000280: 7f92 463c 3f30 583b ef37 9f3d 29da 59bd
00000290: fab9 6bbb 8ee1 de3d ac2b 113e 936a 8ebd
000002a0: 1ea7 4e3c 1270 0b3e 5b4b d93d c25e 4cbc
000002b0: b57d a1bb 5f02 7c3d 4d08 60bd ac83 c13e
000002c0: 202d e43d 1ee0 bbbb dae1 95be 4edd d1ba
000002d0: b85e 7c39 40a8 223d 71a3 373d cc32 2dbc
000002e0: 0076 ea3c 72d2 793c 3f99 5abe 5400 c8bb
000002f0: 6993 2c3a 25d4 a4bd 6f0c 9bbd 3ab7 073d
0.14593546 -0.02046116 -0.017677635 0.022854181 -0.058362734 0.06890926 -0.0103227785 0.0054660966
0.03145465 -0.13094252 -0.008284123 -0.008586996 -0.012720522 -0.017745845 -0.012720144 -0.016747082
-0.01896581 -0.0171124 -0.041644722 -0.006451184 -0.008356149 -0.011705584 -0.01084695 -0.009386036
-0.06297171 0.015400668 -0.06343926 0.023944486 -0.09155421 0.019958317 -0.122022636 0.0013224649
-0.034630403 -0.024908558 -0.020084757 -0.07578685 -0.02863301 0.10294804 -0.08726395 -0.07546887
-0.019473558 0.13226645 0.021648865 -0.014333755 -0.023514913 -0.028597055 -0.092125535 0.15404543
0.11965385 -0.018006252 0.13026378 -0.03420018 -0.024505492 -0.10220586 0.062282886 -0.020112777
0.02576924 -0.0050146347 0.15222348 -0.022470713 -0.0064995126 -0.097952306 0.11429356 0.03786126
0.31276 0.33411744 0.34097984 0.3267597 0.23334214 -0.0896948 0.018589426 0.39466482
0.4256287 0.013617776 0.3398835 0.32897142 0.34744987 0.34061104 0.33761698 0.37358382
0.36828783 0.34827214 0.38807702 0.3386321 0.35447258 -0.19990192 0.37793714 0.33030486
0.33739284 -0.19968723 -0.19411224 0.5148438 -0.027281893 -0.21001512 0.08050413 0.4191301
0.36482623 0.3498518 0.2616217 0.36511883 0.33748746 0.24621104 0.32248104 0.36108914
0.34398377 0.13015276 0.25418463 0.37148356 0.3822759 0.38679484 0.49094048 -0.026178068
0.40201676 0.34456593 0.25087455 0.34571096 0.3472111 0.26656255 0.38443413 0.35377127
0.3393833 0.340081 -0.17840372 0.34466022 0.3524826 -0.16155823 0.32672644 -0.1124357
-0.1730635 0.01093972 -0.014607921 0.14481147 0.037060894 0.14484903 -0.25771558 0.24277271
0.078026794 0.094357885 0.008161684 -0.027501805 0.02057623 -0.0037959772 0.0076644546 0.0037559792
-0.011747564 -0.013734554 0.061098773 0.011797684 0.0105963545 0.15621169 -0.0013955492 -0.006883669
0.04337619 0.27800077 -0.10426368 -0.044404965 0.052146915 -0.28208244 -0.11687422 -0.20938215
0.012119888 0.0032987741 0.0777434 -0.05318657 -0.0035969005 0.10882865 0.14176816 -0.06953921
0.012613086 0.1361697 0.10610076 -0.012473764 -0.0049283155 0.0615257 -0.054695416 0.3779577
0.111414194 -0.005733504 -0.29273874 -0.0016011389 0.00024067878 0.039711237 0.044833604 -0.010571193
0.02862072 0.015247928 -0.21347521 -0.0061035547 0.0006583245 -0.08048276 -0.07570731 0.033133723
